models/AE_classifier_model_00.pt (torch, 701627 bytes, 9 tensors)

classifier.0.weight f4 [8, 16, 2, 2]
000000 64 74 9f bd e9 12 95 3d b5 03 16 be 69 1c 38 bb
       -0.077858716 0.072789975 -0.14649852 -0.0028093106
000010 bc 29 d2 bd bf ef 49 bd f9 44 cd bd fe df 98 bd
       -0.102618665 -0.049300905 -0.10022921 -0.07464598
000020 62 db 31 be 32 13 3d bd 67 86 2a 3d 3f 09 b3 3d
       -0.17368844 -0.046160884 0.041632082 0.08741998
000030 b0 2d 70 3d ad 62 1d be 8d 99 de bd 66 85 b5 bd
       0.05863732 -0.15369673 -0.10869131 -0.08863334
000040 1f c9 5b 3e 5d 75 44 3e 72 dc bb bd 18 eb 13 bd
       0.2146344 0.19185396 -0.09172906 -0.036112875
000050 2c 7d 1b 3d d3 74 b4 bc ae 94 0a 3d 68 a3 f1 3d
       0.03796117 -0.022028362 0.0338332 0.117987454
000060 24 c9 95 3d 8f d1 64 3d 0c 5c 58 3d e0 f9 7b 3e
       0.07313755 0.055863913 0.052822158 0.24607038
000070 61 88 b2 3d ed 4e 38 3d 99 24 62 bd 83 49 6c bd
       0.087174185 0.044997144 -0.055210683 -0.057687294
000080 40 1b a8 bc 04 4f 1b 3e 35 1a 39 bd 7c 5f db bd
       -0.020520806 0.15166861 -0.04519101 -0.107115716
000090 bf 22 a9 3d 97 29 a3 3d 16 c3 31 be c0 24 d1 3d
       0.082585804 0.07966917 -0.17359576 0.10212088
0000a0 06 da 5e 3c af de 39 3b 84 21 49 bc 8a 6d a2 3d
       0.0136017855 0.002836149 -0.012276057 0.07931049
0000b0 55 10 eb bd bb dc b2 3d 6d ff 1e be 7e 41 40 bc
       -0.114777245 0.08733507 -0.15527125 -0.011734365
0000c0 0d 0f ba 3d f3 e8 bb bc c8 90 86 3d 49 40 07 bc
       0.09084902 -0.022938227 0.065705836 -0.008255073
0000d0 e8 8d a9 bb 54 0f 7a 3e 92 da 8d bd 08 9c e0 bd
       -0.0051743872 0.2441991 -0.069264546 -0.109672606
0000e0 e8 9d ab bd 9c b9 ba 3c a2 9d e3 bc f2 4f fb bd
       -0.083797276 0.022793584 -0.027785126 -0.12271108
0000f0 24 64 04 3e 2e fb af 3c aa 96 8e 3d eb b4 ee bd
       0.12928826 0.021482076 0.06962331 -0.11655601
000100 69 ee 81 3d b3 bf f7 bd a6 7c 07 3d da d1 df 3d
       0.06344301 -0.120971106 0.03307786 0.10928698
000110 61 86 f2 bd c2 f3 87 bc 11 9f d8 ba e3 9d 0e bc
       -0.11842037 -0.016595725 -0.0016526898 -0.008704635
000120 f4 fb d0 3b 9f 14 b5 3d 9c 9f 01 bd c8 80 e0 3d
       0.0063776914 0.08841824 -0.031646356 0.10962063
000130 16 91 74 bc ab 56 1a be 8e 13 47 bd d0 03 0f be
       -0.014927169 -0.15072124 -0.048602633 -0.13966298
000140 8b 0b 4f 3c f2 d7 a7 3c cc df 2c bc 5a 36 ac bc
       0.012637029 0.020488713 -0.010551404 -0.02102201
000150 59 cf e8 3d d5 26 47 3e ec 4b 30 be fe a2 9c bd
       0.113676734 0.19448407 -0.17216462 -0.07648276
000160 b5 62 ff 3b 6e 1e 34 bd bd 40 42 bd d5 7d 4e be
       0.007793749 -0.043974333 -0.04742502 -0.20165189
000170 fe b2 9b 3d 14 fe 9b 3d f1 5e 8c 3d 08 00 2e 3e
       0.076024994 0.07616821 0.06854046 0.169922
000180 88 6e ff 3d e3 4c d5 3d 9b 66 57 bd d5 5f c3 bc
       0.12472254 0.104150556 -0.052588087 -0.023849407
000190 74 12 96 3c fb 13 fb 3c d4 c3 43 3b a5 10 39 be
       0.018319346 0.030649176 0.0029871361 -0.18072756
0001a0 4a 1f c1 bd 3e 9a 1f be c9 b2 e5 3c d5 9a 87 bd
       -0.09429796 -0.15586182 0.028039353 -0.06621329
0001b0 2a 01 52 bc 4e 87 1c 3e f4 eb 87 3d 0e 5c 7d bd
       -0.01281766 0.1528599 0.06636801 -0.06185537
0001c0 21 31 ce 3c d6 40 8d bd c9 37 71 3d 47 2d 19 3e
       0.02516991 -0.06897132 0.05889109 0.14958678
0001d0 5f 49 25 3e 93 7b fe 3d 6c f6 78 3e db 60 62 3c
       0.1614127 0.12425914 0.24312752 0.013817037
0001e0 0a f7 8d bd 04 5a c3 bc c0 f1 fc bd 41 a3 b2 3d
       -0.069318846 -0.023846634 -0.12350798 0.087225445
0001f0 b3 17 b9 bc 43 8b bd bd 0c a1 6a 3e 64 6a 0a be
       -0.022594308 -0.09255078 0.22912997 -0.13517147
000200 3c 93 02 be 9d f4 3b 3d 05 6b 50 bd 3f 6c b0 3d
       -0.12751478 0.04588758 -0.05088331 0.08614396
000210 ee 78 d3 3c 45 db 46 bd c3 4d 45 3d 57 3c d6 3d
       0.0258145 -0.048548955 0.048169862 0.10460728
000220 48 b8 4f 3d 63 2d 35 3d 84 22 e0 bd 00 af 38 3d
       0.050712854 0.044232737 -0.10944083 0.045088768
000230 c5 2b e7 3c ef ec 57 3d 31 e3 f0 bd 05 23 02 bb
       0.028219113 0.05271619 -0.11762083 -0.00198573
000240 c2 e6 94 3d 4a 97 2c be c7 06 8b 3c d3 80 6c 3e
       0.07270576 -0.16854587 0.016971005 0.23096018
000250 b6 c0 47 3d da 99 71 3d cc 7a 53 bc c0 55 83 bd
       0.048767768 0.058984615 -0.012907695 -0.0641284
000260 57 ad 98 3d bd 53 3d 3e 12 c6 20 bc c9 e3 99 3d
       0.07454937 0.18488975 -0.009812849 0.0751415
000270 c3 ad a3 bd 98 c9 1c 3d b3 64 13 be 22 0b 3c be
       -0.07992127 0.038278192 -0.14393882 -0.18363622
000280 91 97 94 bd 47 9b 11 3d 99 6d d6 bc 29 cb 04 be
       -0.072554715 0.035548475 -0.026175307 -0.12968124
000290 b3 d9 91 bd 41 b9 0b be 7b 3c cd 3b 12 e1 81 3d
       -0.07121601 -0.13644888 0.0062633133 0.06341757
0002a0 42 15 33 3d ae 28 83 3d 89 32 c0 bd 7e 8b 83 3c
       0.043721445 0.064042434 -0.09384639 0.016057726
0002b0 18 d9 a4 3b d1 ad e8 bb 88 95 52 3d f5 de 1c 3d
       0.0050307624 -0.0071007987 0.051412135 0.038298566
0002c0 c1 cd fd 3c d0 24 c3 3d 2a 3d 76 bd 41 41 f2 3d
       0.0309819 0.09528506 -0.060116924 0.118288524
0002d0 52 6b 24 bd e3 bc 96 bd 8e 09 a7 3d e2 41 03 3e
       -0.04014141 -0.07360246 0.08156119 0.12818101
0002e0 ae 42 d5 bd fc 28 28 be b6 9f 9d bd 36 c7 2a 3d
       -0.10413109 -0.16421884 -0.07696478 0.04169389
0002f0 3d ab 06 bd d3 75 16 3e ea 2a 5b 3d 8a d7 dd bc
       -0.03287815 0.14693384 0.053507723 -0.027080316
000300 3d 9a 27 bc 75 26 02 be ce 6f 94 bd 12 46 23 3e
       -0.010229644 -0.12709983 -0.072478876 0.15944698
000310 47 cd f8 bc f0 66 1a bd 01 eb d9 bb fe b2 e2 3d
       -0.030371321 -0.037695825 -0.006650329 0.11069296
000320 22 b5 4d bd a6 1a fb bc a0 0b 19 be e7 b4 26 bc
       -0.05022157 -0.030652355 -0.14945841 -0.010174966
000330 94 a2 89 bd d4 3c 3b be 83 67 dd bd 5a dc d7 3d
       -0.067204624 -0.18284923 -0.10810759 0.105400756
000340 1f 3c 31 bc fd b1 2b bd 5a 76 05 3e d1 d5 18 be
       -0.010817557 -0.04191779 0.13033429 -0.14925314
000350 88 dc 86 3d cd d4 db 3d c2 78 86 bc bc fd c3 3d
       0.06585032 0.10733948 -0.016415004 0.0956988
000360 97 8e a0 bd 46 18 3f 3d e5 0b 88 3a f7 7a 59 bd
       -0.07839697 0.04665401 0.0010379521 -0.053095784
000370 4f eb 06 3e bb 1f 0a be 6e aa 30 bb 5a 65 c9 bc
       0.131757 -0.13488667 -0.0026957053 -0.024584461
000380 e1 77 fc 3c dc 96 45 be b6 ad 39 3d 89 6c f8 3d
       0.030818881 -0.1929583 0.04533168 0.121300764
000390 b7 b7 2b 3d c1 b2 a5 bd f1 61 3a 3e 48 bd 30 bd
       0.04192325 -0.08090735 0.18201424 -0.043149263
0003a0 92 a2 17 3e 5a 6f 14 bd 45 97 2e 3e 06 9a b5 3d
       0.1480811 -0.036239006 0.17049892 0.08867268
0003b0 f0 43 13 3d cb 5a 42 be 50 4c f1 3d da 0b 51 3c
       0.035953462 -0.18979947 0.117821336 0.012759173
0003c0 8d 56 83 bb e6 0a 23 3e ea 2b 41 bc 0e 7c 30 3d
       -0.0040081204 0.15922126 -0.011790255 0.043087058
0003d0 dc ee 80 bc 6b ab ab bd a5 08 df 3d 08 be 81 bc
       -0.015738897 -0.08382305 0.10890321 -0.015837684
0003e0 7c d7 19 3e 78 cc 20 be 07 53 e5 3c 5c 38 3e 3c
       0.15023607 -0.15702999 0.027993692 0.011610117
0003f0 e5 6a c5 bc 35 f7 a5 bd 8d 41 8a 3d aa 70 ec bd
       -0.024098823 -0.081037916 0.06750784 -0.115449265

classifier.0.bias f4 [8]
000000 e7 b3 9e bc 02 a8 91 3c 6b 37 f1 bc 4f 85 da 3c
       -0.019372893 0.017780308 -0.02944537 0.026674895
000010 b0 a0 84 bd 3d 39 bc 3d 6e b8 5f 3c 75 e0 43 be
       -0.06475961 0.09190605 0.013654811 -0.19128592

classifier.2.weight f4 [4, 8, 2, 2]
000000 94 07 ab 3d a8 14 9f bd 2a 53 48 3e 0d ea 9e 3d
       0.08351055 -0.07767612 0.19562975 0.077594854
000010 43 5a cc 3c 30 53 58 bd 21 54 14 3e cc 9b 9d 3c
       0.024945384 -0.05281371 0.14485218 0.019239329
000020 d9 14 a8 bc fd e0 55 3e 41 0f 12 3e 30 e5 96 bd
       -0.020517753 0.20886607 0.14263631 -0.07367933
000030 d7 f6 ce bd 97 b3 ba 3d c1 bd 32 bd 8c c3 9e bd
       -0.10105675 0.09116285 -0.043637995 -0.07752141
000040 aa ee c4 bd d0 8f c5 3c 38 5c 41 be 28 49 5b 3e
       -0.09615834 0.024116427 -0.18882835 0.21414626
000050 86 ad 17 3e 09 97 2a 3e 67 b1 81 3d d5 5c 58 bd
       0.14812288 0.16659178 0.06332665 -0.052822907
000060 70 41 a6 bd 22 9d 8a bd e0 29 f8 bd 17 40 0e be
       -0.0811795 -0.06768252 -0.12117362 -0.13891636
000070 0b b2 da bc 81 55 3a 3e a9 f8 8d bc 5d 16 41 bd
       -0.026696226 0.1819668 -0.017330484 -0.047140468
000080 26 e3 67 bd d9 c6 03 be 1d 71 30 be 9c 9a 0f bd
       -0.05661311 -0.12868823 -0.1723065 -0.035059556
000090 7b 84 87 bd 74 39 ea bc 12 30 24 3e 22 21 01 3c
       -0.066170655 -0.028591849 0.16033962 0.007881435
0000a0 37 37 03 3c 5e 48 d1 3d ab 08 c2 bc ba 00 0b be
       0.00800877 0.10218881 -0.023685774 -0.13574496
0000b0 f5 d6 3d 3d bf 90 61 bd 59 44 c0 bd 5d 4b 57 be
       0.046347577 -0.05506968 -0.09388036 -0.21024843
0000c0 68 bf 17 bd 43 11 1a 3e 00 09 82 3d bb 7a 88 bd
       -0.037047774 0.15045647 0.06349373 -0.06664034
0000d0 96 bb 8f 3e 91 96 0d 3e db 81 1c be 2a 93 93 3c
       0.28072804 0.13826968 -0.15283911 0.01801451
0000e0 36 85 dd 3d cc 45 38 bd 6e ae bd 3b a2 f8 a6 bd
       0.108164236 -0.04498844 0.005788616 -0.08152892
0000f0 b2 3c 9c bb 01 f1 df bd a5 66 d8 bd fb 4a 26 be
       -0.0047679776 -0.1093464 -0.10566453 -0.1623954
000100 ab 19 09 be 02 5a 39 3d 0c de e5 bd 5e cf c3 3d
       -0.13388698 0.045251854 -0.11223993 0.095610365
000110 80 4e e2 bd 8e 95 4a 3e 92 10 62 be 49 83 fb bd
       -0.11050129 0.19783613 -0.22076634 -0.122809
000120 14 f8 56 3c a7 c1 91 bd 08 b5 8b bc 9a cf 01 be
       0.01312067 -0.071170144 -0.017054096 -0.1267685
000130 e9 5a 8e bd 89 ba 10 3e a0 cb 81 3e 23 c4 a1 3e
       -0.069509335 0.14133658 0.25350666 0.31594953
000140 a9 8a 17 be d2 7c 05 3e ef ad 0f 3e 09 ed 98 3d
       -0.14798988 0.13035896 0.14031194 0.07467086
000150 b3 32 43 3d 3e 6f 77 3b 27 7c 24 3b bb 65 96 bd
       0.047655772 0.0037755514 0.0025098415 -0.07343622
000160 cc 29 20 be 02 f3 23 be be 3c 9d 3c 4e bc 50 3e
       -0.15640944 -0.16010669 0.019194003 0.20384333
000170 68 8f 77 3e 4b 5e e8 bd f7 bf 85 bd 38 f6 ca bd
       0.24175799 -0.1134611 -0.06530755 -0.09910244
000180 9b d9 2a 3e ca c9 bd 3d 4c b0 93 3e bc 1a 45 3c
       0.16684572 0.09267004 0.2884544 0.0120303
000190 2f 51 72 3d 3b 0e c7 3e e6 c8 90 3d aa 83 15 bd
       0.059159454 0.38878044 0.07069568 -0.036502518
0001a0 64 1f bc bd 47 f1 1a be 3f 54 80 3d ab cf b3 3d
       -0.09185675 -0.15131103 0.06266069 0.08779844
0001b0 7b d9 17 3e 6d 82 ed 3d 2a 1f 02 3e da 3a 16 3d
       0.14829056 0.11597142 0.127072 0.03667722
0001c0 6f 01 73 3d 11 78 b8 3d 97 70 e6 bc c0 a0 99 3c
       0.05932754 0.09007276 -0.028129859 0.01875341
0001d0 1e 53 c4 bc 22 9c 5a 3e 50 14 31 3e 6e 68 8c be
       -0.023965415 0.21348622 0.17292905 -0.27423424
0001e0 49 f3 60 bb 4b 94 4a 3e 38 80 73 3e 32 af 72 be
       -0.0034324697 0.19783132 0.2377938 -0.23699644
0001f0 03 c0 d6 bd fa f5 54 be 7e fb a3 bc f4 07 9c bd
       -0.10485842 -0.20796958 -0.020017382 -0.076187044

classifier.2.bias f4 [4]
000000 5f e9 a9 bc 83 a0 c8 3d 7d 54 af bd 38 43 3b 3e
       -0.020741163 0.0979624 -0.08561037 0.1828736

classifier.4.weight f4 [1, 4, 2, 2]
000000 e9 be 50 be 99 73 1c 3d f7 91 c1 3d de 6a 3d 3e
       -0.20385326 0.03819618 0.09451669 0.18497798
000010 99 ef 76 be a8 0d a3 be 74 1a 22 3d 43 cf 84 3e
       -0.24114837 -0.31846356 0.03957601 0.25939378
000020 8d 32 54 3e b1 a5 97 be d0 b1 a5 bc e6 da 15 be
       0.20722409 -0.296186 -0.02022639 -0.14634284
000030 a3 7d 3f 3d 94 e4 ad 3d ce d5 1c 3e 6d d5 60 be
       0.046750676 0.084908634 0.15315935 -0.21956415

classifier.7.weight f4 [200, 858]
000000 e8 88 0f bc 1d dd 82 3c 26 4f a2 bc 25 93 06 3c
       -0.008760668 0.015974576 -0.019813132 0.008213793
000010 e6 ff 8c 3b 48 b5 36 bb 74 b4 b9 bc ec cd 47 3c
       0.0043029664 -0.0027879048 -0.022669055 0.012195092
000020 17 57 10 3c 76 46 08 3d f1 de eb bc 04 94 89 3c
       0.008809826 0.03327032 -0.02879283 0.016794212
000030 08 d7 89 bb 07 6a b8 3c 7f 32 f7 ba ba 44 ef 3c
       -0.004206542 0.022511495 -0.0018859654 0.029207576
000040 1f 89 9a bb 66 06 6f 3c 48 3f ec 3c 10 03 09 3d
       -0.004716053 0.014588928 0.028838769 0.033450186
000050 f6 87 02 3d ff 49 d7 3c 9d 50 dd 3c ef bb dc 3b
       0.031867944 0.026280401 0.027015978 0.0067362706
000060 4f db f4 bc 2d d7 89 3c 6e 6b 1e bd 72 8d fa bc
       -0.02988973 0.016826237 -0.03867667 -0.030585025
000070 9c 3c e0 bc d3 a6 af b9 66 1d 77 bc 1c e0 52 3c
       -0.02737265 -0.00033502895 -0.015082693 0.012870815
000080 0e e1 da ba 66 e1 57 3c f2 e3 ac 3c de 4c ba 3c
       -0.0016699152 0.013176298 0.021104787 0.022741731
000090 3f d6 77 3c 75 07 2a 3c 69 cf 43 3b 9d 81 2f 3b
       0.015126764 0.010377754 0.0029878265 0.0026780136
0000a0 b6 89 b1 3c b1 c9 ef 3c c9 2b 05 3d ef 9d cb 3b
       0.021672111 0.029270979 0.03251246 0.0062138955
0000b0 c6 66 05 3d 4f d0 12 3c c4 01 0b bd c8 ed 62 bc
       0.032568716 0.008960797 -0.03393723 -0.013850637
0000c0 5e 10 c1 bc 9f 11 91 3c c9 43 d5 3a 86 5a 5b 3c
       -0.023567375 0.017708598 0.0016270812 0.013388282
0000d0 ef 01 ff 3c a2 7b 89 bc 56 bb 80 3c 9d 2f ea bb
       0.031128852 -0.016782586 0.015714329 -0.007146789
0000e0 60 21 db bc b9 58 66 3c 9c cf fe bc cf 6f 26 bc
       -0.026749313 0.014059239 -0.031104855 -0.010158493
0000f0 3c a2 c2 3b f6 ad a1 bc dc e1 f3 3b 6e fb 61 bc
       0.00593975 -0.019736271 0.007442696 -0.013792856
000100 30 90 cf bc d7 20 db 3c d1 94 3c bb f9 e0 ca bb
       -0.025337309 0.026749058 -0.0028775225 -0.0061913696
000110 5e f5 8c 3c fb 10 d8 bc 39 74 a1 3c f2 93 a9 3c
       0.017206844 -0.026375284 0.01970874 0.020700429
000120 e4 49 45 3c 86 06 8a bc a6 a8 04 bd 4b 16 cd 3c
       0.012041543 -0.016848814 -0.0323874 0.025035044
000130 bf e7 d8 3b ff be 17 bd ba 75 e7 bc 9b 24 b9 3c
       0.006619423 -0.037047382 -0.028254379 0.022600463
000140 62 86 c4 bc a1 79 0d 3c c8 95 e6 bc 0d 21 96 3c
       -0.02398986 0.008634956 -0.028147593 0.018326307
000150 5c d2 5c bc c9 80 fe bc 84 8e 05 3c bb 3e 67 3b
       -0.013477888 -0.031067269 0.008151654 0.0035285193
000160 2d 12 a2 bb 16 76 4b 3c 9f 11 99 bc 16 a3 c8 3c
       -0.0049460144 0.012418291 -0.01868516 0.024491828
000170 17 bb 0f bd 74 67 99 bc 50 22 39 ba 7d ee 8c 39
       -0.035090532 -0.018726088 -0.0007062303 0.00026880568
000180 92 90 cb 3b 78 df d7 bc 65 9c 08 bd 20 f8 0e 3c
       0.0062123025 -0.026351675 -0.033352274 0.00872615
000190 19 b3 00 bd 77 a9 c0 3c 71 0b b5 3c 60 4b 48 bb
       -0.0314208 0.023518307 0.022100182 -0.0030562505
0001a0 f4 4e 23 bd 91 fc 6f 3c 3b 15 9f bc 68 c4 0d bd
       -0.039870217 0.014647619 -0.019419303 -0.034611136
0001b0 fb ed fc ba 64 5e de bc 4c 94 56 3c 22 d8 34 3c
       -0.0019296998 -0.027144618 0.01309688 0.011037858
0001c0 7a a5 61 3c bb 57 eb bc e5 c8 57 bc 64 af 84 bb
       0.013772363 -0.028728357 -0.013170456 -0.0040492285
0001d0 9d 24 9d bc 0b fc 82 bb 2c 8e 7a 3c 14 e3 bf 3b
       -0.019182498 -0.003997331 0.0152926855 0.0058559272
0001e0 b1 4f cf 3c a1 ce a3 bc 94 80 b9 bc 19 06 f5 ba
       0.025306555 -0.01999599 -0.022644319 -0.0018693834
0001f0 a0 01 09 bd 4b 80 a3 3b 6d a6 a4 bc 27 30 f8 bc
       -0.033448815 0.004989659 -0.02009889 -0.030296398
000200 c4 85 14 bd c3 f6 c4 bc 1b b8 4f bc e8 3f e1 3c
       -0.03626038 -0.024043446 -0.0126781715 0.027496293
000210 67 dd 80 bc fb d7 cd bb 49 d0 74 bc 56 d5 be 3c
       -0.015730573 -0.0062818504 -0.014942237 0.023295086
000220 4e bd b6 bb 99 b0 2a bc f5 a8 23 bd cb 47 67 3c
       -0.005576766 -0.010418081 -0.03995605 0.014116238
000230 f6 15 59 bc 78 2d 4f bc b4 f3 8d bc c4 3c b9 3c
       -0.013249865 -0.012645118 -0.01732812 0.022611983
000240 d9 4c 82 3b bc 49 81 bc dc 72 4c 3c fe af a5 3a
       0.003976446 -0.01578223 0.0124785565 0.0012640951
000250 ea d7 d4 3c 6d a4 c2 bc 4e 1f fa 3b 86 74 19 bd
       0.025981862 -0.023760045 0.0076331263 -0.03746464
000260 94 54 d5 bc dd 87 07 bc c3 bd 03 bc 83 af 96 3c
       -0.026041307 -0.008272138 -0.008040848 0.018394237
000270 dc fb f9 bc f6 c4 4f 3c 2b 4e 7b 3c 12 bf a9 bc
       -0.030515604 0.0126812365 0.015338461 -0.020720992
000280 54 16 7d 3c 15 fb 88 3a 3d da 96 3b a2 d4 be bc
       0.015447218 0.0010450805 0.0046036527 -0.02329475
000290 98 8e 7c bc 2d 9c 6b 3c 3e 86 d1 bc a1 18 b4 3c
       -0.015414856 0.014380497 -0.025576707 0.0219844
0002a0 33 7f 04 bd 6b f2 17 bd 02 f8 54 bc b9 24 50 3c
       -0.03234787 -0.037096422 -0.012998583 0.012704068
0002b0 9c 18 11 bc e9 3a ae bc 17 5e 91 bc 96 fd 3a bc
       -0.008855965 -0.021268325 -0.01774506 -0.011412999
0002c0 80 4e 1c 3c f3 30 ae 3c 41 fb 79 3b 29 c1 12 bd
       0.0095402 0.021263575 0.0038144144 -0.035828743
0002d0 cb fe 23 bd 0f a0 65 ba 3f fe 5a 3c 71 53 89 bc
       -0.04003791 -0.00087595073 0.013366281 -0.01676342
0002e0 22 d0 c3 3b dc 15 57 bc 82 fc cf 3c 69 4e bd 3a
       0.005975739 -0.01312777 0.02538896 0.0014442924
0002f0 54 3e 17 3c 63 79 92 39 a1 8f a8 bb 6b 59 fb bc
       0.009231169 0.0002793773 -0.005144075 -0.030682286
000300 b8 a9 38 3c 80 39 df 3c aa 44 01 3c 56 94 c3 bc
       0.011270933 0.027249098 0.007889906 -0.023874443
000310 f1 f4 19 3c 6b e3 90 3a 74 04 ba bc d3 31 b4 3b
       0.0093967775 0.0011054104 -0.022707202 0.0054991036
000320 ab c8 2b 3b 49 4f 1d bd c6 b3 7e bc 5c ad a5 bc
       0.0026212137 -0.03840569 -0.015545791 -0.020224266
000330 c6 7c 09 bd 87 54 d5 3c 16 65 d1 ba 88 64 b1 bb
       -0.03356626 0.026041282 -0.001597556 -0.0054135956
000340 9f 1f f2 bc 4f 36 3d bc f3 79 03 bd ff 73 9d 3b
       -0.029556094 -0.011548593 -0.03209872 0.0048050876
000350 f6 de 94 3c 63 e9 81 bc ac 59 b2 bc 39 f2 a7 bc
       0.018172722 -0.015858358 -0.021771275 -0.020501243
000360 a7 74 3e bc 55 72 e1 bc 59 06 b2 bc 9e b2 1d bd
       -0.011624492 -0.027520338 -0.021731542 -0.03850042
000370 62 e6 11 3b 02 90 38 3b ad d8 14 bd c7 77 08 bd
       0.0022262563 0.0028162007 -0.03633945 -0.033317354
000380 55 97 7b 3c b6 4a a7 3c 87 ab 05 bd f4 ab dd bc
       0.015355905 0.020421367 -0.032634284 -0.027059533
000390 33 7f 8f 3c 07 1c 5f 3c b9 96 c3 bc e2 a1 45 3c
       0.017516708 0.013617522 -0.023875581 0.012062522
0003a0 15 54 d8 bc 92 95 c1 3c 32 fe bd 3c b8 89 d8 bb
       -0.026407281 0.023630891 0.023192499 -0.006608214
0003b0 e9 fb b2 bc a5 d2 83 b8 5a 17 0c bd 8c 46 95 3c
       -0.021848636 -6.2858024e-05 -0.034201957 0.018222116
0003c0 c1 c3 a3 3c 53 b4 df bc 3f 4a 66 bb 0c 33 a2 bc
       0.019990804 -0.027307665 -0.003513947 -0.019799732
0003d0 b0 76 08 bd cc 19 66 bc 8e 87 bf bb ee 32 12 bd
       -0.033316314 -0.014044236 -0.005845017 -0.0356931
0003e0 96 0a 16 bd 7e 2d 44 3c a1 20 f0 bc f4 62 96 bc
       -0.03663119 0.011973737 -0.029312434 -0.018357731
0003f0 6a 6b db 3c d1 d0 05 bd fb 06 25 bc 72 86 0f bd
       0.026784617 -0.032669846 -0.010072465 -0.035040326

classifier.7.bias f4 [200]
000000 7c cf 04 3c b5 af 52 3d 6b 9e 74 3c de 4c 77 bc
       0.008106109 0.0514371 0.014930348 -0.01509401
000010 7d ef 4e 3c 9c 36 bf bc d1 ca ab bd f7 13 1b bc
       0.012630341 -0.02334147 -0.083882935 -0.009465209
000020 20 c5 ea bc c3 84 2b 3d bc c9 2e bd 85 5d 9a 3b
       -0.02865845 0.04187466 -0.042672858 0.0047108554
000030 cc c8 3c bc 76 ae 1f 3c d6 fd 08 3d 77 d7 aa bd
       -0.011522483 0.009746185 0.0334452 -0.08341878
000040 25 4e c6 3d 3b 4a 10 bd 90 0f d5 bd 7f 87 ee bc
       0.09682874 -0.03522704 -0.10403359 -0.029117344
000050 43 f6 8c bd 46 dc 02 3e 3a fe 57 bd 24 23 0d 3d
       -0.06882908 0.1277934 -0.052732684 0.03445734
000060 0c 8e 8d 3c 8d 15 b9 3d 9d 6d b6 3a b4 d1 9b bc
       0.017279647 0.090373136 0.0013918165 -0.019020893
000070 69 53 aa 3d af ce 1e bd c8 8f cb 3d de b4 1c 3c
       0.083166905 -0.038771328 0.099395335 0.0095646065
000080 35 4a 1e bd 81 2c 4e bd d5 79 49 3c d0 fd d3 bd
       -0.038644988 -0.05033541 0.012297113 -0.10351145
000090 b4 3e 2f 3c 53 38 92 bc 3f 7d 08 bd f9 5f a6 3b
       0.010696102 -0.017849123 -0.03332257 0.005077359
0000a0 9c f1 a1 3c 3a 3e dc 3c 69 c6 16 bd 39 0b 01 be
       0.019768529 0.02688514 -0.036810312 -0.12601937
0000b0 2c de a9 3c ac 7c 3c bc 80 dd a4 ba 07 f6 b2 bc
       0.020735823 -0.0115043335 -0.0012578219 -0.02184583
0000c0 5c f6 67 bd e5 74 b3 bc cb dd 13 bd 5c 23 9b 3d
       -0.05663143 -0.021906326 -0.03610019 0.07575104
0000d0 a4 e9 83 bd 77 46 35 bd a0 65 b5 3d e7 2a ec bd
       -0.06441048 -0.044256654 0.08857274 -0.115316205
0000e0 1d 20 d6 bc ae 32 42 bd 29 a3 9f bd 8e 12 60 bb
       -0.02613836 -0.047411613 -0.07794792 -0.0034190747
0000f0 06 65 56 3c 97 dc f0 bd 66 11 4f 3d 70 2d c6 bc
       0.013085609 -0.11760824 0.0505537 -0.024191588
000100 96 0a 77 bd 1d 9b f1 3c 61 85 72 3d f8 b9 88 3a
       -0.06031283 0.02949291 0.05920923 0.00104314
000110 9b fe 0d bd 3e fb be bb 48 0e 87 bd 51 c4 32 bd
       -0.03466664 -0.0058282902 -0.06594521 -0.043644253
000120 06 68 89 3d 45 e6 e5 bb 9a da aa bd 5f 88 4d 3c
       0.06709294 -0.0070159757 -0.08342476 0.01254472
000130 ee c3 95 3c 3f c1 fe 3d 67 43 92 3b df 6a fc 3d
       0.018281903 0.124392025 0.0044636014 0.123250715
000140 30 79 87 3c d9 64 cb 3d dd dd 9f 3d 4d 76 43 3c
       0.016537279 0.099313445 0.07805989 0.011930061
000150 af 41 e8 bc b9 52 25 bd c8 82 90 3d d2 75 73 be
       -0.028351633 -0.040362094 0.070561945 -0.23775414
000160 3f 06 51 3c db d8 84 3d cf f1 03 3c 1b 9f 3e bd
       0.012757837 0.064866744 0.008053257 -0.046538454
000170 74 3b 33 bd 1c 98 08 bd 4c 65 aa 3d ef 7d ba bd
       -0.04375787 -0.033348188 0.08320102 -0.09106051
000180 2b 7a b8 3d bd fb 86 3c 54 f4 1b 3e 55 75 0e bd
       0.09007677 0.01647746 0.15229923 -0.034779865
000190 e5 37 25 bd 31 73 a4 bc 86 04 da 3d 69 c4 0c be
       -0.04033651 -0.020074459 0.10645394 -0.137468
0001a0 5a 50 d7 3d 93 f1 7e 3c f1 35 10 3e 48 00 3e 3d
       0.10513373 0.0155605255 0.14083077 0.046386987
0001b0 d3 9f 46 3d c5 c3 0d 3d e9 ed dc 3c b9 6d 97 bc
       0.048492264 0.03461053 0.026968913 -0.018484937
0001c0 38 72 40 3e 97 b2 59 3b f4 30 02 3e ab 64 13 bd
       0.18793571 0.003321802 0.12713987 -0.035984676
0001d0 9c 25 8a 3c 76 96 d7 bd 1d e3 8b bc f8 ae 24 3c
       0.016863637 -0.10526745 -0.01707607 0.010051481
0001e0 37 b9 08 3e 4e 61 20 bd cd 04 05 bd 3b 7f 87 bd
       0.13351904 -0.039155297 -0.03247528 -0.06616064
0001f0 82 ae db bc b3 17 cc 3d f1 71 16 be 4b a7 2a bc
       -0.02681661 0.09965458 -0.14691903 -0.010415862
000200 32 2e 03 be fc a3 77 3e 24 29 55 3d 0a 02 e9 bc
       -0.12810591 0.24183649 0.052041188 -0.028443355
000210 1b 39 2a bd 7b da 0b bd f6 0a 17 bd 63 a7 9b 3c
       -0.041558366 -0.034143906 -0.036875688 0.019000715
000220 3a 72 3e bd c4 ae 1d bd 17 e1 0d bc 5c 9b 9d ba
       -0.046495654 -0.038496748 -0.008659623 -0.001202445
000230 59 27 ff bc 4c 8f c1 3b f2 1e 39 3c 60 cc 24 3d
       -0.031146692 0.005906975 0.011298882 0.04023397
000240 30 44 23 3e 7c 87 89 bd 92 b9 6b 3d d4 1b c1 3d
       0.1594398 -0.06715295 0.05755002 0.09429136
000250 b6 db 9f bc e4 0a b2 3c 49 72 d2 3c 88 06 c1 bc
       -0.019513946 0.021733709 0.025689261 -0.023562685
000260 ad c1 09 bd 56 c3 ac 3c c6 49 16 3e b9 32 1c bd
       -0.03363197 0.021089237 0.1467658 -0.03813431
000270 a5 07 92 3c 9e 0d 16 be 30 d3 ed 3d 9f 63 26 bd
       0.01782591 -0.14653632 0.116125464 -0.04062235
000280 f7 97 f4 3d 08 22 c2 3c 19 f9 30 bc 92 0c b4 3d
       0.119430475 0.023697868 -0.010801577 0.0879146
000290 6b f2 c9 bd d3 98 9c 3c 79 38 13 3e 7a 26 42 bd
       -0.09860691 0.019115841 0.14377011 -0.047399975
0002a0 f0 9d 02 bd e9 d7 64 bb 8a 8c fd bc a7 f7 6c bc
       -0.031888902 -0.0034918732 -0.030950803 -0.014463342
0002b0 21 24 04 bc b3 79 8f 3d 1a e8 31 3d 7e 82 ae bc
       -0.008065254 0.07005634 0.04343424 -0.021302458
0002c0 43 11 03 bc 04 d6 d2 bc 29 b5 1b bc d9 64 01 bd
       -0.007999721 -0.025736816 -0.009503641 -0.031590316
0002d0 3a 72 e6 3d 2b b4 2c bd 4c fc d3 3c fc 0d 2c bd
       0.11252256 -0.04216401 0.02587714 -0.042005524
0002e0 5a b6 41 3e 7b f9 0b 3b fa b4 29 bc 88 db a3 bd
       0.18917218 0.0021358419 -0.01035809 -0.08000857
0002f0 23 26 06 3e 7a b2 25 3d 78 f9 83 bd be 54 a6 bd
       0.13100486 0.04045341 -0.06444067 -0.08121632
000300 cb 3d 18 3c e6 15 bb bc c2 61 58 bd d1 ca 9d bd
       0.009292076 -0.02283759 -0.052827604 -0.077047
000310 75 a6 ae bc 0a ed 97 3a fe 8c eb 3b f8 10 36 3e
       -0.021319607 0.0011591029 0.0071884384 0.1777991

classifier.9.weight f4 [10, 200]
000000 ae 62 b9 3c 36 de 96 3c b6 58 15 3e da e0 2e 3c
       0.022630062 0.018416505 0.14584622 0.010673726
000010 4e e9 18 3d 56 61 2f 3c 9a a4 81 3d 1a e9 ae 3d
       0.03733187 0.010704359 0.063302234 0.08540554
000020 8c 8c 51 bd 41 9b a8 bc a7 d6 91 bd f5 91 43 bd
       -0.051159427 -0.020581843 -0.0712102 -0.047746617
000030 4c ee 9c 3d f9 7d e6 bc 1e a8 19 bd fb 6e 73 bc
       0.07662639 -0.02813624 -0.037513845 -0.014858003
000040 86 ed 59 bd ec a7 28 bd a2 77 55 bd f5 37 54 3d
       -0.053205036 -0.041175768 -0.052116044 0.051811177
000050 f1 06 be bc 53 a3 a6 bd d5 59 34 bd c2 ce 23 be
       -0.02319667 -0.081366204 -0.044030983 -0.1599684
000060 77 da a4 3d 64 f5 00 3b 80 15 27 bc 6c bb 02 bd
       0.08049481 0.0019677514 -0.010197997 -0.03191702
000070 84 ce 55 bd 94 fe 79 3d b1 63 5b bc 12 aa 5c bd
       -0.0521989 0.0610338 -0.0133904675 -0.05387313
000080 88 54 1a 3d 72 97 0b 3c 2f 27 49 3d fa c6 0f 3b
       0.03767827 0.008519994 0.049109634 0.0021938668
000090 a6 b8 f0 bd db 0a 2b bd f8 0e 65 3c b5 be 9e 3d
       -0.11753969 -0.0417584 0.01398062 0.07751218
0000a0 3c b9 ff bc ec a2 7e 3e 42 e0 0e bd b9 3d 1f bd
       -0.031216256 0.24866837 -0.034881838 -0.038877223
0000b0 bf e4 e6 bd 4d b6 0e 3c fa a1 73 3d 79 bc aa bc
       -0.112740986 0.008710456 0.059480645 -0.020841824
0000c0 45 75 00 3d 81 d9 7b bd 59 21 68 bd 45 ef 83 bd
       0.031361837 -0.061486725 -0.056672428 -0.064421214
0000d0 d9 2a 5e bd f2 2e 70 3d 58 5f 7c bd 20 aa 8a 3c
       -0.05424008 0.05863852 -0.061614364 0.016926825
0000e0 c7 fe bd bc 97 98 2a bc a0 9c bb 3c 0c fa e3 3c
       -0.023192776 -0.010412357 0.022901833 0.027829193
0000f0 57 f2 fc bc d2 d1 27 3d e8 0e a8 bc 8a 48 8e 3d
       -0.030877275 0.040971585 -0.02051492 0.069474295
000100 d2 9f 0e 3d 26 ad a2 bc 49 fb 83 3d d4 7d 51 3e
       0.034820385 -0.019857954 0.06444413 0.20458156
000110 de 2a 09 3d 7f 0e 44 bd 01 6d 04 be 39 fe c3 bd
       0.033488147 -0.047865387 -0.12932207 -0.095699735
000120 fb 78 f8 3d a7 8d e5 bc 0c 88 1c 3d 13 a7 d7 3d
       0.1213245 -0.028021647 0.038215682 0.10529914
000130 74 a3 58 bd ea 51 0d bc 57 ba 19 be 36 3f be bc
       -0.052890256 -0.008625487 -0.1501249 -0.0232235
000140 d0 4d 27 bc 4b 48 52 3d a6 e0 35 be 1b 06 89 bb
       -0.010211423 0.051338475 -0.17761478 -0.004181636
000150 39 df 65 bd 80 99 19 3d 93 78 0a bd e4 33 f2 3b
       -0.056121085 0.037499905 -0.033806395 0.0073914398
000160 a2 89 06 bd c8 bf 80 bc d1 ad 2d 3d 7d 8a 91 bc
       -0.0328461 -0.015716448 0.042402092 -0.017766232
000170 f2 6d a9 3a 7a 1c 96 bc 76 d3 08 3d 3a e8 a0 3b
       0.0012926443 -0.018324126 0.03340479 0.004910496
000180 ba 5e 74 be 93 93 39 bd 04 9d aa bd 7c 8b d9 3c
       -0.2386426 -0.045306753 -0.083307296 0.02655577
000190 8b 52 a8 3c 6d 5c a1 3c 65 2d d1 bd a9 6d 8e bc
       0.020547172 0.019697392 -0.102137364 -0.017386274
0001a0 c2 f7 37 bd d5 84 3f bd 0f 4e b6 bc 5f 0b 2d bd
       -0.044914015 -0.046757538 -0.022254018 -0.042247172
0001b0 ec f7 37 3b cb 35 23 3d 39 c9 36 ba 11 08 71 bd
       0.0028071357 0.039846223 -0.00069727335 -0.058845583
0001c0 7d 5e 93 bc 3f 99 3f 3d 65 d3 8c bd cd 5e 74 bd
       -0.017989391 0.046777006 -0.06876258 -0.05966072
0001d0 b4 49 93 3d e9 d6 53 bc d2 af 69 b8 e1 8d 3a 3d
       0.07191792 -0.012929657 -5.5715274e-05 0.045545463
0001e0 1c 66 b7 3b d1 e6 77 bd a5 ef 11 bd 1a 32 37 3c
       0.005596889 -0.060522858 -0.035628933 0.011181379
0001f0 d1 9c 8b bc c6 28 13 be df 3d 3d 3c 32 2c 71 bd
       -0.01704255 -0.14371023 0.011550396 -0.05888004
000200 16 f8 b3 3c 10 60 89 3d 73 bf 81 bc df 3c d7 3a
       0.021968883 0.067077756 -0.01583836 0.0016421339
000210 d4 f6 33 bd 6b 95 15 3c 31 a1 e0 ba 32 9f 43 3d
       -0.043936566 0.009129862 -0.0017137883 0.047759242
000220 9a 5f 4f bd 39 2d d0 bc 4d ff 27 bd 6c 6c 3f bd
       -0.050628282 -0.025412189 -0.04101496 -0.04673426
000230 1c 79 43 bd 84 ce fa bc 9f 05 54 3d 43 20 92 3d
       -0.04772292 -0.030616052 0.051763173 0.0713506
000240 5e a2 f6 3c 1e ac 66 bc 32 1e 20 3d cd 04 fb 3d
       0.03010672 -0.014079122 0.039091296 0.12256775
000250 b4 dc 03 bd a7 ad 40 bd 40 a1 57 bd b3 2e f5 bd
       -0.0321929 -0.047040608 -0.052644014 -0.11971798
000260 3e ab fb bb 80 ec 4d bd f5 50 06 3e 2b ca f9 3c
       -0.007680326 -0.050274372 0.1311682 0.030491909
000270 f6 ce 0e bd c9 0d e1 3c 7f 25 ae bd b2 7d 2e 3c
       -0.034865342 0.027472394 -0.085032456 0.010650085
000280 62 47 21 bd 25 3b d7 bc 66 a0 0a 3d 54 c4 c4 ba
       -0.039374717 -0.02627332 0.033844374 -0.0015012124
000290 fa 36 ee 3d 2a 12 cc 3c fb b6 07 3d d5 d2 30 3d
       0.1163158 0.024911005 0.03313349 0.043169815
0002a0 87 33 ce 3c b7 0c 48 3d 5b 30 ba 3c 63 af 03 bd
       0.025171055 0.04884025 0.022728136 -0.032149684
0002b0 66 c7 a2 3d c9 cb fa bc a6 ad c8 3c c8 9e 13 bd
       0.079481885 -0.03061475 0.024496865 -0.036040097
0002c0 0f c4 11 3d 80 53 95 3c e7 0b 99 bc ad 7b c3 bc
       0.035587367 0.018228292 -0.018682433 -0.023862684
0002d0 6d b4 05 be ab aa fe bc 74 dd 5b bd aa 51 a7 3c
       -0.13057108 -0.03108724 -0.05367799 0.020424683
0002e0 73 6b 46 be 37 e2 37 3c 96 b5 c0 3c ad 72 20 3c
       -0.19376926 0.011223367 0.023524087 0.009792966
0002f0 37 5f 88 bd 7e d9 85 3d 1b 62 7e bc 04 b8 9d bd
       -0.06658786 0.06535624 -0.01552632 -0.07701114
000300 fc a9 bc bc ce 9e f8 bd b9 2a f4 bc 4c 30 89 3d
       -0.023030274 -0.121396646 -0.029805528 0.06698665
000310 ee ef 7c bd 0c f1 0c 3c 8c 1f f3 bc f7 9f 87 3d
       -0.061752252 0.008602392 -0.029678129 0.06622308
000320 d5 f2 e9 bc 36 24 e5 3c a2 dc ac bd a4 c4 2e bc
       -0.028558174 0.027971368 -0.0844052 -0.010667
000330 6a b7 0d 3d 53 9b 80 3d 2d ad 30 3d 08 59 a5 bd
       0.034598745 0.06279626 0.043133903 -0.08073622
000340 62 26 53 bd fc f4 56 3d fa 89 6e 3d 72 d4 23 bd
       -0.051550277 0.05247973 0.058237053 -0.039997526
000350 24 d4 8b 3d 45 2d 37 bd 51 18 f1 3b 2b 4a 81 3d
       0.06827572 -0.044720907 0.007357635 0.063129745
000360 f5 4b 22 bd 58 f6 2f 3d 21 27 08 bd 88 80 54 3d
       -0.03962322 0.04295954 -0.03324044 0.05188039
000370 83 a1 53 bd bc 7f 3a be 3c 63 6d bd 53 3e 8b be
       -0.0516677 -0.1821279 -0.057955965 -0.27195987
000380 aa 5f bc 3c 3a eb 76 bd 87 6f c7 ba e1 15 89 bc
       0.022994835 -0.060282923 -0.0015215733 -0.016734065
000390 4f 59 2e bd f4 38 d8 3b ae b6 53 bd a8 8e 1e 3d
       -0.04256564 0.006598586 -0.05168789 0.038710266
0003a0 ee 6c 47 3d 97 66 70 3c c0 eb 85 bd 44 a3 a1 bc
       0.048687868 0.014672897 -0.06539106 -0.019731171
0003b0 be ea 0b bd 18 36 a0 bd ef af 70 3c 39 c1 b2 bd
       -0.034159414 -0.078228176 0.014690383 -0.087282605
0003c0 04 3c 2b 3d 0d d6 4e bd ea 7d 56 ba d0 f3 c7 3b
       0.041805282 -0.050497103 -0.0008182215 0.0061020628
0003d0 00 40 73 3c d1 37 26 3d cf ec 72 3c de d0 0f 3d
       0.014846802 0.040580574 0.014826967 0.0351113
0003e0 2b c7 42 bd c3 64 5f bd bb 2b a2 bd 34 56 bd bd
       -0.047553223 -0.054539453 -0.07918497 -0.092449576
0003f0 c0 7b 38 bc 5b 58 b2 bc 95 ad b6 3c 71 1f 45 3d
       -0.011259973 -0.021770647 0.022299567 0.048125688

classifier.9.bias f4 [10]
000000 fc 35 45 bc ff fe 04 be 63 2a 6a 3d f3 78 a3 bd
       -0.012036797 -0.12987898 0.05716933 -0.079820536
000010 78 c9 44 3d 8c 8d 40 3d 9c 4a 87 bd 62 3d 97 bd
       0.048043698 0.04700999 -0.066060275 -0.07384755
000020 48 15 be bd da 9c 84 bd
       -0.09281403 -0.064752296
