models/AE_classifier_model_01.pt (torch, 701627 bytes, 9 tensors)

classifier.0.weight f4 [8, 16, 2, 2]
00000000: 8ba9 a0bd 5a22 973d 3772 11be c32e 823c
00000010: a8b3 e6bd 237a aabc 01a5 ebbd d198 5cbd
00000020: 2c8c 4bbe a9a1 69bd b931 1d3d a33a c33d
00000030: b326 7c3d 6eef 24be 973f f8bd 1b49 d5bd
00000040: 6d29 663e b800 7d3e c613 f7bd 9719 6cbd
00000050: 71cf 1f3d 21e7 80bc 3d6c 213d 19c2 243e
00000060: b304 693d 5fd3 a43d d165 ea3c 95ad 833e
00000070: 6e83 e83d d3f0 a23d 4cb8 87bd 2b25 9ebd
00000080: e424 0f3c 93a5 2c3e 07bb 47bd 39d8 edbd
00000090: 8996 9d3d 8dae c53d 5365 24be c3f6 003e
000000a0: 423b f93c a665 d73c 96b8 29bd 0a60 e33d
000000b0: d700 e3bd a725 c73d a1a7 f6bd f247 e0bb
000000c0: 2c7d 8b3d d2db 52bd de11 ad3d 63c9 77bb
000000d0: 911e 07bc 345f 983e 3b4c 6ebd 7b32 efbd
000000e0: ac52 cabd 510b 4c3d 517c 85bd a281 c0bd
000000f0: 1afa 0a3e 1c8d ee3c 675c 993d c1a4 e4bd
00000100: 6014 953d afff 00be 7dad 1c3d cf58 de3d
00000110: 2a0e 07be 1cdd 66b9 b621 36bb b8cd 283c
00000120: f20f 7e3a 9559 b03d 47a6 34bd f373 fb3d
00000130: 4f5f d4bc 5361 2dbe 46b8 82bd a84e 1ebe
00000140: 5e2e 513d 4917 193d c866 013d e495 3c3c
00000150: 4121 013e 71ca 513e f3f4 43be 6179 3dbd
00000160: f371 913d d90f 34bd 5cde 71bd ae0f 48be
00000170: b5ed b43d 8da5 b03d fba8 b53d 2e46 403e
00000180: c7c4 193e a5d0 0a3e 7bf4 89bd 6959 e5bc
00000190: ea40 0b3d 12bb 5b3d 4bf0 503c 2084 52be
000001a0: c3ea acbd 667a 34be 3c0c 113d 78d1 b1bd
000001b0: b9e8 bcbc 094d 263e cab9 a03d 24db 36bd
000001c0: 6205 92bc 1970 d6bd 42ac 4f3c e344 d83d
000001d0: d27b 1a3e 1ea8 ed3d 1771 8e3e a2c6 8e38
000001e0: 9f54 98bd 607d b8bc 64ba 04be ab25 d03d
000001f0: 19b6 b93c b4c1 f3bd 86c6 823e afdb 13be
00000200: e8a9 16be 97fc 313d 04de 3ebd 5522 cf3d
00000210: 2e71 e43c 47c0 18bd ecaa 693d 9b85 0c3e
00000220: d292 3f3d cb3c 693d d2f1 f3bd 2315 a03d
00000230: ab23 063d 2876 863d 8cd0 f6bd 20cc 93ba
00000240: 941c 0f3d 5168 65be efd2 fabb ffb8 843e
00000250: 6638 1d3d 5b33 8c3d 5057 a5bc 13a5 a4bd
00000260: da87 123d ca13 553e c175 eebc 5e65 e33d
00000270: 7e03 aabd 9a76 343d 90d4 3dbe 6a55 61be
00000280: 7a57 c9bd 5b8e 283d 677d eabc 0690 1ebe
00000290: a43c c3bd 2330 13be 14d6 8e3c c051 ac3d
000002a0: e181 533d 8ec7 cc3d f66f abbd 5fb8 fa3c
000002b0: 3d2a 9d3c 5332 debb 152d 2a3d 6250 c73c
000002c0: 05e5 073d 869b aa3d cdbb 70bd 6f1c fc3d
000002d0: 28a3 f4bc 3c9a 82bd 1f71 9b3d 19e8 183e
000002e0: 4991 e2bd 1e5c 4abe 8a00 babd 34ea 4a3d
000002f0: eabf 1fbd ae42 123e 6f92 733d 64f7 72bd
00000300: b433 7ebc c9b2 1cbe 9069 d8bd 9558 493e
00000310: 1d88 dcbb 188b 20bd bf27 193c 4e82 c03d
00000320: be39 34bd 5986 42bd aa8e 4abe 65aa 4eba
00000330: b128 92bd 9e47 48be 6001 f7bd 440b df3d
00000340: 70e2 d63c 77e6 45bd 4294 3d3e 1511 47be
00000350: 86af ae3d 143a e33d b6c7 74ba 36d3 f83d
00000360: 28f7 ccbd ac90 393d ff84 d4bc c181 87bd
00000370: a5e1 0d3e 8c22 0dbe 9ef5 81bc 8ea9 a6bc
00000380: 55ec 0d3d 87b5 54be 8675 493d b8c4 fb3d
00000390: 2f49 783d 5122 43bd 88d8 663e 8ab4 3abd
000003a0: 5052 1f3e bb2d aabc fe1f 3e3e 0a78 ac3d
000003b0: e5d9 383d 8482 52be 28cb f03d 54ac 533b
000003c0: 2b9b 8dbc a047 293e 90e3 96bb 2c0f 783d
000003d0: 176c 073c 6b7a b9bd 1a5f bc3d 09e3 54bd
000003e0: 6e28 2d3e ddaf 35be 2a7a 683d 273e a2b7
000003f0: 9d92 99bc 2954 d1bd 82df d13d 4d4e b9bd
-0.07844838 0.07379599 -0.14203726 0.015891438 -0.112647355 -0.020810192 -0.11506081 -0.053856675
-0.1987769 -0.057038937 0.038377497 0.095326684 0.061560344 -0.1610696 -0.12121504 -0.104143344
0.2247674 0.24707305 -0.12064318 -0.057641592 0.03901619 -0.01573521 0.039409865 0.16089667
0.056889247 0.08048128 0.028613003 0.2571837 0.11353193 0.0795609 -0.06626949 -0.07721933
0.008736823 0.16860037 -0.048762348 -0.11613507 0.07694728 0.096524335 -0.16054277 0.12594132
0.030423764 0.026293587 -0.0414358 0.11102302 -0.110841446 0.097239785 -0.120436914 -0.006844514
0.06810984 -0.05147917 0.084506735 -0.0037809245 -0.008247034 0.29760134 -0.058178168 -0.1167955
-0.0987905 0.04981548 -0.06517852 -0.093997255 0.13571969 0.02912002 0.074883275 -0.11164237
0.07279277 -0.12597536 0.03825139 0.10856783 -0.13188997 -0.00022016879 -0.002779109 0.010302953
0.0009691707 0.086108364 -0.044103887 0.12277975 -0.025924353 -0.16931657 -0.063828036 -0.15459692
0.05106961 0.037375722 0.03159216 0.011510346 0.12610342 0.20487382 -0.1913641 -0.046258334
0.07101812 -0.043960426 -0.05904995 -0.19537231 0.088344015 0.08625326 0.08870121 0.18776771
0.15016471 0.13556154 -0.06736084 -0.027996736 0.033997454 0.0536452 0.012752603 -0.20558214
-0.08443215 -0.17624816 0.03541206 -0.08682531 -0.02306019 0.16240324 0.078479365 -0.044642583
-0.017824832 -0.104706 0.012675347 0.10560014 0.15086296 0.116043314 0.27820656 6.808086e-05
-0.07438015 -0.022520721 -0.12961727 0.101634346 0.022669839 -0.1190218 0.25542086 -0.14439271
-0.14713252 0.04345378 -0.04659845 0.1011397 0.027886 -0.037292745 0.05704777 0.13722841
0.046770878 0.056942742 -0.11911358 0.078165315 0.03274886 0.06565505 -0.12051496 -0.0011276044
0.034939364 -0.22403075 -0.00765454 0.2592239 0.038383864 0.06845733 -0.020183235 -0.08039298
0.03577409 0.2080833 -0.029108884 0.11103319 -0.08301447 0.04405842 -0.18538117 -0.22005239
-0.09831138 0.041151386 -0.02862425 -0.15484628 -0.09533051 -0.14373831 0.017436065 0.0841403
0.051637534 0.099989995 -0.08370964 0.030605493 0.01918518 -0.0067809015 0.0415469 0.024330322
0.033177394 0.08330445 -0.05877285 0.12310111 -0.029862955 -0.06377074 0.075899355 0.14932288
-0.11062867 -0.19761702 -0.09082134 0.04953976 -0.039001383 0.14283249 0.05946582 -0.05931796
-0.015515257 -0.15302576 -0.105670094 0.19662698 -0.006730093 -0.03919515 0.009347855 0.09399854
-0.04400038 -0.047491405 -0.19780985 -0.0007883667 -0.071366675 -0.1955857 -0.12060809 0.108908206
0.02623102 -0.04831549 0.18513587 -0.1944011 0.08529572 0.11095062 -0.00093376206 0.1214966
-0.10008079 0.045303985 -0.025942324 -0.066165455 0.13855608 -0.1378271 -0.01586419 -0.020344522
0.034649212 -0.20772372 0.049184345 0.122933805 0.06061667 -0.04764015 0.22543538 -0.04558233
0.15558743 -0.02077376 0.18566892 0.08421333 0.045129675 -0.205576 0.11757499 0.003229876
-0.017285904 0.16531229 -0.0046047643 0.060561344 0.008265517 -0.090565525 0.09197827 -0.05197433
0.16909954 -0.17742868 0.05675713 -1.9340847e-05 -0.018746668 -0.102211304 0.10247709 -0.09048138

classifier.0.bias f4 [8]
00000000: 16a8 203c 58d7 233d 3f11 08bd 9f2b cfbc
00000010: cf3b 92bd 3d49 f93d 358a c43b 3298 83be
0.0098057 0.04000029 -0.033219572 -0.025289355 -0.07140314 0.12172172 0.005997921 -0.25702053

classifier.2.weight f4 [4, 8, 2, 2]
00000000: e6c3 cd3d 5441 a7bd ec13 2b3e dfe3 e43d
00000010: b92d 203d f925 25bd b810 0c3e ae9b ae3c
00000020: bd76 3fbd 4180 833e a6b8 3e3e 863d adbd
00000030: 0e76 c4bd 385f a23d 6f3b 61bd 1ba0 79bd
00000040: 5781 c1bd caec c13c 2da2 63be 781a 6c3e
00000050: f0b2 0e3e fbe2 2d3e e554 d33d a0b1 7ebd
00000060: 1606 99bd 3cb9 64bd 061f ecbd 2618 09be
00000070: 6602 adbc c1f3 5a3e 8bfb 90bd 58bf 73bd
00000080: 4d1e 32bd 3832 edbd 78df 2ebe 7a15 e5bc
00000090: e10c 9bbd 5825 06bd 0fb9 313e e22d 77ba
000000a0: a7ce 91bb e7e8 f23d fb83 90bc 6ef6 14be
000000b0: 1e8e 4d3d 480f 61bd 1aab b8bd c86f 65be
000000c0: b553 0ebd b2ba 1b3e ba99 783d cdfa 5fbd
000000d0: 447c 9c3e 7871 f63d 4337 46be 7215 093b
000000e0: 6517 f53d 3633 2ebd 49b4 033c b409 7bbd
000000f0: e31a 93bb 29d0 0cbe 87c4 edbd 3be2 2cbe
00000100: dc6d 1cbe 4f1d 9a3d b821 03be 8cb6 fd3d
00000110: 9f78 04be 30f8 863e 0c54 72be 480f 3cbe
00000120: b25c 1e3b 01b8 dbbd bae9 1abd a094 0abe
00000130: 9a90 a2bd e1c0 313e 4473 873e 9702 b53e
00000140: 3f9e 0dbe 19e2 e63d c882 0d3e 2386 943d
00000150: 32d5 7f3d 1f04 293d 29b0 5a3c ce2b e3bd
00000160: 80fe 35be 3c0a 51be b4dc c13c 12ed 513e
00000170: 570b 803e 9e26 d5bd 4e03 3cbd 1f03 e1bd
00000180: 26dd 5f3e 5129 dd3d 7182 ab3e 0af6 373d
00000190: 1a67 e33d 7c52 c53e 0a6b be3d af4b 89bc
000001a0: 48a6 dcbd 2357 0dbe 1b74 253d e91e bf3d
000001b0: 6da9 1c3e 24d5 f33d d6bf 133e 0f0f c53c
000001c0: e05a b33d 0a1e a93d 3b11 0fbd 98d1 03ba
000001d0: 4236 8abd d4e2 8b3e 8749 5e3e 7c2d a6be
000001e0: 45ec dabb f231 593e 9cd4 663e e6c2 74be
000001f0: 9630 87bd e13d 45be 5372 643d 2cd6 6dbd
0.1004713 -0.08166757 0.16706818 0.111762755 0.039106105 -0.040319417 0.13678253 0.021314468
-0.046744097 0.25683787 0.18625125 -0.08459 -0.0959283 0.07928318 -0.05498832 -0.060943704
-0.09448498 0.02367248 -0.22229834 0.23056972 0.13935447 0.16981117 0.10318927 -0.062181115
-0.07471864 -0.055840716 -0.11529355 -0.13388118 -0.021119308 0.21382047 -0.07079228 -0.05950865
-0.04348593 -0.11581844 -0.17077434 -0.027964342 -0.07570816 -0.032750458 0.1735575 -0.00094291393
-0.0044496837 0.11860829 -0.017641058 -0.1454713 0.05018436 -0.054946214 -0.0901701 -0.22405922
-0.034747798 0.15207937 0.06069348 -0.05468254 0.30563557 0.12033361 -0.19357018 0.0020917323
0.11967353 -0.042529307 0.008038589 -0.06128855 -0.004489289 -0.13751282 -0.1160975 -0.16883175
-0.15276283 0.075251214 -0.12805831 0.12388334 -0.12936638 0.26361227 -0.23664874 -0.18365204
0.0024164137 -0.10728455 -0.037820555 -0.13533258 -0.07937737 0.17358734 0.26455128 0.35353538
-0.13829897 0.112735935 0.1381942 0.07252147 0.06245918 0.041263696 0.013347664 -0.110923395
-0.17772865 -0.2041406 0.02366481 0.20500591 0.25008652 -0.10407756 -0.04590159 -0.109869234
0.21861705 0.10798896 0.33497956 0.044912376 0.111036494 0.38539493 0.0929776 -0.016759722
-0.10773903 -0.13802771 0.04039393 0.093320675 0.15299006 0.11905888 0.14428648 0.024055032
0.087575674 0.082576826 -0.03492854 -0.00050284853 -0.0674863 0.27321494 0.21707736 -0.32456577
-0.0066809976 0.21210459 0.22542042 -0.23902473 -0.06601064 -0.19261886 0.05577309 -0.05806558

classifier.2.bias f4 [4]
00000000: 2ced 653c e9b4 023e 9a3e 0ebe 9846 703e
0.014033597 0.12764324 -0.13891068 0.2346443

classifier.4.weight f4 [1, 4, 2, 2]
00000000: 098b 61be 7602 563d 70f8 b13d eaf4 333e
00000010: 3a11 5fbe 32d1 acbe 5e61 a63c 4b06 8e3e
00000020: 75a4 6a3e fc8f 9cbe e164 3bbc 40bb 19be
00000030: 2512 2b3d d6c2 af3d d6a8 273e ee35 85be
-0.22025694 0.05224844 0.08689964 0.17573896 -0.21783915 -0.33753353 0.0203101 0.27739176
0.22914298 -0.305786 -0.011437626 -0.15012836 0.04176535 0.08582084 0.16373 -0.26017708

classifier.7.weight f4 [200, 858]
00000000: e888 0fbc 1ddd 823c 264f a2bc 2593 063c
00000010: e6ff 8c3b 48b5 36bb 74b4 b9bc eccd 473c
00000020: 1757 103c 7646 083d f1de ebbc 0494 893c
00000030: 08d7 89bb 076a b83c 7f32 f7ba ba44 ef3c
00000040: 1f89 9abb 6606 6f3c 483f ec3c 1003 093d
00000050: f687 023d ff49 d73c 9d50 dd3c efbb dc3b
00000060: 4fdb f4bc 2dd7 893c 6e6b 1ebd 728d fabc
00000070: 9c3c e0bc d3a6 afb9 661d 77bc 1ce0 523c
00000080: 0ee1 daba 66e1 573c f2e3 ac3c de4c ba3c
00000090: 3fd6 773c 7507 2a3c 69cf 433b 9d81 2f3b
000000a0: b689 b13c b1c9 ef3c c92b 053d ef9d cb3b
000000b0: c666 053d 4fd0 123c c401 0bbd c8ed 62bc
000000c0: 5e10 c1bc 9f11 913c c943 d53a 865a 5b3c
000000d0: ef01 ff3c a27b 89bc 56bb 803c 9d2f eabb
000000e0: 6021 dbbc b958 663c 9ccf febc cf6f 26bc
000000f0: 3ca2 c23b f6ad a1bc dce1 f33b 6efb 61bc
00000100: 3090 cfbc d720 db3c d194 3cbb f9e0 cabb
00000110: 5ef5 8c3c fb10 d8bc 3974 a13c f293 a93c
00000120: e449 453c 8606 8abc a6a8 04bd 4b16 cd3c
00000130: bfe7 d83b ffbe 17bd ba75 e7bc 9b24 b93c
00000140: 6286 c4bc a179 0d3c c895 e6bc 0d21 963c
00000150: 5cd2 5cbc c980 febc 848e 053c bb3e 673b
00000160: 2d12 a2bb 1676 4b3c 9f11 99bc 16a3 c83c
00000170: 17bb 0fbd 7467 99bc 5022 39ba 7dee 8c39
00000180: 9290 cb3b 78df d7bc 659c 08bd 20f8 0e3c
00000190: 19b3 00bd 77a9 c03c 710b b53c 604b 48bb
000001a0: f44e 23bd 91fc 6f3c 3b15 9fbc 68c4 0dbd
000001b0: fbed fcba 645e debc 4c94 563c 22d8 343c
000001c0: 7aa5 613c bb57 ebbc e5c8 57bc 64af 84bb
000001d0: 9d24 9dbc 0bfc 82bb 2c8e 7a3c 14e3 bf3b
000001e0: b14f cf3c a1ce a3bc 9480 b9bc 1906 f5ba
000001f0: a001 09bd 4b80 a33b 6da6 a4bc 2730 f8bc
00000200: c485 14bd c3f6 c4bc 1bb8 4fbc e83f e13c
00000210: 67dd 80bc fbd7 cdbb 49d0 74bc 56d5 be3c
00000220: 4ebd b6bb 99b0 2abc f5a8 23bd cb47 673c
00000230: f615 59bc 782d 4fbc b4f3 8dbc c43c b93c
00000240: d94c 823b bc49 81bc dc72 4c3c feaf a53a
00000250: ead7 d43c 6da4 c2bc 4e1f fa3b 8674 19bd
00000260: 9454 d5bc dd87 07bc c3bd 03bc 83af 963c
00000270: dcfb f9bc f6c4 4f3c 2b4e 7b3c 12bf a9bc
00000280: 5416 7d3c 15fb 883a 3dda 963b a2d4 bebc
00000290: 988e 7cbc 2d9c 6b3c 3e86 d1bc a118 b43c
000002a0: 337f 04bd 6bf2 17bd 02f8 54bc b924 503c
000002b0: 9c18 11bc e93a aebc 175e 91bc 96fd 3abc
000002c0: 804e 1c3c f330 ae3c 41fb 793b 29c1 12bd
000002d0: cbfe 23bd 0fa0 65ba 3ffe 5a3c 7153 89bc
000002e0: 22d0 c33b dc15 57bc 82fc cf3c 694e bd3a
000002f0: 543e 173c 6379 9239 a18f a8bb 6b59 fbbc
00000300: b8a9 383c 8039 df3c aa44 013c 5694 c3bc
00000310: f1f4 193c 6be3 903a 7404 babc d331 b43b
00000320: abc8 2b3b 494f 1dbd c6b3 7ebc 5cad a5bc
00000330: c67c 09bd 8754 d53c 1665 d1ba 8864 b1bb
00000340: 9f1f f2bc 4f36 3dbc f379 03bd ff73 9d3b
00000350: f6de 943c 63e9 81bc ac59 b2bc 39f2 a7bc
00000360: a774 3ebc 5572 e1bc 5906 b2bc 9eb2 1dbd
00000370: 62e6 113b 0290 383b add8 14bd c777 08bd
00000380: 5597 7b3c b64a a73c 87ab 05bd f4ab ddbc
00000390: 337f 8f3c 071c 5f3c b996 c3bc e2a1 453c
000003a0: 1554 d8bc 9295 c13c 32fe bd3c b889 d8bb
000003b0: e9fb b2bc a5d2 83b8 5a17 0cbd 8c46 953c
000003c0: c1c3 a33c 53b4 dfbc 3f4a 66bb 0c33 a2bc
000003d0: b076 08bd cc19 66bc 8e87 bfbb ee32 12bd
000003e0: 960a 16bd 7e2d 443c a120 f0bc f462 96bc
000003f0: 6a6b db3c d1d0 05bd fb06 25bc 7286 0fbd
-0.008760668 0.015974576 -0.019813132 0.008213793 0.0043029664 -0.0027879048 -0.022669055 0.012195092
0.008809826 0.03327032 -0.02879283 0.016794212 -0.004206542 0.022511495 -0.0018859654 0.029207576
-0.004716053 0.014588928 0.028838769 0.033450186 0.031867944 0.026280401 0.027015978 0.0067362706
-0.02988973 0.016826237 -0.03867667 -0.030585025 -0.02737265 -0.00033502895 -0.015082693 0.012870815
-0.0016699152 0.013176298 0.021104787 0.022741731 0.015126764 0.010377754 0.0029878265 0.0026780136
0.021672111 0.029270979 0.03251246 0.0062138955 0.032568716 0.008960797 -0.03393723 -0.013850637
-0.023567375 0.017708598 0.0016270812 0.013388282 0.031128852 -0.016782586 0.015714329 -0.007146789
-0.026749313 0.014059239 -0.031104855 -0.010158493 0.00593975 -0.019736271 0.007442696 -0.013792856
-0.025337309 0.026749058 -0.0028775225 -0.0061913696 0.017206844 -0.026375284 0.01970874 0.020700429
0.012041543 -0.016848814 -0.0323874 0.025035044 0.006619423 -0.037047382 -0.028254379 0.022600463
-0.02398986 0.008634956 -0.028147593 0.018326307 -0.013477888 -0.031067269 0.008151654 0.0035285193
-0.0049460144 0.012418291 -0.01868516 0.024491828 -0.035090532 -0.018726088 -0.0007062303 0.00026880568
0.0062123025 -0.026351675 -0.033352274 0.00872615 -0.0314208 0.023518307 0.022100182 -0.0030562505
-0.039870217 0.014647619 -0.019419303 -0.034611136 -0.0019296998 -0.027144618 0.01309688 0.011037858
0.013772363 -0.028728357 -0.013170456 -0.0040492285 -0.019182498 -0.003997331 0.0152926855 0.0058559272
0.025306555 -0.01999599 -0.022644319 -0.0018693834 -0.033448815 0.004989659 -0.02009889 -0.030296398
-0.03626038 -0.024043446 -0.0126781715 0.027496293 -0.015730573 -0.0062818504 -0.014942237 0.023295086
-0.005576766 -0.010418081 -0.03995605 0.014116238 -0.013249865 -0.012645118 -0.01732812 0.022611983
0.003976446 -0.01578223 0.0124785565 0.0012640951 0.025981862 -0.023760045 0.0076331263 -0.03746464
-0.026041307 -0.008272138 -0.008040848 0.018394237 -0.030515604 0.0126812365 0.015338461 -0.020720992
0.015447218 0.0010450805 0.0046036527 -0.02329475 -0.015414856 0.014380497 -0.025576707 0.0219844
-0.03234787 -0.037096422 -0.012998583 0.012704068 -0.008855965 -0.021268325 -0.01774506 -0.011412999
0.0095402 0.021263575 0.0038144144 -0.035828743 -0.04003791 -0.00087595073 0.013366281 -0.01676342
0.005975739 -0.01312777 0.02538896 0.0014442924 0.009231169 0.0002793773 -0.005144075 -0.030682286
0.011270933 0.027249098 0.007889906 -0.023874443 0.0093967775 0.0011054104 -0.022707202 0.0054991036
0.0026212137 -0.03840569 -0.015545791 -0.020224266 -0.03356626 0.026041282 -0.001597556 -0.0054135956
-0.029556094 -0.011548593 -0.03209872 0.0048050876 0.018172722 -0.015858358 -0.021771275 -0.020501243
-0.011624492 -0.027520338 -0.021731542 -0.03850042 0.0022262563 0.0028162007 -0.03633945 -0.033317354
0.015355905 0.020421367 -0.032634284 -0.027059533 0.017516708 0.013617522 -0.023875581 0.012062522
-0.026407281 0.023630891 0.023192499 -0.006608214 -0.021848636 -6.2858024e-05 -0.034201957 0.018222116
0.019990804 -0.027307665 -0.003513947 -0.019799732 -0.033316314 -0.014044236 -0.005845017 -0.0356931
-0.03663119 0.011973737 -0.029312434 -0.018357731 0.026784617 -0.032669846 -0.010072465 -0.035040326

classifier.7.bias f4 [200]
00000000: 7ccf 043c 52b5 593d 9e1e b13c 620a e7bc
00000010: ca81 b1bb 9c36 bfbc 51e7 ecbd 3d12 dabc
00000020: 20c5 eabc b016 8b3d 2b67 70bd 8af6 8b3c
00000030: ac22 59bb 76ae 1f3c 9fa4 713d 1f74 d5bd
00000040: 5b52 e63d 3b4a 10bd 941f 10be 7f87 eebc
00000050: 4966 c0bd 4c35 073e ff7e 92bd 4021 253d
00000060: 2647 603c 2f03 da3d 9d6d b63a b4d1 9bbc
00000070: 608e cd3d afce 1ebd 6f29 f13d deb4 1c3c
00000080: 5d82 82bd 88cd 83bd d579 493c fdab 21be
00000090: d82c 8ebb 1e5b c6bc 3f7d 08bd 51d0 37ba
000000a0: 9cf1 a13c 291c 9fbb 69c6 16bd 6de1 11be
000000b0: a45c c43c b2e8 3cbd 80dd a4ba 3384 c2bc
000000c0: 5cf6 67bd e574 b3bc cbdd 13bd 2163 d83d
000000d0: 2942 94bd 7746 35bd 7d5b ed3d 0cc5 1dbe
000000e0: 1d20 d6bc af34 99bd bdd8 9ebd ddb3 f7bc
000000f0: 0665 563c 6bbc 15be 6284 6c3d 702d c6bc
00000100: 0e27 8abd 2ca4 2a3c 7668 643d 58a8 03bb
00000110: 9bfe 0dbd edb3 0dbb 4c97 c3bd 759d a0bd
00000120: 2eb5 b63d 45e6 e5bb 51f3 dfbd 7a6b 8f39
00000130: eec3 953c 0d55 123e 2a6c b2bc b9cb 0f3e
00000140: 3079 873c 0a15 0a3e a4aa 9d3d 4d76 433c
00000150: af41 e8bc fe0a 24bd e35b b83d 83e5 95be
00000160: 3f06 513c de10 a63d cff1 033c 54f8 73bd
00000170: 6cfd 96bd 2869 61bd aa8a bd3d d207 09be
00000180: d07f c53d bdfb 863c d68a 2a3e 5575 0ebd
00000190: e537 25bd 3173 a4bc ce51 c93d a227 35be
000001a0: c048 e23d 93f1 7e3c cfa0 153e f6fd 193d
000001b0: c39a 3f3d 1085 193d bb4b bb3c b96d 97bc
000001c0: ecdb 593e 0294 543b 440b 143e f80b 16bd
000001d0: 4af0 9b3c ca4d f2bd 1de3 8bbc 44a9 023c
000001e0: f6d8 333e 4e61 20bd cd04 05bd 6e4f cabd
000001f0: 82ae dbbc c53a de3d d1d3 47be 2727 ebba
00000200: 2ead 24be 167c 913e 1b05 3a3d 0a02 e9bc
00000210: b001 2bbd 7bda 0bbd f60a 17bd 5cc2 503c
00000220: 3a72 3ebd c4ae 1dbd 17e1 0dbc 4116 8ebc
00000230: 5927 ffbc a4fb ce3c f21e 393c 4cd2 6f3d
00000240: 096f 2a3e 02d1 d2bd 64fa 893d 451c d73d
00000250: b6db 9fbc e40a b23c 3593 9d3a 26ed 19bd
00000260: adc1 09bd b5cb 133d 2caf 2c3e dc78 3bbd
00000270: a507 923c b65f 2cbe 41ba 223e ba45 34bd
00000280: 32e6 1b3e 0822 c23c b090 38bc 52dd ab3d
00000290: 6c85 c5bd d977 99bc 1b68 3d3e 7a26 42bd
000002a0: f09d 02bd c23b 85bc 71a1 86bd a970 d3bc
000002b0: 5a32 913b f929 8f3d 4f49 2e3d 7e82 aebc
000002c0: 4311 03bc 04d6 d2bc 29b5 1bbc 662f 9cbd
000002d0: 55fb fd3d 2bb4 2cbd 4cfc d33c 38ff 46bd
000002e0: 3fd4 613e 7bf9 0b3b fab4 29bc ac24 a2bd
000002f0: 72e9 253e dd32 313d 510d 98bd 1b01 d3bd
00000300: cb3d 183c c3d8 dfbc a20a a9bd 56b6 e5bd
00000310: 0d24 a1bc d56d 5abb e4a3 eb3b 8881 603e
0.008106109 0.053151436 0.021621045 -0.028203193 -0.0054170834 -0.02334147 -0.115675576 -0.026620025
-0.02865845 0.06791437 -0.05869214 0.017085332 -0.0033132238 0.009746185 0.058994886 -0.10422539
0.11246177 -0.03522704 -0.14074546 -0.029117344 -0.09394509 0.13203925 -0.07153129 0.040314913
0.013688838 0.106451385 0.0013918165 -0.019020893 0.100369215 -0.038771328 0.11775481 0.0095646065
-0.06372521 -0.06435686 0.012297113 -0.15788265 -0.004338842 -0.02421337 -0.03332257 -0.00070119376
0.019768529 -0.004855652 -0.036810312 -0.1424615 0.023969956 -0.046120353 -0.0012578219 -0.023744678
-0.05663143 -0.021906326 -0.03610019 0.10565782 -0.072391815 -0.044256654 0.11589716 -0.15407199
-0.02613836 -0.07480752 -0.07756183 -0.030237133 0.013085609 -0.14622657 0.057743438 -0.024191588
-0.0674573 0.010415118 0.055763684 -0.0020089354 -0.03466664 -0.0021622137 -0.09550342 -0.078425325
0.08921276 -0.0070159757 -0.10935081 0.00027355162 0.018281903 0.14290257 -0.021780092 0.14042558
0.016537279 0.13484588 0.07698563 0.011930061 -0.028351633 -0.040049545 0.09001901 -0.29276666
0.012757837 0.08108686 0.008053257 -0.059562996 -0.07372555 -0.055031925 0.09254964 -0.1338189
0.09643519 0.01647746 0.16654524 -0.034779865 -0.04033651 -0.020074459 0.09830056 -0.176909
0.11049032 0.0155605255 0.14612125 0.03759571 0.04677845 0.037480414 0.02286326 -0.018484937
0.212753 0.0032436852 0.14457422 -0.036632508 0.019035477 -0.11831243 -0.01707607 0.007974926
0.17563233 -0.039155297 -0.03247528 -0.09878431 -0.02681661 0.10851053 -0.19514395 -0.0017940745
-0.16081688 0.28414983 0.045415025 -0.028443355 -0.041749656 -0.034143906 -0.036875688 0.012741651
-0.046495654 -0.038496748 -0.008659623 -0.017344596 -0.031146692 0.025266476 0.011298882 0.058550164
0.16643919 -0.10293771 0.06737211 0.10503439 -0.019513946 0.021733709 0.001202202 -0.037579678
-0.03363197 0.036082942 0.16863698 -0.045769557 0.01782591 -0.16833386 0.15891363 -0.04401181
0.15224531 0.023697868 -0.011264965 0.08391823 -0.09644589 -0.018733906 0.18496744 -0.047399975
-0.031888902 -0.016263846 -0.06573761 -0.025810556 0.004431051 0.069904275 0.04255038 -0.021302458
-0.007999721 -0.025736816 -0.009503641 -0.07626228 0.124014534 -0.04216401 0.02587714 -0.04858324
0.22053622 0.0021358419 -0.01035809 -0.07917151 0.16202334 0.043261398 -0.07424415 -0.10302945
0.009292076 -0.02732504 -0.08253981 -0.112164184 -0.01967051 -0.0033329625 0.007191168 0.21924412

classifier.9.weight f4 [10, 200]
00000000: ae62 b93c 9b8c 18bc 187c 623e 4594 2c3d
00000010: a189 4d3c 5661 2f3c 192e 4f3d c6e3 af3d
00000020: 8c8c 51bd ef12 1cbd 05c3 a6bd a70f 8cbd
00000030: c204 8d3d f97d e6bc 7990 c1bc a945 6dbc
00000040: 8953 c9bc eca7 28bd 8b92 6dbd f537 543d
00000050: acbd 60bc 9bbb 99bd af08 82bd f4ee 2ebe
00000060: 4dce b33d 70f2 013d 8015 27bc 6cbb 02bd
00000070: 5c69 79bd 94fe 793d a97e 58bc 12aa 5cbd
00000080: b563 413d 37d2 983b 2f27 493d 19ba e13a
00000090: 0f6f 8fbd 79ac 0dbd f80e 653c 444f 783d
000000a0: 3cb9 ffbc 1f7b 933e 42e0 0ebd 04d5 3dbd
000000b0: a6a3 15be b4a1 0e3c faa1 733d e4be aabc
000000c0: 4575 003d 81d9 7bbd 5921 68bd 70b7 b3bd
000000d0: 88c9 aabd f22e 703d 21ec b0bd 960a c13c
000000e0: c7fe bdbc 5525 a3bb e087 8d3c 17be 093d
000000f0: 57f2 fcbc 604d f53c ce00 95bd 8a48 8e3d
00000100: f271 263d e8ef 84bc 4399 8b3d 62b5 873e
00000110: de2a 093d 9164 69bd 5c83 1ebe 02e2 cabd
00000120: 3dfb 2f3e a78d e5bc 7094 293d 1e04 f53d
00000130: 74a3 58bd 0669 c9bc 971b 43be dc90 a1bd
00000140: d04d 27bc db19 8c3d fd74 2ebe 1b06 89bb
00000150: 39df 65bd 28dd 543d 9f59 75bd 9b70 4f3c
00000160: a289 06bd 6b58 eebc d1ad 2d3d c5cb 45bc
00000170: 6df7 3bbc 5e41 89bc dc47 0d3d d098 9f3c
00000180: a470 9dbe 9393 39bd 3ea5 d7bd 7c8b d93c
00000190: 8b52 a83c 6d5c a13c c8f8 cdbd afd5 debc
000001a0: 9ef4 7ebd d584 3fbd 7282 88bc 1761 57bd
000001b0: 82b3 c43c 0903 683d 7e77 54bd 1108 71bd
000001c0: 745a f7bc f4d5 213d b5cd 96bd 318a 74bd
000001d0: 9f77 873d 6dc1 43bd d2af 69b8 d3b6 313d
000001e0: 01ca 3d3c d1e6 77bd a5ef 11bd 23de ce3b
000001f0: d19c 8bbc dbd7 28be 812b 173d 1dcc cfbd
00000200: 28f7 8e3c 1a87 bf3d 7169 17bc df3c d73a
00000210: d4f6 33bd 6b95 153c 31a1 e0ba 70bb 453d
00000220: 9a5f 4fbd 392d d0bc 4dff 27bd b2e3 6abd
00000230: 1c79 43bd e6ee 58bc 9f05 543d f532 f03d
00000240: d5ac 653c 9563 59bc 02c8 503d ecfb f53d
00000250: b4dc 03bd a7ad 40bd 1d03 5cbc 10c8 0abe
00000260: 3eab fbbb 2667 a4bd 2c37 243e 81b2 253d
00000270: f6ce 0ebd a8bc 013d 0878 d2bd 867a 2e3c
00000280: 8c7c 9ebd 253b d7bc 66a0 0a3d 94a5 2b3c
00000290: 7441 033e 661d 053d 46ec aa3c d5d2 303d
000002a0: 8733 ce3c 5ccb 453d 9080 5e3d d36b 11bd
000002b0: 4bdb b63d d2fb 90bc 4ea9 773c c89e 13bd
000002c0: 0fc4 113d 8053 953c e70b 99bc c546 99bc
000002d0: 015c 1bbe abaa febc 74dd 5bbd c707 2e3d
000002e0: 21b6 4fbe 37e2 373c 96b5 c03c 44b4 4d3b
000002f0: 54c5 a6bd 1e9b aa3d 12bb 72bb 9546 b8bd
00000300: fca9 bcbc 9b3f 1bbe ddbb 79bc 84cc cf3d
00000310: 45d4 73bd 27fe 1b3c 8223 f3bc efac 363d
00000320: d5f2 e9bc 938f 3e3d dcdb adbd bdd0 aa3a
00000330: 5a02 163d 539b 803d d901 0c3d e140 a6bd
00000340: 6226 53bd 6b95 783d 58db 923d cc07 4bbd
00000350: a019 bd3d 452d 37bd 6968 d2bc 804e 593d
00000360: 3694 18bd 58f6 2f3d 82bb 0fbd 8880 543d
00000370: 9d19 2dbd d0f7 7cbe 304a 85bd fd2b a6be
00000380: 4179 cb3c 6500 9ebd 876f c7ba e115 89bc
00000390: 2f5b 74bd f438 d83b 3fba 80bd a88e 1e3d
000003a0: 4e5f 293d 8379 ad3c c0eb 85bd 65c5 03bd
000003b0: 74ec 90bd a3ed a0bd efaf 703c 68a1 d4bd
000003c0: 043c 2b3d 1f10 91bd ea7d 56ba 8d26 f03b
000003d0: 6791 e33c 528c 933d cfec 723c 97cf 0f3d
000003e0: 2bc7 42bd c364 5fbd bb2b a2bd 9f45 c0bd
000003f0: 2b74 46bb 5b58 b2bc d922 833c 4514 4e3d
0.022630062 -0.009310867 0.2211765 0.04213359 0.01254502 0.010704359 0.05058107 0.08588366
-0.051159427 -0.038103994 -0.08142666 -0.06838923 0.06885673 -0.02813624 -0.02362846 -0.01448194
-0.024575965 -0.041175768 -0.058001082 0.051811177 -0.013717096 -0.07506486 -0.063493125 -0.17083341
0.08779583 0.031725347 -0.010197997 -0.03191702 -0.060891494 0.0610338 -0.013213792 -0.05387313
0.04721423 0.0046637314 0.049109634 0.0017221599 -0.070036046 -0.03458831 0.01398062 0.06062247
-0.031216256 0.2880487 -0.034881838 -0.046345726 -0.14613208 0.008705545 0.059480645 -0.020842977
0.031361837 -0.061486725 -0.056672428 -0.08775222 -0.0833922 0.05863852 -0.08638788 0.023564618
-0.023192776 -0.0049788156 0.017276704 0.03362855 -0.030877275 0.029944122 -0.07275544 0.069474295
0.04063601 -0.016227677 0.06816342 0.26505572 0.033488147 -0.056980673 -0.15479797 -0.09906389
0.17185684 -0.028021647 0.041401327 0.11963676 -0.052890256 -0.024586212 -0.19053493 -0.07888958
-0.010211423 0.06840869 -0.17036815 -0.004181636 -0.056121085 0.051968724 -0.059899922 0.012661125
-0.0328461 -0.029094895 0.042402092 -0.012072508 -0.011472565 -0.016754802 0.03449236 0.019482046
-0.3075 -0.045306753 -0.10529564 0.02655577 0.020547172 0.019697392 -0.10057217 -0.027201502
-0.062245004 -0.046757538 -0.016663764 -0.052582826 0.024011377 0.05664352 -0.05187177 -0.058845583
-0.030194499 0.039510682 -0.07363454 -0.059702102 0.06614613 -0.047791887 -5.5715274e-05 0.043387245
0.011583806 -0.060522858 -0.035628933 0.006313102 -0.01704255 -0.16488592 0.036906723 -0.101463534
0.017451838 0.093519405 -0.009241448 0.0016421339 -0.043936566 0.009129862 -0.0017137883 0.048274457
-0.050628282 -0.025412189 -0.04101496 -0.057346053 -0.04772292 -0.013240552 0.051763173 0.11728469
0.014018257 -0.013268371 0.050971992 0.12010941 -0.0321929 -0.047040608 -0.013428477 -0.1355288
-0.007680326 -0.080274865 0.16036671 0.040453438 -0.034865342 0.031674057 -0.102768004 0.010649329
-0.07738599 -0.02627332 0.033844374 0.010476489 0.12817937 0.03249874 0.020864617 0.043169815
0.025171055 0.04828964 0.054321826 -0.03550322 0.089285456 -0.017698202 0.015116049 -0.036040097
0.035587367 0.018228292 -0.018682433 -0.018710503 -0.15171815 -0.03108724 -0.05367799 0.042487886
-0.2028432 0.011223367 0.023524087 0.0031387964 -0.08143106 0.083303675 -0.0037037772 -0.089978375
-0.023030274 -0.15160982 -0.015242544 0.1014643 -0.059528608 0.009521044 -0.029680017 0.044598516
-0.028558174 0.04652364 -0.084892005 0.001303218 0.036623336 0.06279626 0.03418145 -0.081178434
-0.051550277 0.06068937 0.07170743 -0.049567983 0.09233403 -0.044720907 -0.025684552 0.05305338
-0.03725072 0.04295954 -0.03509093 0.05188039 -0.042260755 -0.24703908 -0.06508291 -0.32455435
0.024838092 -0.07714919 -0.0015215733 -0.016734065 -0.059657272 0.006598586 -0.062855236 0.038710266
0.041350655 0.021176105 -0.06539106 -0.032170672 -0.0707635 -0.078578256 0.014690383 -0.10382348
0.041805282 -0.07083153 -0.0008182215 0.0073288144 0.027779294 0.07204498 0.014826967 0.035110082
-0.047553223 -0.054539453 -0.07918497 -0.09388279 -0.0030281644 -0.021770647 0.016007828 0.0503123

classifier.9.bias f4 [10]
00000000: a5d0 33bd e120 12be 6904 9e3d d2c8 01be
00000010: 8c4c 793d 3092 5e3d ad7d 82bd b68d abbd
00000020: 8465 13be 327b aabd
-0.04390015 -0.14270355 0.07715685 -0.12674263 0.060864016 0.054338634 -0.06371627 -0.083766386
-0.14394194 -0.08324279
