models/AE_fullclassifier_model_00.pt (torch, 705707 bytes, 9 tensors)

classifier.0.weight f4 [8, 16, 2, 2]
0	0xbd1ca501	-0.038243297
1	0x3d96bf95	0.0736076
2	0xbd519ec0	-0.051176786
3	0x3e3b95a2	0.18318799
4	0x3df5ac17	0.11995714
5	0x3e19530c	0.14973086
6	0xbd4bb0d4	-0.049729183
7	0x3ddc33d1	0.10752071
8	0x3db58e03	0.08864977
9	0xbe7dd8ce	-0.24789736
10	0x3daef958	0.08543652
11	0x3e37a450	0.17933774
12	0x3d63fa70	0.055658758
13	0xbe021ee0	-0.1270709
14	0x3d3b7933	0.04576988
15	0x3e05acce	0.13054201
16	0xbdf70112	-0.12060751
17	0xbc72d29d	-0.014820722
18	0x3de4ac17	0.11165636
19	0x3bcf41d3	0.0063249855
20	0xbe8eccf8	-0.27890754
21	0xbdfc5806	-0.12321477
22	0x3d5ff443	0.054676306
23	0x3e181d9a	0.14855042
24	0xbc7640d4	-0.015030105
25	0xbe2cfc9a	-0.16893235
26	0x3d57190e	0.05251413
27	0x3ec05521	0.37564948
28	0xbdcaf57a	-0.09910102
29	0x3d820f40	0.06350565
30	0x3b1d701f	0.0024023128
31	0xbc59a199	-0.013283157
32	0xbddf47d5	-0.10902373
33	0xbc593152	-0.013256388
34	0x3dce270c	0.10066041
35	0xbe0faefb	-0.14031594
36	0xbdd7544a	-0.10514124
37	0x3db82690	0.0899173
38	0xbd25b2f2	-0.04045386
39	0x3c83133a	0.016000379
40	0x3e13fb09	0.14451231
41	0x3dbed865	0.09318618
42	0xbe2490ac	-0.16070813
43	0x3dd06504	0.10175517
44	0xbe6ca575	-0.23109992
45	0xbcf40d1d	-0.02979141
46	0x3e861227	0.26185724
47	0xbdc6b90e	-0.09703265
48	0x3e0085d4	0.12551051
49	0xbbfaa85d	-0.007649465
50	0xbe2a183b	-0.16610806
51	0x3cdad499	0.026712703
52	0x3c6c365d	0.014417258
53	0x3e05225a	0.13001385
54	0xbe19d9bb	-0.15024464
55	0xbd65afcd	-0.05607586
56	0xbd8afaca	-0.067861155
57	0x3d8af7ce	0.06785546
58	0xbdc1e7a5	-0.09468011
59	0xba7bcb24	-0.00096051604
60	0xbe118f7d	-0.14214893
61	0x3dd2ef8c	0.10299596
62	0x3d4860cf	0.04892045
63	0x3db9131f	0.0903685
64	0x3c1e8e3c	0.009677466
65	0xbd983d92	-0.074336186
66	0x3cccdf2d	0.025008762
67	0x3dfa9e6b	0.12237247
68	0xbd9d9998	-0.07695311
69	0xbcdcb1d8	-0.026940271
70	0x3e1f4f52	0.15557602
71	0x3b1dd928	0.0024085734
72	0xbd8e9335	-0.06961671
73	0x3daa77a2	0.083235994
74	0x3e3dba4f	0.18528102
75	0x3e33a7fa	0.17544547
76	0x3c1d546a	0.009602645
77	0xbdc6887d	-0.09694002
78	0x3c5af646	0.01336438
79	0xbe18af52	-0.1491063
80	0x3e25d600	0.16194916
81	0x3d4a371f	0.049368974
82	0x3c1ac512	0.009446399
83	0x3e95d9a9	0.29267624
84	0xbe03029d	-0.12793966
85	0xbdf470f3	-0.11935606
86	0x3db22598	0.08698577
87	0x3e2a7e4d	0.16649742
88	0x3e10eb54	0.1415227
89	0x3e009f6e	0.12560818
90	0x3d181bf5	0.037136037
91	0x3cfbef44	0.03075374
92	0x3e08a555	0.13344319
93	0x3dec6ce5	0.115442075
94	0x3d8f5e3f	0.07000398
95	0x3db39a46	0.0876966
96	0xbe009ac7	-0.12559043
97	0xbd101d75	-0.035184342
98	0xbd348bd6	-0.04407867
99	0xbe18e342	-0.14930442
100	0xbd38b754	-0.04509671
101	0xbd360e35	-0.044447143
102	0x3bb46be0	0.0055060238
103	0x3d322cf5	0.043499906
104	0x3d075960	0.03304422
105	0xbd05acb5	-0.03263541
106	0x3dcdcaee	0.100484714
107	0x3ddad55e	0.10685228
108	0xbdd3a525	-0.10334233
109	0x3df70999	0.120623775
110	0x3d034bfb	0.032054882
111	0x3d3a86ec	0.045538828
112	0xbd21ed28	-0.03953281
113	0xbd82e870	-0.0639199
114	0x3d9d28ca	0.076737955
115	0xbd9f6afb	-0.07784077
116	0x3cac955b	0.021067312
117	0xbd31ce7a	-0.043409802
118	0x3defe29d	0.11713145
119	0x3d87512d	0.0660728
120	0x3dcf5438	0.10123485
121	0x3d31b7b3	0.04338808
122	0xbd8f0890	-0.06984055
123	0xbd87fc9b	-0.066399775
124	0xbe3dbe73	-0.18529682
125	0x3e0154c5	0.12629993
126	0x3d0a24e6	0.033726595
127	0x3d40d009	0.047073398
128	0xbd0c0b2e	-0.03419035
129	0xbe0cf375	-0.13764746
130	0x3d90edb3	0.070765875
131	0xbe16addd	-0.14714761
132	0x3e23496a	0.15945974
133	0x3e0a3a39	0.13498773
134	0xbccc77a7	-0.024959398
135	0x3d80931e	0.062780604
136	0xbdfeaaca	-0.12434919
137	0xbd02035c	-0.031741485
138	0xbe2adf7a	-0.16686812
139	0xbcc0a49f	-0.023515997
140	0x3e0ee4de	0.13954493
141	0xbd9d39c8	-0.076770365
142	0xbdff18ba	-0.12455888
143	0x3c40ba50	0.01176317
144	0xbd57afd9	-0.052657936
145	0xb8c9a1a6	-9.614536e-05
146	0xbdc43b2f	-0.09581601
147	0x3d1c9448	0.03822735
148	0x3e2be6a0	0.16787195
149	0xbd82b528	-0.06382209
150	0x3d922326	0.0713561
151	0x3cca65cf	0.02470675
152	0xbd3f669f	-0.046728726
153	0x3bead640	0.007166654
154	0xbd7bab17	-0.06144246
155	0x3e3189d8	0.1733774
156	0xbe2d207e	-0.16906926
157	0xbc18b1ea	-0.009319762
158	0x3c0f2efc	0.008739229
159	0x3e4a3313	0.19746046
160	0x3e276b4b	0.16349523
161	0xbacbb900	-0.0015542805
162	0x3daf65a7	0.085643105
163	0x3da5ac9d	0.08089564
164	0x3c8a0c16	0.016851466
165	0x3e22bc01	0.1589203
166	0xbdee5559	-0.116373725
167	0xbcd2c48e	-0.02572849
168	0xbe1fbe73	-0.15599994
169	0xbc60de71	-0.013724909
170	0xbe44ab09	-0.1920587
171	0x3e37ff58	0.179685
172	0x3dd60140	0.10449457
173	0x3dea9bbc	0.11455485
174	0xbb562afe	-0.0032679434
175	0xbe0772d5	-0.13227399
176	0xbdafeab4	-0.08589688
177	0x3e1abf06	0.15111932
178	0xbd8bd062	-0.06826855
179	0x3d581ad4	0.05275996
180	0xbba68f09	-0.005082969
181	0x3db7eab8	0.08980316
182	0xbe0904cc	-0.13380736
183	0xbc5b4ba5	-0.013384734
184	0x3d3694cd	0.0445755
185	0xbe1cb9e0	-0.1530528
186	0xbdc29a70	-0.09502113
187	0x3e0ee0f0	0.13952994
188	0x3c5872b6	0.013210943
189	0x3bcc07e0	0.0062265247
190	0xbe902837	-0.28155681
191	0xb9f25f33	-0.00046228766
192	0xbe2f5bd5	-0.17124875
193	0xbd125322	-0.035723813
194	0x3dc70810	0.09718335
195	0xbe2d3d82	-0.16917995
196	0xbe6bf2e7	-0.23041879
197	0xbcdf25cf	-0.027239708
198	0x3d5be476	0.053684674
199	0xbe1624a8	-0.14662421
200	0xbe65c2cf	-0.22437595
201	0xbd9e5618	-0.07731265
202	0xbd961b25	-0.07329396
203	0xbc8cbaf2	-0.017178986
204	0x3e3d8259	0.18506755
205	0xbd9e88d9	-0.07740945
206	0x3e1a491b	0.1506695
207	0xbe195486	-0.1497365
208	0x3db03bc0	0.086051464
209	0xbc3cced3	-0.01152392
210	0x3cc39f80	0.023879766
211	0xbd0821e5	-0.03323545
212	0x3d69010f	0.056885775
213	0xbd465f87	-0.048430946
214	0xbe856f16	-0.26061314
215	0x3da95e59	0.082699485
216	0x3e71b6a3	0.23604827
217	0xbd65d6dc	-0.05611311
218	0x3ead41e0	0.3383932
219	0xbe048406	-0.12940988
220	0xbe36fd4f	-0.17870067
221	0xbdb5a76d	-0.088698246
222	0x3e004db8	0.12529647
223	0xbceb5d83	-0.028731113
224	0x3df5b748	0.11997849
225	0xbe1a4021	-0.15063526
226	0xbb3a6467	-0.0028441192
227	0xbe068094	-0.13134986
228	0xbcda3a98	-0.026639268
229	0x3c744213	0.014908331
230	0xbdb952e4	-0.09049013
231	0xbc90fa27	-0.017697407
232	0x3dc2fc8b	0.09520825
233	0xbd5bde47	-0.053678777
234	0x3db62e1a	0.08895512
235	0xbd7812c9	-0.06056479
236	0xbddd273d	-0.107985
237	0xbdcb3908	-0.09922987
238	0xbd930662	-0.07178952
239	0xbe1dad5d	-0.15398164
240	0xbe74a366	-0.23890457
241	0xbcf76992	-0.030201707
242	0x3dc5ec76	0.09664242
243	0x3e4a0f7a	0.19732466
244	0x3dfdd19c	0.123934954
245	0xbda4783d	-0.08030746
246	0x3cef3675	0.029200772
247	0xbdfaa6b1	-0.12238825
248	0xbda6419a	-0.08117981
249	0xbd4b5ef3	-0.049651098
250	0x3dc30440	0.09522295
251	0xbe43c7da	-0.19119206
252	0x3e3940d7	0.1809114
253	0xbd83d3d5	-0.06436888
254	0x3d075a13	0.033044886
255	0x3d0aa618	0.033849806

classifier.0.bias f4 [8]
0	0xbdd5f5a7	-0.10447245
1	0x3d019b81	0.03164244
2	0xbe97d3a4	-0.29653656
3	0xbd51f69b	-0.051260572
4	0x3db87505	0.09006695
5	0xbecd1306	-0.40053576
6	0x3cd0740b	0.025445959
7	0x3e37768f	0.1791632

classifier.2.weight f4 [4, 8, 2, 2]
0	0xbdfe684f	-0.12422239
1	0x3da16772	0.07881059
2	0xbddd601e	-0.108093485
3	0xbe0ba416	-0.13636813
4	0x3d08f4ed	0.033436704
5	0xbd108faa	-0.03529326
6	0xbea6c399	-0.32571104
7	0xbdfe3638	-0.12412685
8	0x3e537936	0.20651707
9	0xbd34ea3d	-0.0441687
10	0xbc46c8e6	-0.012132859
11	0x3d7e48fd	0.062081326
12	0x3d956f67	0.07296639
13	0x3c2f77e0	0.010709733
14	0xbeccb2d0	-0.39980173
15	0xbdef7a80	-0.11693287
16	0xbca55d92	-0.02018622
17	0xbe0296bc	-0.12752813
18	0x3e0c61a5	0.13709123
19	0xbe69434a	-0.22779575
20	0xbd16109f	-0.036636945
21	0xbea665c1	-0.32499507
22	0x3cafe4f6	0.021471482
23	0x3c8d1869	0.017223554
24	0x3e252ae3	0.16129641
25	0xbda9bfc0	-0.082885265
26	0xbe0baba0	-0.13639688
27	0x3d9537ff	0.07286071
28	0xbd3a90b8	-0.04554817
29	0x3d105972	0.03524155
30	0xbe025fdc	-0.1273188
31	0x3e397d17	0.18114124
32	0xbe48b768	-0.19601214
33	0x3e221280	0.1582737
34	0xbc0d7593	-0.008633989
35	0xbe933fc7	-0.28759596
36	0x3d9d3a63	0.07677152
37	0x3db8811b	0.09009
38	0xbda442bd	-0.08020542
39	0xbdc50540	-0.09620142
40	0x3def55a0	0.116862535
41	0xbd9a87b4	-0.075454146
42	0x3dc39f11	0.09551824
43	0xbd2ca146	-0.04214599
44	0x3e525fb8	0.20544326
45	0x3c3d9604	0.011571411
46	0x3e7eb84f	0.24874996
47	0xbce8a529	-0.028399067
48	0x3da4ba54	0.08043352
49	0x3dae8238	0.08520931
50	0x3c6072d0	0.013699248
51	0x3d2bf849	0.04198483
52	0xbca6d315	-0.020364324
53	0xbd467222	-0.04844869
54	0xbd6e897d	-0.058236588
55	0xbd1d3c04	-0.038387313
56	0x3e24b07b	0.16082947
57	0xbcaa4cae	-0.020788517
58	0x3dd1a458	0.10236424
59	0xbdadb4df	-0.08481764
60	0xbd764bbc	-0.06013082
61	0x3996d0cb	0.00028765792
62	0xbe6541c8	-0.22388375
63	0xbe24877d	-0.1606731
64	0xbe1e4647	-0.15456496
65	0x3d243927	0.040093567
66	0x3e4c83d0	0.19972157
67	0xbdd919ae	-0.10600601
68	0xbe15fcf3	-0.14647274
69	0x3cb96ebb	0.022635808
70	0xbab72179	-0.0013971768
71	0x3dd4c0b4	0.10388318
72	0x3dd6e921	0.104936846
73	0xbc19223d	-0.009346542
74	0x3e23f4c2	0.16011336
75	0xbe30d20e	-0.1726763
76	0xbd93d5ca	-0.072185114
77	0x3e564634	0.20925218
78	0xbe9bf659	-0.30461386
79	0xbd7bcb8f	-0.061473425
80	0x3b88832e	0.0041660285
81	0x3dcedd79	0.10100836
82	0x3d9358a0	0.07194638
83	0x3d4690b9	0.048477862
84	0x3d347452	0.044056244
85	0xbdab55bf	-0.08365964
86	0x3c8f9239	0.01752578
87	0x3d0cc54f	0.034367856
88	0x3d6aea9a	0.05735264
89	0xbd759e2a	-0.05996529
90	0x3c9ff3be	0.019525405
91	0x3dc33b3e	0.09532784
92	0xbcefe54c	-0.029284142
93	0x3e1e75dc	0.15474647
94	0x3e1f42e1	0.15552856
95	0xbe19f26c	-0.15033883
96	0xbe3373b8	-0.17524612
97	0xbc990853	-0.018680727
98	0x3e2c0688	0.16799366
99	0x3d9f7dfc	0.077877015
100	0x3e030e0f	0.12798332
101	0x3e0e47eb	0.13894622
102	0xbd0db20f	-0.034593638
103	0xbc9f7c82	-0.01946855
104	0xbcb48bae	-0.02203926
105	0x3e59162c	0.21199864
106	0xbb8fd1a9	-0.004389007
107	0x3de86425	0.11347226
108	0x3c3c2040	0.011482298
109	0xbc53d3a6	-0.012928879
110	0x3e648356	0.22315726
111	0x3e59c374	0.21265966
112	0xbe0b64d6	-0.13612685
113	0x3e6f14f8	0.23347843
114	0xbd0ff4ea	-0.035145678
115	0x3dd96982	0.10615827
116	0x3d48fb54	0.04906781
117	0x3def2d29	0.116785355
118	0xbe4afc8e	-0.19822904
119	0x3e215cc4	0.15758044
120	0xbdfd2920	-0.123613596
121	0x3e7b97e8	0.24569666
122	0xbda19184	-0.07889083
123	0x3d776057	0.06039461
124	0xbd91cdf6	-0.07119362
125	0x3dfa2283	0.12213614
126	0x3df5106d	0.119660236
127	0xbdcd0317	-0.10010355

classifier.2.bias f4 [4]
0	0x3e0b2ac9	0.1359054
1	0xbdf51be4	-0.1196821
2	0xbe4c2362	-0.19935372
3	0xbd5b2d2a	-0.05350987

classifier.4.weight f4 [1, 4, 2, 2]
0	0xbd9cbd7b	-0.07653328
1	0xbc49406c	-0.012283426
2	0xb89ce1bc	-7.480706e-05
3	0xbd69aee5	-0.057051558
4	0xbe03675b	-0.12832396
5	0x3dddbbc7	0.10826831
6	0xbd99afa3	-0.07504203
7	0xbdf7ec13	-0.121055745
8	0x3e122e02	0.14275363
9	0x3dbd7d2b	0.092523895
10	0xbd2a5012	-0.041580267
11	0xbdef9c5d	-0.11699746
12	0x3e4af495	0.19819863
13	0xbe4acdb9	-0.1980504
14	0xbe28a610	-0.16469598
15	0x3d976a61	0.07393337

classifier.7.weight f4 [200, 858]
0	0x3d8ee480	0.06977177
1	0x3dc84c7f	0.097802155
2	0x3d0acc7f	0.03388643
3	0x3c914405	0.01773263
4	0xbce2571d	-0.02762943
5	0x3d0693dc	0.032855853
6	0x3ca837ee	0.020534482
7	0xbca18ab2	-0.019719455
8	0xba73fe0f	-0.0009307572
9	0xbbdfab12	-0.006825813
10	0xbcf800e1	-0.030273857
11	0xbd0a481a	-0.033760168
12	0xbc0018e0	-0.007818431
13	0xbcd44362	-0.025911037
14	0x3cc7b1de	0.024376806
15	0x3b923d8b	0.004462903
16	0xbb858407	-0.004074577
17	0x3be249e1	0.0069057797
18	0x3c8c100f	0.017097501
19	0xbd003c85	-0.031307716
20	0x3aa6290e	0.001267703
21	0xbc0f2c2b	-0.008738558
22	0x3cca4c08	0.024694458
23	0xbc14df5f	-0.009086459
24	0x3d07e944	0.033181444
25	0xbc7d4dea	-0.015460471
26	0x3c1f9d19	0.009742045
27	0xbb5fbac7	-0.0034138428
28	0x3c7f915c	0.015598621
29	0xbca4c62f	-0.020114033
30	0x3d0184ed	0.03162091
31	0x3bab1054	0.0052204523
32	0xbc996beb	-0.018728217
33	0xbb66c9fb	-0.0035215605
34	0x3c015b7e	0.007895349
35	0x3bbbec56	0.0057349605
36	0xbd0394e0	-0.0321244
37	0x3cc15170	0.023598403
38	0x3c870a63	0.016484445
39	0x3cdaadbc	0.026694171
40	0x3ab3fd0a	0.0013732028
41	0x3bf6c93f	0.0075313146
42	0xbccffbf1	-0.02538869
43	0xbc53fe8e	-0.012939109
44	0xbc4dab1a	-0.012553001
45	0xbce8f50c	-0.02843716
46	0xbc6ec783	-0.0145739345
47	0x3c298f5b	0.01034912
48	0x3c51e8f9	0.012811893
49	0xbcc1aea4	-0.023642845
50	0x3cbd00c1	0.023071649
51	0xba9c5b42	-0.0011929052
52	0x3cd1d7f2	0.025615666
53	0xbcf398b9	-0.02973591
54	0x3c19f8dd	0.009397713
55	0x3c5284e4	0.012849066
56	0x3ac71a50	0.0015190337
57	0xbc5f7609	-0.013638982
58	0xbc023fbf	-0.007949769
59	0xbcf8026c	-0.030274592
60	0xbd068a12	-0.032846518
61	0x3bbf9d8e	0.0058476394
62	0xbcfba6d2	-0.030719195
63	0xbd0484fe	-0.032353394
64	0xbb0fb11b	-0.0021925631
65	0x3b278e16	0.0025566868
66	0xbdebca8a	-0.11513241
67	0x3d07f0bc	0.033188567
68	0x3e26b997	0.16281734
69	0xbd5d9b8b	-0.054103415
70	0x3c01ebef	0.007929786
71	0x3c38a163	0.011268946
72	0x39fdda9b	0.00048418794
73	0x3d0014b4	0.031269744
74	0x3d4224d7	0.047398414
75	0xbccc7901	-0.024960043
76	0x3d0a8c44	0.033825174
77	0x3cf24ef8	0.02957867
78	0x3bdca8b3	0.0067339777
79	0xbdfb6234	-0.1227459
80	0xbd479876	-0.048729382
81	0x3d1ef77c	0.03881024
82	0x3c8e9375	0.017404297
83	0x3cf9880b	0.030460378
84	0x3d1f71ed	0.038927007
85	0xbd14d7c3	-0.03633858
86	0x3d0b564e	0.034017853
87	0xbc56c328	-0.013108052
88	0x3e0d573c	0.13802809
89	0x3d6467e2	0.055763133
90	0x3d13247f	0.035923477
91	0x3e02e4c1	0.12782575
92	0x3bb50904	0.0055247564
93	0xbd01fafe	-0.031733505
94	0xbcdab030	-0.02669534
95	0xbc9ae0ee	-0.018906083
96	0x3cf28176	0.029602747
97	0x3e065702	0.13119128
98	0x3db56a3d	0.08858154
99	0x3de3f276	0.1113023
100	0x3da86dd5	0.08224074
101	0xbcb8c38f	-0.022554187
102	0xbc844a43	-0.016148692
103	0x3d8a52e9	0.06754095
104	0xbca32ad1	-0.019917877
105	0x397dd621	0.0002420773
106	0x3d6e25e2	0.058141597
107	0x3e219fd5	0.15783627
108	0x3e699f0e	0.22814581
109	0x3b570dd1	0.0032814632
110	0x3d5f91fa	0.054582573
111	0x3d0e6f49	0.0347741
112	0x3daea910	0.0852834
113	0x3d350df0	0.044202745
114	0xbc9685bc	-0.018374316
115	0x3ce2f148	0.027702942
116	0x3e0c01fc	0.13672632
117	0x3dd702d8	0.10498589
118	0x3d880bcb	0.06642874
119	0x3d375611	0.044759814
120	0xbd26e33b	-0.040744048
121	0x3c38fcfc	0.011290785
122	0x3ccc3241	0.024926307
123	0x3d3bcae8	0.045847803
124	0x3e068a91	0.13138796
125	0x3d485d72	0.04891724
126	0x3b756a6b	0.0037447463
127	0x3d36f43a	0.044666506
128	0xbb0458b5	-0.0020194475
129	0xbd67c311	-0.056582514
130	0xbdafd383	-0.085852645
131	0xbd074cf2	-0.033032365
132	0xbcb61721	-0.022227826
133	0xbdcff652	-0.10154404
134	0xbdd81ee3	-0.10552766
135	0x3d0ba6ac	0.034094498
136	0x3e000cee	0.12504932
137	0xbc8ec648	-0.017428532
138	0xbb1ceb29	-0.0023943877
139	0xbc0e663a	-0.008691365
140	0xbe06d37c	-0.13166612
141	0xbc2f563a	-0.01070171
142	0xbe43162e	-0.1905143
143	0xbdff8542	-0.12476589
144	0x3d6b383a	0.05742667
145	0xbe0e5d93	-0.13902883
146	0xbca1f6ac	-0.019770943
147	0xbd5a97c1	-0.05336738
148	0x3d77027b	0.0603051
149	0x3c477caa	0.012175718
150	0xbd397cb2	-0.045284934
151	0x3deaef9f	0.11471485
152	0xbe167bb1	-0.14695622
153	0x3dd815b3	0.10551014
154	0x3c670f52	0.014102774
155	0xbd74d4b8	-0.059773177
156	0x3d7be209	0.06149486
157	0xbda1b7e4	-0.078964025
158	0x3c88abfa	0.016683567
159	0x3d0bae90	0.034102023
160	0xbdd5bcea	-0.10436423
161	0x3d23b1ad	0.039964367
162	0xbd5433f5	-0.051807363
163	0xbc75460b	-0.014970313
164	0x3d718c86	0.058971904
165	0xbb983e67	-0.004646111
166	0x3db8de92	0.09026827
167	0x3d92c1cf	0.07165872
168	0x3d4ce686	0.05002453
169	0xbcec59b2	-0.028851364
170	0xbddf6496	-0.10907857
171	0xbd143fc7	-0.036193635
172	0xbd7c9bf7	-0.061672177
173	0xbde7d447	-0.113197856
174	0xbb7d9879	-0.0038695617
175	0x3e000f39	0.12505807
176	0xbc9455fb	-0.018107405
177	0x3c09b873	0.0084057925
178	0xbdcf258a	-0.10114582
179	0xbd8f3b60	-0.06993747
180	0xbcf3f72b	-0.029780945
181	0x3d60dafd	0.054896343
182	0xbd237f19	-0.03991613
183	0x3d811c49	0.06304223
184	0x3dadecf5	0.084924616
185	0xbd91ab99	-0.07112808
186	0x3d134e3b	0.03596328
187	0x3da048a1	0.07826353
188	0xbdaf1ef4	-0.08550826
189	0xbba58156	-0.0050508184
190	0xbe0c4d88	-0.13701451
191	0xbe169a8c	-0.14707392
192	0xbd5082fe	-0.050906174
193	0xbdd9391a	-0.106065944
194	0x3e09bd7a	0.13451186
195	0xbdc0771f	-0.093977205
196	0xbd436551	-0.047704045
197	0x3d8b41b0	0.06799638
198	0xbd3b1895	-0.04567774
199	0xbc9372b7	-0.017999036
200	0xbe0ab1b8	-0.13544357
201	0xbc601bf6	-0.013678541
202	0xbb52348d	-0.003207478
203	0xbe0f5b47	-0.13999663
204	0x3d01c593	0.031682562
205	0x3c26c4ca	0.010178754
206	0xbb1e35e5	-0.002414101
207	0xbcb4a4ac	-0.022051178
208	0x3c40c7bb	0.011766369
209	0x3cd360ab	0.02580293
210	0xbda03f77	-0.07824605
211	0x3dfb05b7	0.122569494
212	0x3cefd073	0.029274201
213	0xbd131a6e	-0.035913877
214	0x3e003b2d	0.12522574
215	0x3d1d3306	0.038378738
216	0xbd79abbd	-0.060954798
217	0x3e15d37e	0.14631459
218	0xbc122fc1	-0.008922518
219	0x3ba9f257	0.00518636
220	0xbccfd886	-0.025371801
221	0x3d0e0c7f	0.034679886
222	0x3e73bbfa	0.23802176
223	0x3dc606bb	0.096692525
224	0xbd8e76fa	-0.06956287
225	0xbc60e738	-0.013727002
226	0x3dc9c166	0.09851341
227	0xbe1edfca	-0.15515056
228	0x3c7369a0	0.014856726
229	0xb9cf84eb	-0.00039581148
230	0xbe1375ac	-0.14400357
231	0x3d1e756c	0.0386862
232	0xbd0f1de1	-0.034940604
233	0xbcef2428	-0.029192045
234	0x3de10630	0.10987508
235	0x3d787d9e	0.060666673
236	0x3dd29803	0.102829
237	0xbc189563	-0.00931296
238	0xbd08234d	-0.03323679
239	0x3e47e7e5	0.19522054
240	0x3c048923	0.008089337
241	0xbd0370a5	-0.032089848
242	0xbdb85bf6	-0.09001915
243	0x3cc2c772	0.023776744
244	0xbd9cb93e	-0.0765252
245	0xbdedae7c	-0.11605546
246	0xbe284655	-0.1643308
247	0xbddd1254	-0.107945114
248	0x3de8b8cf	0.113633744
249	0x3d880dd8	0.066432655
250	0x3d1c314f	0.03813296
251	0xbda13706	-0.07871823
252	0xbda37da6	-0.0798295
253	0x3d3b0fa1	0.0456692
254	0x3dd4c3b2	0.103888884
255	0x3d0a561e	0.033773534

classifier.7.bias f4 [200]
0	0xbdb5e55e	-0.08881639
1	0x3ddd2406	0.107978866
2	0x3bcf6f0f	0.006330378
3	0x3d1be3a3	0.03805889
4	0xbd3dacd5	-0.046307404
5	0xbd1fb81a	-0.038993932
6	0xbbec2f6e	-0.0072078025
7	0x3d7d436b	0.061831873
8	0x3e50f2ed	0.20405169
9	0xbcf0496c	-0.029331885
10	0x3e2ec1f1	0.1706617
11	0x3cbf20d5	0.023331085
12	0xbda3447c	-0.07972047
13	0x3e1822a8	0.1485697
14	0x3c9fce9e	0.019507702
15	0x3cb15007	0.021644605
16	0xbde90359	-0.11377592
17	0x3e2cae2a	0.16863313
18	0x3da9dff2	0.08294667
19	0x3d8780ae	0.066163406
20	0xbd930fde	-0.07180761
21	0x3da9ae2c	0.08285174
22	0xbda16b36	-0.07881777
23	0x3e06cd7d	0.13164325
24	0xbadc667e	-0.0016815213
25	0x3d02a20c	0.03189282
26	0x3e08dd77	0.13365732
27	0xbdb5a22d	-0.08868823
28	0xbb327cc1	-0.0027235004
29	0xbc9ce783	-0.019153362
30	0x3d9f9d97	0.0779373
31	0xbc02a508	-0.007973917
32	0x3e0989f9	0.13431539
33	0xbd0a56ac	-0.033774063
34	0xbe031df6	-0.12804398
35	0xbdb973a6	-0.09055261
36	0xbdc6d33f	-0.09708261
37	0x3e01e411	0.12684657
38	0xbd950689	-0.07276637
39	0x3b371270	0.0027934574
40	0xbcca91e8	-0.024727777
41	0xbd8ee50e	-0.069772825
42	0x3db94008	0.09045416
43	0x3e138bdc	0.14408821
44	0x3b9d2a1d	0.00479628
45	0x3e8b9a75	0.2726628
46	0x3da0cb23	0.07851245
47	0x3dfdc1c2	0.12390472
48	0xbcbc7561	-0.02300519
49	0xbe991ac1	-0.29903224
50	0x3d22dec4	0.039763227
51	0x3d536817	0.05161294
52	0x3baa895c	0.005204363
53	0x3d127d47	0.035764005
54	0xbc9095cf	-0.01764956
55	0xbd621c0b	-0.055202525
56	0xbca603a6	-0.020265412
57	0xbd00cd27	-0.03144565
58	0x3bf92e77	0.007604416
59	0xbbd29ea8	-0.0064276047
60	0xbd3d0e2e	-0.0461561
61	0x3e360c5c	0.17778152
62	0xbd103097	-0.03520259
63	0x3d945dac	0.07244429
64	0x3d1a33b3	0.03764696
65	0x3e362311	0.17786814
66	0xbd78e838	-0.060768336
67	0x3e1256fb	0.14290993
68	0xbc57565c	-0.013143148
69	0xbd0eda69	-0.03487626
70	0xbcf7d99d	-0.030255133
71	0x3be239e1	0.0069038724
72	0x3de95293	0.11392703
73	0xbd0288f6	-0.031868897
74	0x3d8bd85e	0.06828378
75	0x3da1d30b	0.079015814
76	0xbd26a8db	-0.040688377
77	0xbd2c14e0	-0.042012095
78	0x3d8dcc0e	0.06923686
79	0x3c89c5c0	0.016817927
80	0x3ab29874	0.0013625757
81	0xbdf3d68f	-0.11906158
82	0xbd8ce3b8	-0.068793714
83	0xbd029dc1	-0.031888727
84	0x3e32fb55	0.17478688
85	0xbe087104	-0.13324362
86	0x3be2ac31	0.0069174995
87	0x3d1b62d6	0.037936054
88	0x3c393d48	0.0113061145
89	0x3c8e8114	0.017395534
90	0xbdea989b	-0.114548884
91	0xbd5469d4	-0.051858738
92	0x3ce98075	0.028503636
93	0xb93afdf1	-0.00017832943
94	0x3e746ea6	0.23870334
95	0x3cf6a660	0.03010863
96	0x3e662559	0.22475185
97	0x3c9d5567	0.019205762
98	0xbbc12a9f	-0.0058949734
99	0x3e7cf5ca	0.24703136
100	0xbd706601	-0.05869103
101	0x3ca63728	0.020289972
102	0x3c9d9e69	0.019240575
103	0xbda0b95d	-0.07847855
104	0xbc383e47	-0.011245317
105	0xbd8070eb	-0.062715374
106	0x3dbe26d6	0.09284751
107	0x3d7e73e1	0.06212223
108	0xbd85b339	-0.06528325
109	0x3dc4c011	0.09606946
110	0xbdad2b81	-0.08455563
111	0x3da02f8a	0.07821567
112	0x3de31407	0.11087804
113	0xbbf162f8	-0.0073665343
114	0x3cb67c09	0.022275941
115	0xbda0dff8	-0.07855219
116	0x3cc61ba1	0.024183096
117	0xbd952882	-0.07283117
118	0x3e32f9c0	0.17478085
119	0x3e3f7cb9	0.18699922
120	0x3bbed7fa	0.0058240863
121	0xbd595322	-0.053057797
122	0x3d132872	0.035927244
123	0x3e2398eb	0.15976302
124	0xbbf6de87	-0.0075338515
125	0xbd85f9fc	-0.06541821
126	0xbda41435	-0.08011667
127	0xbd6f5930	-0.058434665
128	0xbe8b1e6e	-0.27171654
129	0xbc1791b3	-0.009251046
130	0x3df29535	0.11844865
131	0xbe4ed39a	-0.20197907
132	0x3cd5b800	0.026088715
133	0x3b4528a7	0.0030084045
134	0x3e0d87cb	0.13821332
135	0xbd60a54b	-0.054845136
136	0x3dbd55a1	0.09244848
137	0x3c43d0aa	0.011951605
138	0x3dfa79cc	0.12230262
139	0x3e6268f6	0.22110352
140	0xbdaf8147	-0.085695796
141	0xbcacb225	-0.02108104
142	0x3db94c29	0.090477295
143	0x3e2c8e3a	0.1685113
144	0x3a73c44b	0.0009298964
145	0x3c0cdd38	0.008597665
146	0x3dbed8a7	0.09318667
147	0xbdc22b82	-0.09480955
148	0xbc1165fc	-0.008874413
149	0xbd7a243f	-0.061069723
150	0xbe60b07a	-0.2194232
151	0xbcccef0c	-0.02501633
152	0xbc78799a	-0.015165711
153	0xbcd0f12d	-0.025505627
154	0x3d851825	0.06498746
155	0xbd149e86	-0.036283992
156	0xbcbd8391	-0.023134025
157	0xbd92115f	-0.071322195
158	0x3d1bbd2e	0.038022213
159	0xbe756958	-0.23965967
160	0x3e7eff1b	0.24902003
161	0x3d8befcc	0.06832847
162	0xbd75e7a4	-0.060035363
163	0xbc8c741d	-0.01714521
164	0xbc3c40ca	-0.011490056
165	0x3dd17ba3	0.1022866
166	0xbd823209	-0.063572
167	0xbbe6d29e	-0.0070441505
168	0x3d237190	0.039903224
169	0xbd017595	-0.031606276
170	0x3d3f8b2b	0.04676358
171	0xbbaaebaf	-0.005216084
172	0xbd448f21	-0.04798806
173	0xbd058a1f	-0.032602426
174	0xbda0ac7f	-0.07845401
175	0xbd0d2822	-0.0344621
176	0xbc1f05c5	-0.009705965
177	0x3e450b71	0.19242646
178	0x3d456156	0.04818853
179	0x3df8bfcd	0.12145958
180	0xbd8ae7e7	-0.06782513
181	0x3c0e4408	0.008683212
182	0xbc843943	-0.016140586
183	0x3e074668	0.13210452
184	0xbd73f505	-0.05955984
185	0xbd878789	-0.06617648
186	0x3b0cc25c	0.0021478152
187	0xbd0ec675	-0.034857232
188	0xbb717e70	-0.0036849044
189	0xbd0c23a4	-0.034213677
190	0xbd127b98	-0.0357624
191	0x3c1708b5	0.0092183845
192	0x3db6c0b6	0.089234754
193	0xbe52e647	-0.20595656
194	0x3d2be3e9	0.0419654
195	0xbd88c99c	-0.06679079
196	0x3e82acc7	0.25522444
197	0xbd16fba4	-0.036861077
198	0x3db9ab9c	0.09065935
199	0xbe68e2fb	-0.22742836

classifier.9.weight f4 [15, 200]
0	0xbb977d92	-0.0046231234
1	0xbd10ecdd	-0.03538214
2	0x3c7f0c38	0.015566878
3	0xbdf45af2	-0.11931409
4	0xbca07604	-0.019587524
5	0x3c597ba8	0.013274111
6	0x3e5610ce	0.20904848
7	0x3dba65df	0.091014616
8	0x3cfd7827	0.030941082
9	0x3b384826	0.0028119176
10	0x3dd2bb77	0.10289662
11	0xbd020bb6	-0.03174945
12	0xbe37fb99	-0.1796707
13	0xbda2d0ed	-0.07950006
14	0x3e0080b5	0.12549098
15	0xbd84d0af	-0.06485116
16	0xbd3526e6	-0.04422655
17	0xbe03803f	-0.12841891
18	0xbd59b785	-0.053153533
19	0xbe0f8210	-0.14014459
20	0x3b3ee072	0.002912548
21	0x3da86a35	0.082233824
22	0xbc160b30	-0.009157941
23	0xbd9ed1bb	-0.07754847
24	0xbd86f5f5	-0.06589881
25	0xbe1eda4e	-0.15512964
26	0xbd86c734	-0.06580964
27	0xbd55820e	-0.052125983
28	0xbde94d32	-0.11391677
29	0x3d4671c0	0.048448324
30	0x3d532caf	0.051556285
31	0x3d47095e	0.048592918
32	0xbd994853	-0.07484498
33	0x3d746e22	0.059675343
34	0x3dafaffe	0.0857849
35	0x3e045b6d	0.12925501
36	0xbd46d19f	-0.048539754
37	0xbd4b856c	-0.049687788
38	0xbe256f83	-0.1615582
39	0xbd3d2dc6	-0.04618623
40	0xbd29d50b	-0.04146294
41	0x3dec2aad	0.11531577
42	0xbe36a4f8	-0.17836368
43	0xbd8d64de	-0.069040045
44	0xbc9152dc	-0.017739706
45	0xbce47bd4	-0.027891077
46	0xbdaa0b37	-0.0830292
47	0xbd6ffe43	-0.058592092
48	0x3cc52601	0.024065973
49	0x3d82382c	0.0635837
50	0x3db4e67e	0.088330254
51	0xbd9cefd7	-0.07662933
52	0xbd79f057	-0.06102022
53	0x3d13abf7	0.03605267
54	0xbcc51b77	-0.024060948
55	0xbcd8982b	-0.026439747
56	0x3d8710f0	0.065950274
57	0x3d0cf2d9	0.034411285
58	0xbe1f9602	-0.15584567
59	0xbd9d1e23	-0.07671764
60	0xbbbf1d3b	-0.005832342
61	0xbd4b5e4e	-0.049650483
62	0x3d27b639	0.040945265
63	0x3e85fbde	0.26168722
64	0x3e2fc75c	0.17165893
65	0xbe06612e	-0.13123009
66	0xbd5eb970	-0.054376066
67	0x3ddbee18	0.10738772
68	0xbb68654c	-0.0035460768
69	0xbd995e19	-0.07488651
70	0xbcbf75f3	-0.023371672
71	0x3d16a03d	0.03677391
72	0x3df85913	0.121263646
73	0xbce6f850	-0.028194577
74	0xbd0838a9	-0.03325716
75	0x3e5703d5	0.20997556
76	0xbbef7adf	-0.0073083485
77	0xbe086650	-0.13320279
78	0x3d64bee0	0.055846095
79	0xbd9f9713	-0.07792487
80	0x3cbe2ec6	0.023215663
81	0x3c979ce3	0.018507427
82	0xbd8c0c10	-0.06838238
83	0xbcb1ef61	-0.02172059
84	0xbde9388d	-0.11387739
85	0xbdc6a528	-0.0969947
86	0x3cf190dc	0.02948802
87	0xbcde218f	-0.027115611
88	0x3b85674e	0.004071153
89	0xbe47a93f	-0.19498156
90	0x3d00e77c	0.03147076
91	0xbd228a1b	-0.03968249
92	0x3db7654c	0.08954868
93	0xbdd10a7a	-0.10207076
94	0xbd44b956	-0.048028313
95	0xbd729a9c	-0.05922948
96	0xbe405bbc	-0.18784994
97	0x3c97c01e	0.018524226
98	0x3c719e3c	0.014747199
99	0xbcb519c5	-0.022107014
100	0xbda81d7f	-0.08208751
101	0xbca51718	-0.020152614
102	0xbd95ce53	-0.07314744
103	0xbd98691f	-0.07441925
104	0xbdabacdb	-0.08382579
105	0x3b657ee4	0.003501826
106	0xbe07e35b	-0.13270323
107	0xbdb2e180	-0.08734417
108	0x3d1abb23	0.037776124
109	0xbd3c0122	-0.045899518
110	0xbe088768	-0.13332903
111	0x3d9ea992	0.07747187
112	0xbd393e6c	-0.045225546
113	0xbb33ccd8	-0.0027435329
114	0x3db5d8cc	0.08879241
115	0xbe33624a	-0.17517963
116	0xbd1a3664	-0.037649527
117	0xbe1d9e67	-0.15392457
118	0xbd8ad7f0	-0.06779468
119	0xbddd9029	-0.10818512
120	0x3cfcc3d3	0.030855095
121	0xbb97354f	-0.004614509
122	0x3dd32612	0.10309996
123	0xbda53ea6	-0.0806859
124	0x3d5475f7	0.051870313
125	0x3dae4ae5	0.08510379
126	0xbde3d2a2	-0.111241594
127	0xbb874b97	-0.004128884
128	0xbc16f3b7	-0.00921338
129	0x3e4859db	0.19565527
130	0xbd05d5aa	-0.03267447
131	0x3d29c919	0.041451547
132	0xbd8bf842	-0.06834461
133	0xbd9db647	-0.07700782
134	0xbda67fbe	-0.08129834
135	0xbdb36234	-0.08758965
136	0xbcf9a773	-0.030475354
137	0xbe051a40	-0.12998295
138	0xbda5f14a	-0.08102663
139	0x3c2ca759	0.010537946
140	0xbce4ca41	-0.027928473
141	0x3cbd6965	0.023121545
142	0xbc47c143	-0.012192073
143	0x3d22c390	0.039737284
144	0x3c16716c	0.009182315
145	0xbcf8030f	-0.030274896
146	0xbdbf8129	-0.09350807
147	0x3daa2bc8	0.08309132
148	0x3c904ddd	0.017615253
149	0xbd8496c8	-0.06474072
150	0x3d8235e5	0.06357936
151	0xbb8a4292	-0.0042193616
152	0x3d380a8c	0.044931933
153	0xbe1e864b	-0.15480916
154	0x3de37e8c	0.11108121
155	0x3d5fd693	0.054647993
156	0xbc2f539c	-0.010701086
157	0x3d15883b	0.036506873
158	0xbdbb7a47	-0.09154182
159	0x3ddb5a2c	0.10710558
160	0xbdb31d5e	-0.08745836
161	0xbd38f57a	-0.04515598
162	0x3dbd2a30	0.09236562
163	0xbcbeeedb	-0.023307255
164	0x3c58793a	0.013212496
165	0x3e37ea48	0.17960465
166	0xbd9d215c	-0.076723784
167	0x3c45fd3b	0.012084301
168	0xbe2d696c	-0.16934747
169	0x3dfd9a76	0.12382977
170	0xbca2c03d	-0.019867057
171	0x3d207ff1	0.039184514
172	0xbc92ad89	-0.017905014
173	0xbc502705	-0.0127046155
174	0xbd643d80	-0.055722713
175	0xbd1cc042	-0.03826929
176	0xbdcdc020	-0.100464106
177	0xbd56a94f	-0.05240756
178	0x3b415c26	0.0029504388
179	0xbc2fc5e6	-0.010728335
180	0x3c3074dd	0.01077005
181	0xbd1fac01	-0.038982395
182	0xbac0d772	-0.0014712645
183	0xbd2b7220	-0.041856885
184	0xbdbe45c0	-0.092906475
185	0x3e1e12dc	0.15436882
186	0xbb8d34a5	-0.004309254
187	0xbdd0f237	-0.10202449
188	0xbd60d91e	-0.05489456
189	0x3d4dc38c	0.050235316
190	0xbd8d5380	-0.06900692
191	0xbcd71a56	-0.026257675
192	0xbdad65ee	-0.08466707
193	0xbe0ec86d	-0.13943644
194	0x3c8ddca5	0.017317126
195	0xbd2ddc95	-0.04244669
196	0xbd0ca206	-0.034334205
197	0xbd24bb58	-0.040217727
198	0x3c518f68	0.012790538
199	0x3ce9d737	0.028545005
200	0xbd9d8076	-0.076905176
201	0xbe0681d9	-0.1313547
202	0x3cf9463f	0.030429004
203	0xbdd680d5	-0.104737915
204	0xba9ebbf6	-0.001211046
205	0x3c6d3790	0.014478579
206	0xbe21be70	-0.15795302
207	0xbd42a3c6	-0.047519468
208	0xbcf44f6d	-0.02982303
209	0x3d98a556	0.0745341
210	0xbc41cc56	-0.011828503
211	0xbd943ef7	-0.07238572
212	0x3e1543be	0.14576623
213	0x3dab29ef	0.083576076
214	0xbd4d2a25	-0.05008902
215	0xbd2d73ca	-0.042346753
216	0xba60e9b6	-0.00085797475
217	0x3ce9c1ee	0.028534856
218	0xbd25d555	-0.040486652
219	0xbc9b649c	-0.018968873
220	0x3d6090b0	0.054825485
221	0xbe2392a8	-0.15973914
222	0x3d31efe3	0.043441664
223	0xbd92a6f4	-0.0716075
224	0xbd825caa	-0.063653305
225	0x3dac64d8	0.08417672
226	0xbc304c1c	-0.010760333
227	0x3bde36ca	0.0067814337
228	0xbe0acd32	-0.13554838
229	0x3d18d6a9	0.03731409
230	0x3c9f370e	0.019435432
231	0xbd962dbf	-0.07332944
232	0xbdc04e19	-0.09389896
233	0x3e0aecfa	0.13566962
234	0xbdf8bcf3	-0.12145414
235	0xbdb7a1fa	-0.089664415
236	0x3e0ca66d	0.13735361
237	0xbdc742b6	-0.09729521
238	0xbdbffbe6	-0.09374218
239	0x3cb339ce	0.02187815
240	0xbd5fcbb2	-0.05463762
241	0xbd7e0690	-0.062017977
242	0x3e1ca5a0	0.15297556
243	0xbe31e67e	-0.17373082
244	0x3ccfbd06	0.025358688
245	0xbd482855	-0.04886659
246	0xbe020559	-0.12697352
247	0xbe34d411	-0.17659022
248	0xbd47fdf0	-0.048826158
249	0x3d9ee80a	0.07759102
250	0xbcd0a3ae	-0.025468674
251	0x3dd4346d	0.10361562
252	0x3d4ff9ad	0.05077522
253	0xbd92385c	-0.07139656
254	0x3d628dc2	0.055310972
255	0xbe03edee	-0.12883732

classifier.9.bias f4 [15]
0	0xbdeda104	-0.11602977
1	0xbe351efe	-0.17687604
2	0x3e38425e	0.17994067
3	0xbe86856c	-0.26273668
4	0xbb6ed05b	-0.0036440108
5	0xbdfc36f9	-0.12315173
6	0xbdbde81d	-0.09272788
7	0x3d9f1ec5	0.07769541
8	0x3d4dc721	0.050238732
9	0xbe24aa0d	-0.16080494
10	0x3b04ff4c	0.002029377
11	0x3c9d26ab	0.019183477
12	0xbedee3cd	-0.43533173
13	0xbd6acfd9	-0.057327125
14	0xbda3ca95	-0.07997624
