models/logMel_classifier_model_00.pt (torch, 557803 bytes, 13 tensors)

classifier.0.weight f4 [32, 1, 2, 2]
-0.3507905 0.0017993079 0.35800692 -0.47759458 -0.4546236 0.1609162 -0.22331025 0.43447202
0.5706639 -0.23510571 -0.38433346 -0.04127291 0.41198266 -0.03979133 -0.0061923396 -0.28957817
-0.18349428 -0.10354753 0.38499832 -0.31964463 0.80383885 0.10729613 -0.18188936 0.5202633
0.6537776 -0.2886342 -0.21265252 0.1437831 0.018938806 -0.22678141 -0.3873672 -0.22649789
0.32141653 0.23406464 0.41079745 -0.44545987 0.020356927 -0.13755001 0.32183707 -0.28448492
0.4561937 -0.49882534 0.2562749 -0.14758715 0.51421034 0.1434383 0.48930869 -0.42606705
-0.4065127 0.30505484 0.097912215 -0.014476902 -0.32138467 0.50265574 0.1286887 0.06831645
-0.20827018 0.20815825 -0.2995042 0.19251242 -0.37931538 -0.08764449 -0.05606519 -0.05735965
-0.3970971 -0.41975006 -0.052032858 0.16120233 0.28043768 0.38125077 0.0006573846 -0.58400714
-0.4514481 -0.15950076 -0.2280982 0.10017786 -0.08198608 -0.22706854 -0.34828162 0.18393314
0.4189745 -0.2953798 -0.5115616 0.40731627 -0.4275353 0.1831026 0.035588782 0.31881055
-0.3761283 0.075349435 0.24491762 0.27484927 -0.30543655 0.19749859 0.3633347 -0.32777923
0.23091392 0.104282476 -0.17951997 -0.107814595 0.21314928 -0.37749386 -0.10475574 -0.36179093
-0.15188758 -0.26348603 -0.18100968 0.41091344 0.5392791 0.30577898 0.2003918 -0.5328285
-0.41555893 0.017333426 -0.34113976 0.46723726 0.39490148 0.05846493 0.108912036 -0.31144834
-0.14241335 -0.12746641 0.16734636 0.11500309 0.43037903 -0.35729963 0.22637978 -0.088857695
00000000: d09a b3be c1d6 eb3a af4c b73e 4787 f4be
00000010: 6dc4 e8be 37c7 243e 71ab 64be 1e73 de3e
00000020: 0817 123f 8dbf 70be 5bc7 c4be c80d 29bd
00000030: 64ef d23e 3cfc 22bd 1ce9 cabb 9743 94be
00000040: ede5 3bbe ba10 d4bd 801e c53e 76a8 a3be
00000050: 62c8 4d3f 13be db3d 3441 3abe fa2f 053f
00000060: f85d 273f ddc7 93be 95c1 59be e13b 133e
00000070: 8e25 9b3c 6339 68be fe54 c6be 10ef 67be
00000080: b590 a43e a4ae 6f3e 0b54 d23e 5113 e4be
00000090: 92c3 a63c e9d9 0cbe d4c7 a43e 02a8 91be
000000a0: 3892 e93e 0966 ffbe 7736 833e 1621 17be
000000b0: 4aa3 033f 7de1 123e ab86 fa3e 7625 dabe
000000c0: 6f22 d0be 2630 9c3e 3386 c83d 8730 6dbc
000000d0: 888c a4be 0cae 003f f8c6 033e 7fe9 8b3d
000000e0: c744 55be 7027 553e 9d58 99be fa21 453e
000000f0: a035 c2be f47e b3bd 9da4 65bd f4f1 6abd
00000100: 5050 cbbe 7be9 d6be 6820 55bd 3912 253e
00000110: 8795 8f3e 4d33 c33e 5554 2c3a 7e81 15bf
00000120: 3524 e7be 2b54 23be 9392 69be 0d2a cd3d
00000130: 51e8 a7bd a884 68be f851 b2be f858 3c3e
00000140: d383 d63e 053c 97be b3f5 02bf c28b d03e
00000150: e8e5 dabe 3f7f 3b3e 8bc5 113d 233b a33e
00000160: e393 c0be ce50 9a3d afcb 7a3e 0bb9 8c3e
00000170: 2e62 9cbe 123d 4a3e 0107 ba3e aed2 a7be
00000180: b374 6c3e 0d92 d53d 15d4 37be e6cd dcbd
00000190: ce43 5a3e e046 c1be 2d8a d6bd a93c b9be
000001a0: 6b88 1bbe a4e7 86be 9a5a 39be 3f63 d23e
000001b0: 320e 0a3f 108f 9c3e 8233 4d3e 7367 08bf
000001c0: 24c4 d4be d4fe 8d3c dfa9 aebe b939 ef3e
000001d0: 8730 ca3e ec78 6f3d 460d df3d 2876 9fbe
000001e0: ced4 11be 8e86 02be d85c 2b3e bd86 eb3d
000001f0: a45a dc3e faef b6be 1ad0 673e 06fb b5bd

classifier.0.bias f4 [32]
-0.65403926 0.031349503 0.35182205 0.7971407 -0.07709575 0.24519986 0.059597276 0.12141978
-0.06789928 -0.4772054 0.7793324 0.3652022 0.39550295 0.29590103 -0.39657113 -0.044914804
0.16032496 0.3055146 -0.30380157 -0.3759284 -0.3987071 0.22351177 0.062190183 -0.49047327
0.64551306 0.035014343 -0.19373447 0.049909484 -0.1458827 0.49410337 0.081452854 0.44118285
00000000: 1e6f 27bf 5668 003d 0522 b43e 6a11 4c3f
00000010: 60e4 9dbd ac15 7b3e 461c 743d efaa f83d
00000020: c70e 8bbd 4454 f4be 5482 473f c8fb ba3e
00000030: 5d7f ca3e 5780 973e 5f0b cbbe 96f8 37bd
00000040: 3a2c 243e 696c 9c3e e18b 9bbe b079 c0be
00000050: 5623 ccbe 45e0 643e 22bb 7e3d 501f fbbe
00000060: 5840 253f 336b 0f3d 5462 46be e36d 4c3d
00000070: 4662 15be 1efb fc3e c1d0 a63d b8e2 e13e

classifier.3.weight f4 [64, 32, 2, 2]
-0.017632078 0.08582476 -0.12031619 0.029586539 -0.10894158 0.095008425 -0.01646988 0.04360571
0.0006905169 0.11223354 0.1047748 -0.0108383 0.2535826 0.24558294 0.13527806 0.21871302
0.03092952 0.071877554 0.010906513 0.018344631 -0.03802517 0.019617507 0.17570533 0.14860864
0.26854038 0.18132888 0.18120383 0.17237449 -0.042786434 0.0653552 0.0004925693 -0.019361898
0.15364818 -0.006975179 0.10015698 0.24513687 0.003526603 0.10074389 0.08321591 0.032741614
0.21123375 0.16919151 0.23963639 0.16813843 0.11032953 0.016089808 0.15884069 0.33311504
-0.087718636 -0.107287996 -0.027881997 0.017919807 -0.106303 -0.06791802 -0.11916407 -0.08231896
-0.09737263 -0.008431942 -0.047904808 -0.06382823 0.03619797 0.04897369 -0.12333893 -0.09272925
0.030606579 0.03471917 -0.037107095 0.02396795 0.17394906 0.24559572 0.10248428 0.18723543
-0.094471015 -0.060118116 -0.100065686 0.047578927 -0.022537624 0.09629177 0.02079583 -0.011456211
0.060606867 0.13183938 0.063776694 0.0072894157 -0.1177595 -0.12142213 -0.052255355 -0.005588615
-0.0667502 -0.023494713 0.05925086 0.22695309 -0.099442974 0.026670462 -0.0529358 0.07611333
0.24232975 0.14587119 0.1258702 0.08075845 -0.029633312 -0.03688442 -0.017524416 -0.08729265
-0.08794785 0.007175906 -0.10568609 0.030275507 0.024524026 0.15060781 -0.14973572 0.26365912
-0.049823057 0.057473615 -0.0690794 0.008655973 0.032944474 0.14790125 -0.25249985 0.09090561
-0.034222703 -0.044300515 0.057107 0.044697467 0.062717475 -0.059120685 0.017948287 -0.011589676
-0.004358754 0.05621904 -0.062113386 -0.031347346 0.054395378 0.06814226 0.0669112 -0.04621982
0.09392394 -0.06335649 0.0694723 -0.052629836 -0.041281436 -0.11512094 0.040011123 0.06532008
0.11932135 -0.03653012 -0.11688586 -0.074547954 -0.17921823 -0.16264878 -0.10772244 -0.024994459
0.009225399 -0.31234154 -0.058269378 0.042825878 -0.013750529 -0.038047347 -0.034672175 -0.11803499
-0.065548204 -0.16885437 0.00097603275 -0.054070804 0.031526573 0.07248558 -0.120880224 0.06463812
0.094969355 -0.008736718 -0.03927699 0.12605457 0.054920558 -0.03387176 -0.012841913 -0.077138565
0.1300346 0.15752637 0.08448343 -0.024451591 0.12299561 -0.08945342 0.05613432 -0.037452154
-0.0014441604 0.08420797 -0.014126104 0.024588406 0.101033375 0.04525682 -0.06468164 -0.10908416
0.054207776 -0.0025338628 -0.09677559 -0.07034458 0.028358266 -0.07206828 0.049451407 -0.077574305
0.07494735 0.02504592 -0.10807285 -0.1345043 0.019206483 0.029214675 0.041741375 -0.10830259
-0.01777515 -0.097122096 0.079364836 -0.07445128 0.14441721 0.15189151 0.08387929 0.01926205
0.28644186 0.25103062 0.030787855 -0.035908572 0.046686888 -0.015153878 -0.054610487 -0.009450754
0.014021041 -0.08576361 0.13978097 0.0113583915 0.07611416 0.07060878 -0.026611915 0.017424323
0.02696217 0.04124636 -0.02406186 -0.12121982 0.055467233 -0.2125139 0.03642728 0.08126289
-0.026058953 0.07410382 -0.064400524 -0.074715 -0.01654089 -0.15787603 -0.01984422 0.07560458
0.24845856 0.07381041 0.11406716 0.059824396 -0.045727707 -0.049446348 -0.04486218 0.16141269
00000000: 2671 90bc e4c4 af3d 5668 f6bd 785f f23c
00000010: c31c dfbd c793 c23d d7eb 86bc e79b 323d
00000020: ce03 353a b3da e53d 2c94 d63d 2093 31bc
00000030: 94d5 813e 187a 7b3e 5586 0a3e 4ef6 5f3e
00000040: e85f fd3c 8a34 933d 3bb1 323c 7b47 963c
00000050: 48c0 1bbd e5b4 a03c 19ec 333e dd2c 183e
00000060: 207e 893e 47ae 393e 7f8d 393e f082 303e
00000070: d440 2fbd f2d8 853d c41f 013a d89c 9ebc
00000080: f355 1d3e 0b90 e4bb 1a1f cd3d 2905 7b3e
00000090: 951e 673b d052 ce3d 1a6d aa3d 121c 063d
000000a0: a94d 583e 8a40 2d3e 3e63 753e 7b2c 2c3e
000000b0: 73f4 e13d c6ce 833c 22a7 223e 0e8e aa3e
000000c0: d4a5 b3bd cfb9 dbbd c968 e4bc 8fcc 923c
000000d0: 63b5 d9bd 9a18 8bbd 4b0c f4bd d896 a8bd
000000e0: 4d6b c7bd 2126 0abc d537 44bd 60b8 82bd
000000f0: 5344 143d a398 483d 1f99 fcbd d5e8 bdbd
00000100: a6ba fa3c b035 0e3d 9cfd 17bd 6f58 c43c
00000110: b41f 323e 727d 7b3e 47e3 d13d a5ba 3f3e
00000120: 057a c1bd 6a3e 76bd 3def ccbd 1fe2 423d
00000130: d3a0 b8bc 9f34 c53d 045c aa3c d5b2 3bbc
00000140: e83e 783d e700 073e 5b9d 823d 0ddc ee3b
00000150: e52b f1bd 2aac f8bd b609 56bd b320 b7bb
00000160: 54b4 88bd fc77 c0bc 08b1 723d 6466 683e
00000170: c2a8 cbbd 037c da3c 36d3 58bd 4ee1 9b3d
00000180: 4a25 783e 425f 153e 1ee4 003e b064 a53d
00000190: 8fc1 f2bc 1e14 17bd 5d8f 8fbc 7dc6 b2bd
000001a0: 011e b4bd dd23 eb3b f371 d8bd 5704 f83c
000001b0: 9ce6 c83c ef38 1a3e 5254 19be 54fe 863e
000001c0: 4313 4cbd 7469 6b3d 8079 8dbd c8d1 0d3c
000001d0: c9f0 063d 6d73 173e a947 81be b82c ba3d
000001e0: 1b2d 0cbd 7574 35bd 08e9 693d b114 373d
000001f0: 0572 803d 8828 72bd 4908 933c a0e2 3dbc
00000200: e1d3 8ebb f045 663d 9b6a 7ebd 1366 00bd
00000210: b0cd 5e3d 2b8e 8b3d bd08 893d fe50 3dbd
00000220: 325b c03d 0cc1 81bd 7e47 8e3d 6292 57bd
00000230: b916 29bd 87c4 ebbd b4e2 233d 89c6 853d
00000240: c05e f43d 9ba0 15bd db61 efbd 99ac 98bd
00000250: fc84 37be 678d 26be 959d dcbd 2ec1 ccbc
00000260: 2126 173c 3beb 9fbe dfab 6ebd 306a 2f3d
00000270: e649 61bc 89d7 1bbd 6904 0ebd 54bc f1bd
00000280: 233e 86bd 29e8 2cbe 73dc 7f3a 5979 5dbd
00000290: 0222 013d 5273 943d 0d90 f7bd fe60 843d
000002a0: 4b7f c23d 7424 0fbc e9e0 20bd 7314 013e
000002b0: 61f4 603d 1dbd 0abd e366 52bc d3fa 9dbd
000002c0: ca27 053e 984e 213e a605 ad3d b44e c8bc
000002d0: 1fe5 fb3d 5b33 b7bd 1aed 653d 6e67 19bd
000002e0: fb49 bdba 3a75 ac3d 2d71 67bc a06d c93c
000002f0: 96ea ce3d 375f 393d cf77 84bd 8467 dfbd
00000300: f908 5e3d 2a0f 26bb 4832 c6bd d210 90bd
00000310: 984f e83c 8998 93bd 8f8d 4a3d 47df 9ebd
00000320: ff7d 993d 1a2d cd3c 4c55 ddbd 7fbb 09be
00000330: ea56 9d3c 9d53 ef3c 01f9 2a3d c0cd ddbd
00000340: 319d 91bc f3e7 c6bd 088a a23d ea79 98bd
00000350: 1be2 133e 7389 1b3e e8c8 ab3d 72cb 9d3c
00000360: 82a8 923e 1687 803e d036 fc3c de14 13bd
00000370: c03a 3f3d f947 78bc 3faf 5fbd 56d7 1abc
00000380: 82b8 653c d5a4 afbd be22 0f3e 8c18 3a3c
00000390: bee1 9b3d 569b 903d 3b01 dabc 74bd 8e3c
000003a0: c5df dc3c f1f1 283d 611d c5bc 1942 f8bd
000003b0: 9c31 633d 3e9d 59be c634 153d 286d a63d
000003c0: 9679 d5bc bec3 973d 6ce4 83bd 2e04 99bd
000003d0: c380 87bc 41aa 21be 5890 a2bc 93d6 9a3d
000003e0: ec6b 7e3e ea29 973d 0b9c e93d 6d0a 753d
000003f0: fa4c 3bbd 4188 4abd 68c1 37bd 5e49 253e

classifier.3.bias f4 [64]
0.063821614 0.070795506 0.02708551 0.095988326 0.060939953 0.028939787 -0.015267786 -0.055202886
0.035871156 -0.054903798 -0.039704874 -0.035260383 -0.13276392 0.07396067 -0.020310286 -0.10636396
-0.0021456867 -0.06655113 0.07314044 0.0034714362 0.0009098946 0.030525535 -0.045482527 0.18235745
0.09904454 -0.00876862 -0.0591775 -0.016185874 -0.069563776 0.01804172 -0.065304585 -0.022628032
0.03259281 -0.05776096 0.025138028 0.06369162 0.15208171 -0.022573482 -0.030203009 0.023082335
0.12035159 0.012550329 0.04549626 -0.028654015 -0.04549123 0.0012872608 -0.14939773 -0.072236076
-0.087798595 -0.016644806 0.06279311 -0.06889939 0.052823924 0.06635831 0.13368589 -0.011283229
0.069852896 0.11522976 0.023736151 0.11168095 0.06393306 0.15300679 -0.04059989 0.0137180565
00000000: e8b4 823d 3cfd 903d 6ee2 dd3c 8795 c43d
00000010: 2c9c 793d 2213 ed3c bc25 7abc 6c1c 62bd
00000020: a2ed 123d cee2 60bd 94a1 22bd 316d 10bd
00000030: 44f3 07be b178 973d c261 a6bc 59d5 d9bd
00000040: a69e 0cbb f54b 88bd a8ca 953d 0981 633b
00000050: fe85 6e3a b010 fa3c e34b 3abd e9bb 3a3e
00000060: ddd7 ca3d 42aa 0fbc 1b64 72bd 3d98 84bc
00000070: 7477 8ebd 3bcc 933c 69be 85bd 6c5e b9bc
00000080: 0a80 053d c296 6cbd 44ee cd3c c170 823d
00000090: 4fbb 1b3e 06ec b8bc 4d6c f7bc 2a17 bd3c
000000a0: e57a f63d e59f 4d3c 495a 3a3d d3bb eabc
000000b0: 0355 3abd 4eb9 a83a b8fb 18be 82f0 93bd
000000c0: c0cf b3bd b05a 88bc ad99 803d 201b 8dbd
000000d0: e65d 583d dee6 873d f4e4 083e 4bdd 38bc
000000e0: 090f 8f3d 95fd eb3d 5172 c23c fbb8 e43d
000000f0: 56ef 823d d0ad 1c3e 124c 26bd b3c1 603c

classifier.6.weight f4 [128, 64, 2, 2]
0.0017326479 -0.011809319 -0.032267645 -0.07329663 0.015157506 0.022704467 -0.06544013 -0.05219592
-0.056263696 -0.017624542 0.018949874 -0.06599368 0.028519027 -0.01890569 0.045196705 0.02517613
0.0049290136 -0.037170082 -0.048510186 0.02592989 0.029603668 -0.060642503 -0.023380496 -0.05185291
-0.026588809 -0.03861519 -0.073869355 -0.047167223 -0.06916295 -0.06696793 0.009760028 -0.04714315
0.015390807 0.04301903 -0.036994774 -0.06818987 0.030634759 -0.0011014693 -0.016585171 0.021844665
-0.032508478 0.025630616 -0.05572565 -0.06920295 -0.07783294 0.014239806 -0.026000315 -0.03585255
0.021921339 -0.022005467 -0.006146692 -0.017631136 0.014148684 -0.023792593 0.014986009 -0.070239305
0.014583618 0.03981073 0.00882189 0.05226334 0.008735868 -0.060604207 0.004725725 -0.04856476
-0.06566507 0.002013875 -0.02783998 -0.0719315 0.008189685 -0.01579373 0.02978917 0.016083844
0.0020902234 0.016574988 -0.0038848263 -0.026470121 -0.06978112 0.044481084 0.010663758 -0.009344235
0.045745794 0.051371325 -0.036323436 -0.00528545 -0.06132348 0.00840953 0.017084584 0.036479726
0.03602223 0.007699335 -0.022430291 0.035291854 -0.012438294 -0.017625581 -0.04646829 0.045223255
0.03899088 -0.006956782 -0.04191367 0.022072436 0.039995287 -0.032560512 0.049309455 0.032388117
0.037580375 0.0385345 0.002282671 0.023793511 -0.019983023 -0.012777469 0.014950813 0.018722553
-0.03675472 -0.0018918877 0.02784414 0.049390554 -0.0391706 -0.010366137 0.03543026 -0.030089054
-0.008780755 -0.0304401 -0.008382522 0.030849203 -0.05129198 0.021028474 0.057805583 -0.046416335
-0.019102901 -0.019216679 0.05789852 0.03442055 -0.030023862 0.032559082 0.017289024 -0.058551945
-0.026777036 -0.022034653 -0.008308202 0.008181617 -0.060242243 0.021156535 0.008078694 -0.04982297
0.027303465 -0.00078985095 0.008196369 0.021231316 0.017443793 -0.04516739 0.020070514 -0.016670767
-0.046274155 -0.0057944814 -0.0023394302 -0.024235835 0.032397613 0.028622009 0.041092478 -0.050169982
-0.020132726 -0.07055716 -0.002750158 -0.07326587 -0.03612176 -0.043760873 0.031643584 -0.06111811
0.027703872 -0.0038208626 -0.06202635 -0.020212471 0.035937607 -0.016425226 -0.0036885724 0.0012209145
-0.050117653 -0.06817899 -0.0059169168 -0.025435302 -0.029068964 0.004835939 -0.025389511 -0.06329976
0.025624255 0.023622766 0.022009442 0.031889074 -0.055557825 -0.011682242 -0.047299072 0.052747563
-0.026266856 -0.050262272 -0.00080003403 0.06359203 -0.05475291 -0.01956857 0.021960571 -0.0029815063
-0.014318218 0.0045109405 -0.019375 0.027411176 -0.004067859 -0.017779924 0.010036936 0.019361176
-0.0452795 0.010550799 0.018355725 -0.048783492 0.052117135 0.03947087 -0.004458952 0.0018965265
-0.024096098 -0.06550357 0.03683932 -0.02395741 0.006648826 -0.027539494 -0.02215415 -0.06504349
0.044954494 0.043617193 -0.050425004 0.06558783 -0.030771673 -0.041061517 -0.06685074 -0.010403896
-0.05892294 0.042643633 -0.018348241 0.051912777 0.024433596 0.042058527 -0.043630484 0.048738275
0.04979783 -0.042003468 -0.045706972 -0.031879116 -0.07436018 0.020028448 0.0144426655 0.014124307
-0.022239372 -0.057116605 0.028634667 -0.011275291 -0.0039028127 -0.019828882 -0.030556062 0.04927253
00000000: 041a e33a e07b 41bc 142b 04bd 8b1c 96bd
00000010: 3057 783c b8fe b93c 7a05 86bd 64cb 55bd
00000020: c374 66bd 5861 90bc c43c 9b3c b227 87bd
00000030: bca0 e93c 1be0 9abc 2e20 393d 2c3e ce3c
00000040: 9083 a13b a83f 18bd 9eb2 46bd ec6a d43c
00000050: 6483 f23c 4664 78bd 7488 bfbc b863 54bd
00000060: c6d0 d9bc f62a 1ebd d148 97bd 6b32 41bd
00000070: 4ea5 8dbd 7b26 89bd 86e8 1f3c 2d19 41bd
00000080: b929 7c3c b934 303d d587 17bd 21a7 8bbd
00000090: bff5 fa3c 2d5f 90ba a0dd 87bc 95f3 b23c
000000a0: 9c27 05bd 4cf7 d13c 9440 64bd 47ba 8dbd
000000b0: e066 9fbd 134e 693c 9dfe d4bc 20da 12bd
000000c0: 6194 b33c cf44 b4bc 316a c9bb 2c6f 90bc
000000d0: e2cf 673c afe8 c2bc e187 753c a0d9 8fbd
000000e0: 21f0 6e3c 9310 233d b089 103c 1612 563d
000000f0: e320 0f3c 1e3c 78bd 41da 9a3b d7eb 46bd
00000100: 697b 86bd 37fb 033b ab10 e4bc d350 93bd
00000110: 072e 063c da61 81bc 6b08 f43c 44c2 833c
00000120: 21fc 083b 45c8 873c 9298 7ebb ded7 d8bc
00000130: 67e9 8ebd cc31 363d 0bb7 2e3c 9018 19bc
00000140: f15f 3b3d bd6a 523d e2c7 14bd 9131 adbb
00000150: 542e 7bbd 20c8 093c f8f4 8b3c c46b 153d
00000160: 0c8c 133d b44a fc3b bbbf b7bc 318e 103d
00000170: fcc9 4bbc 8663 90bc 8955 3ebd 053c 393d
00000180: e7b4 1f3d b8f5 e3bb abad 2bbd 41d1 b43c
00000190: 19d2 233d 2c5e 05bd b6f8 493d 67a9 043d
000001a0: e1ed 193d 5ad6 1d3d dd98 153b 9cea c23c
000001b0: 70b3 a3bc 9758 51bc 41f4 743c 0a60 993c
000001c0: 1e8c 16bd 38f9 f7ba 6519 e43c c04d 4a3d
000001d0: 5a71 20bd bbd6 29bc 521f 113d 527d f6bc
000001e0: 28dd 0fbc 845d f9bc d856 09bc 78b7 fc3c
000001f0: 8a17 52bd e843 ac3c 8cc5 6c3d 0e1f 3ebd
00000200: b07d 9cbc 4c6c 9dbc 0027 6d3d 90fc 0c3d
00000210: 9af4 f5bc ac5c 053d b6a1 8d3c 2ad4 6fbd
00000220: 845b dbbc 0482 b4bc 201f 08bc 300c 063c
00000230: 92c0 76bd 7850 ad3c 805c 043c 2c13 4cbd
00000240: 84ab df3c 000e 4fba 104a 063c 4ced ad3c
00000250: 49e6 8e3c 7101 39bd eb6a a43c 2291 88bc
00000260: f889 3dbd a2df bdbb 2051 19bb 3b8a c6bc
00000270: 5cb3 043d b478 ea3c 9650 283d 0a7f 4dbd
00000280: 63ed a4bc 4680 90bd ff3b 34bb 6b0c 96bd
00000290: 69f4 13bd 9a3e 33bd b49c 013d fc56 7abd
000002a0: 3bf3 e23c 7067 7abb 580f 7ebd a094 a5bc
000002b0: 5033 133d 328e 86bc fabb 71bb 1807 a03a
000002c0: 2b48 4dbd 6da1 8bbd b2e2 c1bb b25d d0bc
000002d0: 0922 eebc cc76 9e3b aafd cfbc 4ea3 81bd
000002e0: f5e9 d13c 8884 c13c 254d b43c 1e9e 023d
000002f0: 9a90 63bd e066 3fbc acbc 41bd d40d 583d
00000300: 972d d7bc d0df 4dbd 60b9 51ba 8a3c 823d
00000310: 9644 60bd 444e a0bc a8e6 b33c 6065 43bb
00000320: f696 6abc 83d0 933b 52b8 9ebc 678d e03c
00000330: ad4b 85bb 34a7 91bc f671 243c 549b 9e3c
00000340: ff76 39bd 42dd 2c3c bf5e 963c 33d1 47bd
00000350: c778 553d 35ac 213d 671c 92bb df94 f83a
00000360: 2e65 c5bc bc26 86bd d4e4 163d 5542 c4bc
00000370: 65de d93b 819a e1bc 9f7c b5bc 8535 85bd
00000380: 3422 383d f1a7 323d 738a 4ebd ea52 863d
00000390: e014 fcbc 1f30 28bd 0ae9 88bd 1a75 2abc
000003a0: 2e59 71bd 17ab 2e3d 0d4f 96bc 7ea2 543d
000003b0: f728 c83c 9045 2c3d e1b5 32bd c9a1 473d
000003c0: cff8 4b3d d40b 2cbd 3c37 3bbd ad93 02bd
000003d0: 264a 98bd b312 a43c eea0 6c3c a369 673c
000003e0: 582f b6bc 1af3 69bd 4093 ea3c 00bc 38bc
000003f0: 55c6 7fbb 2e70 a2bc b550 fabc fed1 493d

classifier.6.bias f4 [128]
-0.016148275 0.036205027 -0.05559573 -0.012603285 0.017031485 -0.04436554 -0.004210569 -0.05876183
-0.0565618 -0.028524889 -0.014197044 -0.053789105 -0.011508089 0.06667647 -0.08796646 0.009342367
0.0110637415 -0.013933103 -0.060408108 0.031515412 -0.08068852 0.12112491 0.029140368 -0.08674994
-0.037569113 -0.06151526 -0.060104072 -0.0381173 0.038982164 0.03459398 -0.054853555 0.04313775
0.105459735 0.00049276097 0.023958424 -0.0031887183 -0.040349804 -0.023077369 -0.0060560233 -0.01779694
0.05125301 -0.07272432 0.015737027 -0.061433908 -0.029387742 0.034720313 0.12435313 0.025403177
0.0056753852 -0.033961587 -0.02448644 -0.013656725 -0.0712234 0.029315945 -0.004457659 0.069149494
0.03795677 -0.038799196 0.055654846 -0.02202485 -0.0066556972 0.008070576 -0.0028966134 -0.0030149296
0.08513974 -0.017013652 -0.07201568 -0.032905884 0.015643548 0.005182029 0.05330853 -0.07886695
0.08203705 0.02428079 0.04106116 -0.028800398 0.023860874 -0.009915989 -0.022701204 -0.01915037
-0.030039318 -0.068714455 -0.057143155 0.0009637552 -0.08330885 -0.080198 0.052674983 0.022959564
0.08187918 0.020488821 0.06039535 -0.07550774 0.025294723 -0.06307923 -0.024623163 -0.031688932
0.102409795 0.061702885 -0.11317526 -0.056053694 -0.07327637 0.0139243575 0.006447941 0.005633382
-0.0021365262 -0.007427825 0.0068661124 0.029253121 -0.064828396 0.027632257 0.061858095 0.086583175
0.029681873 0.036862373 -0.011220977 -0.014343792 -0.019894026 -0.06294101 0.04184743 0.020879937
6.6860855e-05 0.01976662 0.014894678 -0.015373463 -0.06271105 -0.020362064 0.025878439 -0.029708067
00000000: 6349 84bc b94b 143d 59b8 63bd 027e 4ebc
00000010: 9d85 8b3c a4b8 35bd d0f8 89bb 3fb0 70bd
00000020: 59ad 67bd 07ad e9bc b89a 68bc f751 5cbd
00000030: 6c8c 3cbc ac8d 883d c227 b4bd ba10 193c
00000040: b244 353c ab47 64bc 7e6e 77bd 4e16 013d
00000050: 0640 a5bd 5610 f83d c8b7 ee3c f4a9 b1bd
00000060: 12e2 19bd 6df7 7bbd b02f 76bd e320 1cbd
00000070: c3ab 1f3d 6bb2 0d3d 1fae 60bd 36b1 303d
00000080: 46fb d73d a12c 013a 7544 c43c d1f9 50bb
00000090: d645 25bd c00c bdbc 9b71 c6bb e3ca 91bc
000000a0: adee 513d 7df0 94bd f0ea 803c 1fa2 7bbd
000000b0: 90be f0bc e336 0e3d dbac fe3d 531a d03c
000000c0: 95f8 b93b 4e1b 0bbd c997 c8bc 75c0 5fbc
000000d0: 93dd 91bd fe27 f03c 8e11 92bb 409e 8d3d
000000e0: 8f78 1b3d e8eb 1ebd 56f6 633d 756d b4bc
000000f0: 0918 dabb 733a 043c 1cd5 3dbb 2096 45bb
00000100: be5d ae3d 3760 8bbc f57c 93bd 52c8 06bd
00000110: e626 803c 03ce a93b 0c5a 5a3d ff84 a1bd
00000120: 0a03 a83d 82e8 c63c bf2f 283d d0ee ebbc
00000130: e177 c33c ac76 22bc e0f7 b9bc 3de1 9cbc
00000140: 0415 f6bc 2aba 8cbd f10e 6abd 84a4 7c3a
00000150: d59d aabd d93e a4bd b9c1 573d b215 bc3c
00000160: 46b0 a73d 2cd8 a73c 1d61 773d cda3 9abd
00000170: e136 cf3c af2f 81bd 84b6 c9bc 41cc 01bd
00000180: 3abc d13d 2abc 7c3d 6ec8 e7bd 8f98 65bd
00000190: ec11 96bd fd22 643c 4049 d33b 3c98 b83b
000001a0: f604 0cbb 1d65 f3bb 20fd e03b 3ea4 ef3c
000001b0: c0c4 84bd 0b5d e23c ea5e 7d3d 8552 b13d
000001c0: 6627 f33c 00fd 163d 30d8 37bc 3902 6bbc
000001d0: ccf8 a2bc 37e7 80bd 3668 2b3d 670c ab3c
000001e0: a637 8c38 9bed a13c cf08 743c fae0 7bbc
000001f0: a76e 80bd 58ce a6bc 05ff d33c 555e f3bc

classifier.8.weight f4 [32, 128, 2, 2]
-0.03282643 0.009926578 -0.033457913 0.007953832 0.035376977 -0.033622965 0.041342992 -0.0137886945
-0.079998866 0.00890036 -0.056322146 0.0015504739 -0.043853153 -0.03584891 0.020052042 -0.033157125
-0.007773528 0.03313676 -0.0035913857 0.021338828 -0.009347291 -0.031284858 -0.0022180765 0.00088489556
-0.014902951 0.026084695 -0.0033571913 -0.0052717803 -0.042919364 -0.07650443 -0.061889254 -0.03572246
-0.05278257 -0.0077416063 -0.0072106253 0.07161719 -0.016070643 -0.068660446 -0.0555713 -0.043310937
0.032708872 0.01867328 0.021062234 0.008076478 0.030594407 -0.03702806 -0.043776356 -0.028769217
-0.0105366595 0.013421163 0.024879985 -0.039823856 0.04277195 -0.033342194 0.04255763 -0.015199829
0.012587125 -0.025511958 -0.025205726 -0.021670608 0.024005685 -0.030166328 0.031133613 0.04106544
-0.059136417 -0.043390203 -0.020962588 0.021833759 -0.014323438 0.036819324 0.04099343 0.012612571
-0.042904 -0.023825595 -0.037213877 -0.02134455 -0.009871856 0.00073255436 -0.04098947 0.009558452
0.020138528 0.03921722 -0.01725095 -0.008021191 -0.047629703 0.0065544057 -0.07597941 -0.056205086
-0.009671101 -0.0042005708 0.01966113 0.001456416 -0.01620775 -0.045989055 -0.018558752 -0.023877785
-0.0045883115 0.028415395 0.025324402 -0.026736975 0.014433839 0.0007788458 -0.01185694 -0.037924845
-0.028694695 0.007999187 -0.022614464 -0.03582989 -0.01984195 0.0056644944 0.035683397 -0.042419706
0.03857054 0.008914748 -0.029392753 0.03355276 0.038724955 0.022093978 -0.03810014 -0.010612676
0.03432961 -0.054279074 -0.032201007 -0.041500583 0.033916984 0.037594873 0.012373261 -0.015032817
0.0014241304 0.012679875 -0.046201803 0.037695803 0.006231917 -0.013910699 0.023042709 0.016892336
0.03200433 0.037910283 -0.012904027 -0.021745307 -0.034799695 0.039542656 -0.007901749 -0.031943027
0.011366204 0.030103458 0.025367891 0.017868493 0.010091525 0.030056722 -0.03704801 -0.007015824
-0.021093512 0.021043679 -0.022614818 -0.04123927 0.04178025 -0.013611361 -0.018807003 0.041119523
-0.002517892 -0.010652735 -0.058621906 -0.04003064 -0.007653309 0.038883775 -0.019374141 0.030075543
0.042136457 0.025844974 -0.031844467 -0.0064364662 -0.003297195 -0.007135012 -0.011043135 0.024045462
-0.0397457 -0.047174152 -0.053916253 0.042675894 -0.0036306623 -0.07421384 0.017598666 -0.03173211
-0.04010759 -0.019491704 0.022071287 0.044242144 0.021517435 -0.016651737 0.012737844 -0.038890764
-0.044832908 -0.061634544 -0.045774475 -0.057244632 0.034879297 -0.02468417 -0.006894961 0.00919818
-0.06474966 -0.07826292 -0.06391653 -0.030962996 -0.017239852 0.01959003 -0.028380977 0.01662346
-0.03867805 -0.0131444745 -0.017821832 -0.038827147 0.023113232 -0.05976952 0.018257266 0.00033433826
0.029264584 -0.022995 0.03295264 0.039620046 -0.024658263 -0.022709003 0.048799176 -0.03785001
0.0050369804 -0.03912733 -0.03194838 0.01097131 0.038688034 -0.019002482 0.010445939 -0.03750418
-0.03256348 -0.016412854 -0.057088297 0.02640935 -0.008585571 0.00042617312 0.029968295 0.041280977
0.02457443 -0.021675123 0.02640884 0.021940326 -0.0440776 -0.022962013 -0.01955081 -0.018014137
0.01595864 0.0034374336 -0.010087032 0.0055876076 -0.032482233 -0.034888346 0.021551048 -0.017228056
00000000: 0275 06bd 16a3 223c 2a0b 09bd ca50 023c
00000010: 73e7 103d 3cb8 09bd 4557 293d fae9 61bc
00000020: 72d6 a3bd d1d2 113c 0db2 66bd 4539 cb3a
00000030: 5d9f 33bd 4fd6 12bd 2e44 a43c c4cf 07bd
00000040: 14b9 febb 69ba 073d 745d 6bbb c4ce ae3c
00000050: 6125 19bc 8d24 00bd 265d 11bb 56f8 673a
00000060: 822b 74bc 92af d53c 5304 5cbb e6be acbb
00000070: 37cc 2fbd 5bae 9cbd 967f 7dbd b751 12bd
00000080: 8932 58bd 4dad fdbb 1c47 ecbb 09ac 923d
00000090: 95a6 83bc d99d 8cbd bb9e 63bd cf66 31bd
000000a0: bdf9 053d b5f8 983c b58a ac3c 3453 043c
000000b0: 1fa1 fa3c bcaa 17bd d64e 33bd 6cad ebbc
000000c0: f4a1 2cbc 70e4 5b3c 1cd1 cb3c 571e 23bd
000000d0: a431 2f3d d391 08bd e950 2e3d b408 79bc
000000e0: 3b3a 4e3c 74fe d0bc 3d7c cebc 8f86 b1bc
000000f0: 92a7 c43c 601f f7bc eb0b ff3c 3c34 283d
00000100: 0739 72bd edb9 31bd bcb9 abbc b6dc b23c
00000110: daac 6abc dccf 163d bae8 273d f5a4 4e3c
00000120: 1bbc 2fbd e52d c3bc 946d 18bd c4da aebc
00000130: 91bd 21bc e408 403a 93e4 27bd 0e9b 1c3c
00000140: 8ef9 a43c 3ca2 203d dd51 8dbc 506b 03bc
00000150: 5d17 43bd 57c6 d63b 189b 9bbd 4e37 66bd
00000160: 8a73 1ebc f1a4 89bb 6110 a13c 36e5 be3a
00000170: 1ec6 84bc 055f 3cbd 8608 98bc 589b c3bc
00000180: 8c59 96bb 67c7 e83c 1f75 cf3c 8007 dbbc
00000190: e97b 6c3c 752b 4c3a 9c43 42bc 1557 1bbd
000001a0: 2311 ebbc 060f 033c f841 b9bc 5dc2 12bd
000001b0: 968b a2bc 399d b93b c128 123d 49c0 2dbd
000001c0: 24fc 1d3d 2a0f 123c 12c9 f0bc 9e6e 093d
000001d0: 0f9e 1e3d 6efe b43c e40e 1cbd cae0 2dbc
000001e0: 359d 0c3d bc53 5ebd 34e5 03bd 84fc 29bd
000001f0: 89ec 0a3d 15fd 193d 38b9 4a3c 344c 76bc
00000200: e3a9 ba3a 40bf 4f3c 1a3e 3dbd ea66 1a3d
00000210: 1c35 cc3b b3e9 63bc 10c4 bc3c cc61 8a3c
00000220: f916 033d d047 1b3d 696b 53bc 3723 b2bc
00000230: 208a 0ebd 7bf7 213d 5676 01bc b1d6 02bd
00000240: 5139 3a3c 879b f63c 53d0 cf3c f260 923c
00000250: ec56 253c 8439 f63c a7bf 17bd ffe4 e5bb
00000260: 4dcc acbc cb63 ac3c b642 b9bc 82ea 28bd
00000270: c421 2b3d 3002 5fbc 2511 9abc f26c 283d
00000280: 3803 25bb cf88 2ebc 861d 70bd 2bf7 23bd
00000290: 9cc8 fabb 9844 1f3d 85b6 9ebc fc60 f63c
000002a0: 4797 2c3d d7b8 d33c 586f 02bd fee8 d2bb
000002b0: c115 58bb d2cc e9bb 44ee 34bc fdfa c43c
000002c0: 63cc 22bd af39 41bd 4ad7 5cbd ebcc 2e3d
000002d0: 68f0 6dbb 6dfd 97bd 142b 903c 87f9 01bd
000002e0: db47 24bd 11ad 9fbc d8ce b43c 4037 353d
000002f0: 5545 b03c 3969 88bc 64b2 503c ec4b 1fbd
00000300: b6a2 37bd 8174 7cbd 047e 3bbd 5979 6abd
00000310: 98dd 0e3d 7536 cabc 20ef e1bb f7b3 163c
00000320: 789b 84bd 4f48 a0bd abe6 82bd 1ca6 fdbc
00000330: 973a 8dbc 457b a03c 397f e8bc ec2d 883c
00000340: e06c 1ebd ec5b 57bc 17ff 91bc 3709 1fbd
00000350: f657 bd3c e2d0 74bd 4390 953c 1f4a af39
00000360: 48bc ef3c 0360 bcbc 59f9 063d a148 223d
00000370: 2000 cabc 3b08 babc a5e1 473d 9d08 1bbd
00000380: 410d a53b fb43 20bd 4edc 02bd 02c1 333c
00000390: 5877 1e3d 18ab 9bbc 7225 2b3c fc9d 19bd
000003a0: 4961 05bd 4074 86bc 6bd5 69bd 6c58 d83c
000003b0: 7faa 0cbc fd6f df39 1280 f53c 3e16 293d
000003c0: 5150 c93c 0790 b1bc 5a57 d83c 33bc b33c
000003d0: b78a 34bd d51a bcbc 0529 a0bc 6292 93bc
000003e0: b2bb 823c 9146 613b 1444 25bc 4018 b73b
000003f0: 170c 05bd 15e7 0ebd d38b b03c da21 8dbc

classifier.8.bias f4 [32]
0.01998157 0.04600965 -0.02718952 -0.032750938 -0.0023989573 0.099438384 -0.027685648 -0.04024438
0.01676114 0.02959099 -0.008882664 -0.033019967 -0.021173425 0.00341311 -0.040749874 -0.047393743
-0.014071491 -0.027014865 -0.08566933 0.03402632 -0.00090491225 0.0036851987 0.12260673 -0.05172105
-0.05449519 -0.010118566 -0.07469282 -0.005179463 0.00091257895 0.01523955 0.04663878 0.053826544
00000000: 64b0 a33c 9d74 3c3d 8ebc debc d925 06bd
00000010: d337 1dbb 5aa6 cb3d 03cd e2bc 4ad7 24bd
00000020: a94e 893c ce68 f23c 9888 11bc f23f 07bd
00000030: e473 adbc 7cae 5f3b 57e9 26bd f11f 42bd
00000040: 1c8c 66bc 474e ddbc 6773 afbd 2f5f 0b3d
00000050: a237 6dba 6083 713b 3d19 fb3d 74d9 53bd
00000060: 5936 5fbd 58c8 25bc 8df8 98bd 7cb8 a9bb
00000070: 233a 6f3a 4eaf 793c 4e08 3f3d 3979 5c3d

classifier.10.weight f4 [1, 32, 2, 2]
-0.035716552 0.04009623 -0.01388124 -0.025536124 0.111417085 -0.11680676 -0.06288963 0.07374438
0.04420313 0.0022371125 -0.0496601 0.07784598 -0.041359175 -0.03765695 0.005117293 0.009330454
0.04573176 -0.07142413 0.07737504 -0.0026334978 0.13029796 -0.08910896 -0.11091162 0.054072637
0.00550314 0.0077305906 -0.017643334 -0.05646128 -0.062940784 0.056998983 0.005843148 -0.012960516
0.0073157083 -0.039955057 0.0031105801 -0.014339466 0.088175 -0.042308718 -0.002401607 -0.04457988
0.053665772 -0.043575194 -0.074432 0.06670554 -0.07418395 -0.050249584 -0.028148066 0.0011515361
-0.094762385 0.08366056 0.072280906 -0.077023625 -0.004264243 -0.07862457 -0.101870835 0.024748316
-0.08408514 0.0034564205 0.047495734 -0.014099745 0.031364772 -0.00918601 0.0012993419 -0.01843389
-0.038997855 0.046079367 0.05238665 -0.043205973 0.0005897992 0.09163834 -0.03194383 -0.06258249
-0.08044172 -0.044561516 0.07944149 0.0027449327 0.00820715 0.03001525 0.0082659265 -0.055772495
-0.06792415 -0.07361094 -0.009278539 -0.053335123 -0.06884797 0.04089552 -0.00928759 -0.058244687
-0.11776848 0.0848888 0.025091477 -0.04027211 0.040373147 0.031792585 -0.045291882 0.040880937
-0.04682596 0.0017477403 0.019339735 -0.028260741 0.0056043905 0.055628672 0.081190005 -0.098856464
-0.050754715 0.028885596 0.025535922 0.017082931 0.12877321 -0.07745161 0.07322577 -0.067297146
-0.07085771 -0.035114072 0.01977096 0.018571937 -0.067246616 0.074697405 0.016287578 0.03818198
-0.09264575 0.07897056 0.052853007 0.0019172773 0.12558974 0.003618983 0.0074168574 -0.092682846
00000000: 854b 12bd f23b 243d 246e 63bc 2231 d1bc
00000010: a42e e43d 6238 efbd 47cc 80bd 4b07 973d
00000020: 570e 353d 859c 123b 6468 4bbd b76d 9f3d
00000030: 3d68 29bd 2d3e 1abd f7ae a73b c3de 183c
00000040: 3a51 3b3d d046 92bd ce76 9e3d c396 2cbb
00000050: d46c 053e c27e b6bd a225 e3bd 457b 5d3d
00000060: af53 b43b e550 fd3b c188 90bc f143 67bd
00000070: 19e7 80bd c477 693d e177 bf3b 5858 54bc
00000080: 9cb8 ef3b eaa7 23bd e0da 4b3b 14f0 6abc
00000090: 1895 b43d e84b 2dbd 4864 1dbb 6499 36bd
000000a0: a4d0 5b3d e77b 32bd ce6f 98bd ea9c 883d
000000b0: c1ed 97bd 82d2 4dbd c696 e6bc 24ef 963a
000000c0: c812 c2bd 3a56 ab3d 0308 943d 90be 9dbd
000000d0: 10bb 8bbb eb05 a1bd a8a1 d0bd fbbc ca3c
000000e0: d434 acbd 1d85 623b e38a 423d 9e02 67bc
000000f0: 5978 003d eb80 16bc ae4e aa3a ab02 97bc
00000100: 37bc 1fbd b8bd 3c3d 6293 563d bff8 30bd
00000110: c19c 1a3a e2ac bb3d 89d7 02bd 402b 80bd
00000120: a1be a4bd 2386 36bd 38b2 a23d 54e4 333b
00000130: 4877 063c 8be2 f53c cf6d 073c b371 64bd
00000140: d11b 8bbd 55c1 96bd 0305 18bc ee75 5abd
00000150: 2a00 8dbd 1082 273d fa2a 18bc fb91 6ebd
00000160: 9a30 f1bd 2eda ad3d a48c cd3c 5ef4 24bd
00000170: 505e 253d f138 023d fb83 39bd c572 273d
00000180: 94cc 3fbd 6f14 e53a 5d6e 9e3c 1283 e7bc
00000190: 09a5 b73b e4da 633d f246 a63d 4275 cabd
000001a0: 2de4 4fbd 7ca1 ec3c b630 d13c 81f1 8b3c
000001b0: 20dd 033e f39e 9ebd 64f7 953d 16d3 89bd
000001c0: d91d 91bd c6d3 0fbd b5f6 a13c 2d24 983c
000001d0: 98b8 89bd f4fa 983d 876d 853c b564 1c3d
000001e0: 0ebd bdbd 51bb a13d 657c 583d 274d fb3a
000001f0: 999a 003e 762c 6d3b 1c09 f33b 81d0 bdbd

classifier.13.weight f4 [220, 354]
-0.0052385502 0.004198872 0.005013952 0.046966825 -0.015269576 -0.018728899 -0.053489946 -0.007685141
-0.05264097 -0.046805866 -0.06147751 -0.028049398 -0.029967278 0.030449841 -0.025351614 0.035980362
-0.004059096 0.02716884 0.015719268 0.011926602 0.015031751 0.008448091 -0.0012784695 0.004114673
-0.05069005 -0.004662198 0.00603604 -0.036308818 0.023020172 -0.011823048 -0.07394338 -0.046792682
-0.015776245 -0.019394616 -0.046240475 -0.03327901 -0.038691696 0.030718653 -0.0036635401 -0.020164687
-0.025285987 -0.033262704 -0.040492967 -0.024938166 -0.059859835 -0.041686922 0.012745193 -0.054945417
-0.006648206 -0.00049988966 0.042500265 -0.022766542 -0.03942516 -0.060900368 -0.034472127 0.019674618
-0.047807515 0.036705606 0.039237604 0.022214146 -0.0025790322 -0.051272377 0.025576834 -0.0016938313
-0.023021493 0.015401321 0.00210645 -0.046889734 -0.034572937 -0.029660076 0.009152309 -0.047362775
-0.023158746 0.026836054 0.022403983 -0.00042144026 -0.053283803 -0.023421383 -0.03061655 0.00094504445
0.028874036 -0.0025464841 -0.026737666 -0.017685989 0.033823587 -0.03107143 0.026294868 -0.05075615
-0.07003848 -0.05429569 -0.05826694 0.042327035 -0.023900384 0.0056300713 -0.0067730946 0.0021658328
-0.028038705 0.025683248 0.035749212 0.048045803 0.023405 -3.7150596e-05 -0.064479925 -0.041267723
-0.04479072 -0.0014393816 -0.026886983 -0.061816797 -0.035432488 -0.03892832 -0.0021452822 0.02439149
-0.008367567 0.0051053762 0.033660397 -0.0025487724 -0.06791021 -0.020254841 -0.013499432 0.026935048
-0.022720428 0.0008594347 0.039269287 -0.012819688 0.025600478 -0.050352503 -0.024814103 0.016167311
-0.027273618 -0.021081494 -0.029841209 -0.044323508 0.000903266 -0.03478775 0.0052819564 -0.047916986
-0.0033969868 -0.021477208 -0.047913946 -0.02301731 -0.005752735 0.001327324 0.04880483 0.023217453
-0.039822772 -0.00843355 -0.06382513 -0.004293173 0.023072718 0.026931593 -0.05629092 0.00949662
-0.008318949 0.024540242 0.010398949 -0.06103225 -0.04914225 0.0265831 -0.03375377 0.03146229
-0.049771167 0.0012586566 -0.028970739 -0.062310945 -0.01511623 0.002736999 -0.05294529 -0.016264461
0.019887771 0.031178739 -0.03887582 -0.042505004 0.0038952748 0.032236263 -0.020692712 -0.025335804
-0.0068129324 -0.057890575 -0.004296128 -0.06917804 -0.06063213 0.029875277 -0.012471083 -0.03895354
0.02809011 -0.05521787 -0.05664266 -0.016711932 0.0011781384 -0.0017226798 -0.015538962 0.016082585
-0.024976293 -0.04428156 0.015117382 -0.050964292 0.030637654 -0.044177085 0.022595257 -0.06613304
-0.009492482 0.03130946 0.023476861 0.019989485 -0.043993935 0.0020646483 -0.0378039 -0.053629924
0.021863075 -0.04126231 -0.010154245 -0.0022930412 0.00024541197 -0.008908533 0.036826275 0.014287434
-0.019154778 -0.048920635 0.02420263 -0.022109672 -0.060900137 -0.036423527 -0.055645764 -0.039997168
-0.0023239723 0.008159816 -0.038350087 -0.052550867 -0.014487531 -0.049781457 -0.009558075 -0.02388655
-0.033881124 -0.017806912 -0.0005802935 -0.05558844 0.029816361 -0.021228366 -0.04577744 0.009793318
-0.0408171 0.0110581815 0.0033004177 -0.006148288 -0.048888963 0.04507227 -0.04475448 -0.01606973
0.03236508 -0.059387468 -0.037053965 0.004218891 -0.043222904 -0.013693595 0.043514196 -0.043598138
00000000: 25a8 abbb b196 893b 144c a43b 4960 403d
00000010: 3e2d 7abc 596d 99bc 4618 5bbd a3d3 fbbb
00000020: 0f9e 57bd 82b7 3fbd d7cf 7bbd dac7 e5bc
00000030: f07d f5bc f271 f93c 30ae cfbc 2560 133d
00000040: 2a02 85bb 3091 de3c b2c5 803c cb67 433c
00000050: bc47 763c dd69 0a3c 5192 a7ba 61d4 863b
00000060: 5fa0 4fbd 5ac5 98bb f9c9 c53b 8eb8 14bd
00000070: cd94 bc3c 75b5 41bc a06f 97bd afa9 3fbd
00000080: 2f3d 81bc 75e1 9ebc a766 3dbd 924f 08bd
00000090: 2f7b 1ebd afa5 fb3c 0118 70bb 6a30 a5bc
000000a0: 8f24 cfbc 793e 08bd f4db 25bd 204b ccbc
000000b0: 962f 75bd e8bf 2abd 37d1 503c 720e 61bd
000000c0: 32d9 d9bb 070b 03ba c214 2e3d e680 babc
000000d0: 477c 21bd aa72 79bd a532 0dbd aa2c a13c
000000e0: d0d1 43bd 9e58 163d 9cb7 203d 71fa b53c
000000f0: fb04 29bb fc02 52bd 8286 d13c 8c03 deba
00000100: 9297 bcbc d355 7c3c 5e0c 0a3b 730f 40bd
00000110: 5a9c 0dbd b0f9 f2bc 91f3 153c 78ff 41bd
00000120: 69b7 bdbc 49d7 db3c 8f88 b73c c1f4 dcb9
00000130: 1e40 5abd 33de bfbc 8fcf fabc dcbc 773a
00000140: 3e89 ec3c eae2 26bb f308 dbbc 35e2 90bc
00000150: 9a8a 0a3d 8389 febc 5668 d73c aee5 4fbd
00000160: 5670 8fbd 2865 5ebd 51a9 6ebd 1d5f 2d3d
00000170: bdca c3bc 767c b83b d6f0 ddbb a5f0 0d3b
00000180: 6db1 e5bc ad65 d23c c46d 123d adcb 443d
00000190: d8bb bf3c 26d2 1bb8 0d0e 84bd 5808 29bd
000001a0: 7976 37bd a2a9 bcba 1742 dcbc 9c33 7dbd
000001b0: a821 11bd 4d73 1fbd dd97 0cbb a9d0 c73c
000001c0: 1f18 09bc 004b a73b 7cdf 093d 4e09 27bb
000001d0: 8214 8bbd 7bed a5bc b92c 5dbc e4a6 dc3c
000001e0: 3120 babc b04b 613a d5d8 203d ab09 52bc
000001f0: 18b8 d13c 6d3e 4ebd f246 cbbc 4f71 843c
00000200: ec6c dfbc 19b3 acbc 8d75 f4bc 918c 35bd
00000210: 28c9 6c3a 9a7d 0ebd 4314 ad3b 9a44 44bd
00000220: fb9f 5ebb f8f0 afbc 6a41 44bd cc8e bcbc
00000230: 7081 bcbb 9af9 ad3a 93e7 473d 8732 be3c
00000240: 341d 23bd df2c 0abc c0b6 82bd bfad 8cbb
00000250: ff02 bd3c a59f dc3c 4f91 66bd b697 1b3c
00000260: 334c 08bc 9e08 c93c 5a60 2a3c f4fc 79bd
00000270: 6249 49bd cdc4 d93c 6541 0abd 9ade 003d
00000280: dadc 4bbd 82f9 a43a 0b54 edbc c339 7fbd
00000290: 10aa 77bc 395f 333b 29dd 58bd 0c3d 85bc
000002a0: aeeb a23c 8e6a ff3c 403c 1fbd ba19 2ebd
000002b0: de47 7f3b 2c0a 043d c383 a9bc 088d cfbc
000002c0: 053f dfbb ab1e 6dbd 89c6 8cbb 37ad 8dbd
000002d0: 6559 78bd ffbc f43c 8353 4cbc bf8d 1fbd
000002e0: 3b1d e63c 222c 62bd 2202 68bd 76e7 88bc
000002f0: c46b 9a3a 8bcb e1ba 2197 7ebc a0bf 833c
00000300: 159b ccbc 9560 35bd e5ae 773c efbf 50bd
00000310: d1fb fa3c 08f3 34bd b019 b93c c270 87bd
00000320: 5b86 1bbc 593e 003d 8c52 c03c fdc0 a33c
00000330: fc32 34bd 0d4f 073b 43d8 1abd 0dab 5bbd
00000340: 311a b33c ab02 29bd fe5d 26bc d946 16bb
00000350: a3aa 8039 18f5 11bc 26d7 163d d715 6a3c
00000360: 7bea 9cbc 0161 48bd 9844 c63c 581f b5bc
00000370: 6c72 79bd d630 15bd d0ec 63bd 12d4 23bd
00000380: c94d 18bb c0b0 053c fb14 1dbd 943f 57bd
00000390: 1c5d 6dbc a4e7 4bbd 7999 1cbc baad c3bc
000003a0: efc6 0abd cddf 91bc d61e 18ba b4b0 63bd
000003b0: 7141 f43c 1ce7 adbc 2081 3bbd 2774 203c
000003c0: d52f 27bd 602d 353c d24b 583b 9477 c9bb
000003d0: cb3f 48bd b39d 383d 7950 37bd aba4 83bc
000003e0: 3f91 043d 4640 73bd e6c5 17bd 9f3e 8a3b
000003f0: 800a 31bd 1a5b 60bc f13b 323d f693 32bd

classifier.13.bias f4 [220]
-0.012227241 0.041156676 -0.03299873 -0.041530874 0.038097776 -0.06294696 0.094411016 0.18938385
0.11841857 0.0668747 -0.023416134 -0.050343923 0.1572837 0.07315523 0.02387246 0.08347901
-0.05867592 -0.014652097 0.03415003 0.091230765 0.123251855 0.18462291 -0.079903856 -0.007134677
-0.028773805 0.20670818 -0.049673 0.090734735 0.021237297 -0.05125026 -0.0023867732 0.11857208
0.04328667 0.019266946 -0.057819244 -0.08354445 -0.03218959 0.028307281 0.0019916857 -0.049182598
-0.012742335 -0.056207813 0.021027852 -0.046810318 -0.016820764 -0.04970032 0.01786988 -0.055837765
0.026930023 0.0057105715 0.0254217 -0.06282007 -0.07047806 0.014539886 -0.028542858 -0.0007196033
-0.098544985 -0.037421294 -0.008316847 0.03742538 0.15063119 0.036737096 0.014240073 0.006817728
-0.0061444463 -0.13927445 -0.09185041 0.058493435 0.0349083 0.050862458 0.008668316 -0.025882164
-0.022285184 -0.06003521 -0.040609725 0.08529212 0.043402646 -0.024051327 0.030289508 -0.012135917
-0.04781312 -0.06938364 -0.020874618 -0.0269291 -0.05607841 -0.14951548 -0.035543866 0.015813377
-0.044281088 0.07761956 0.11578786 0.17908986 0.010775098 -0.05129557 0.08316531 0.039346308
-0.0038034415 -0.0059445365 0.020575605 0.015785165 0.02656998 0.024955058 0.10745733 0.011945775
-0.016988838 -0.028614424 -0.013372982 0.006495219 0.17052533 0.10756081 0.046512228 -0.02891899
-0.043595888 -0.03154732 -0.00061403104 0.12002147 -0.22289598 0.014568989 0.028150247 0.019416008
0.018843498 0.016928302 -0.071911655 -0.019770384 -0.053514376 -0.03467068 0.033293545 0.0889798
0.016708944 -0.048100013 -0.03443292 -0.007885584 0.23114604 0.19616584 -0.023914743 0.06189578
-0.033126786 0.041867565 0.1589436 -0.13002025 0.102590926 -0.049795207 -0.060192395 -0.055424873
-0.14630497 -0.011101429 -0.07279397 -0.12325202 0.00667302 0.03942821 0.07520253 0.0090905195
-0.007564186 0.068447 -0.065483436 -0.020305252 -0.024063792 -0.05329302 -0.12299523 -0.028453512
0.041484118 -0.0003668286 0.053868845 0.057876118 0.07256025 -0.011912398 0.039927926 0.19320287
-0.15901783 0.23686433 0.02035356 0.089223675 0.27402285 0.019279128 -0.0015863958 -0.06846952
-0.010146452 -0.025189318 -0.065378435 -0.05036152 0.024346365 -0.019007592 -0.0237155 -0.030152949
0.0054915086 0.043438192 0.051639732 -0.06859768 0.071261086 0.010409686 -0.024834499 0.015066249
0.19073988 0.04499767 -0.04349984 -0.025127854 -0.06003072 0.044655275 -0.05641552 0.11776047
0.012201011 0.11766481 -0.05966243 0.0007860974 -0.032825418 0.007019249 -0.035326377 0.21121234
-0.02155045 0.0351829 -0.12004354 0.10303965 0.053332876 0.02731131 0.12344476 -0.15464394
0.012014332 -0.0340668 0.12824889 -0.049129467
00000000: c454 48bc e793 283d ad29 07bd 471c 2abd
00000010: 6a0c 1c3d 56ea 80bd 905a c13d d7ed 413e
00000020: 6f85 f23d 9af5 883d 31d3 bfbc 6e35 4ebd
00000030: fa0e 213e 69d2 953d 2d90 c33c 0bf7 aa3d
00000040: 2956 70bd 590f 70bc e7e0 0b3d 32d7 ba3d
00000050: 786b fc3d ca0d 3d3e a2a4 a3bd 02ca e9bb
00000060: 0bb7 ebbc 4fab 533e ea75 4bbd 22d3 b93d
00000070: d7f9 ad3c cbeb 51bd 696b 1cbb ebd5 f23d
00000080: 5d4d 313d b7d5 9d3c dfd3 6cbd 5a19 abbd
00000090: 3bd9 03bd ace4 e73c f186 023b b173 49bd
000000a0: 3ac5 50bc 2a3a 66bd 9a42 ac3c 2dbc 3fbd
000000b0: b3cb 89bc 9092 4bbd db63 923c 24b6 64bd
000000c0: 5a9c dc3c bf1f bb3b 2b41 d03c cfa7 80bd
000000d0: cd56 90bd b438 6e3c b6d2 e9bc c3a3 3cba
000000e0: f4d1 c9bd 1247 19bd 6243 08bc 5b4b 193d
000000f0: 103f 1a3e a379 163d 324f 693c 3f67 df3b
00000100: 5a57 c9bb f69d 0ebe 111c bcbd d096 6f3d
00000110: 01fc 0e3d 2755 503d 8d05 0e3c d506 d4bc
00000120: 6b8f b6bc 7be7 75bd 6256 26bd a3ad ae3d
00000130: f9c6 313d 4a07 c5bc b421 f83c bad5 46bc
00000140: b1d7 43bd 0319 8ebd 3f01 abbc 6a9a dcbc
00000150: 7ab2 65bd 961a 19be 7296 11bd 0e8b 813c
00000160: 1660 35bd 01f7 9e3d 2f22 ed3d 5563 373e
00000170: 098a 303c 4e1b 52bd 9352 aa3d 9829 213d
00000180: 2943 79bb 63ca c2bb 2c8e a83c e44f 813c
00000190: 49a9 d93c 8d6e cc3c 9712 dc3d 36b8 433c
000001a0: 2d2c 8bbc cc68 eabc 5a1a 5bbc d9d5 d43b
000001b0: 319e 2e3e d848 dc3d 9b83 3e3d 85e7 ecbc
000001c0: 9a91 32bd c337 01bd edf6 20ba d1cd f53d
000001d0: d83e 64be c5b2 6e3c 599b e63c 520e 9f3c
000001e0: ae5d 9a3c 39ad 8a3c 6b46 93bd 80f5 a1bc
000001f0: e431 5bbd d802 0ebd d05e 083d 0b3b b63d
00000200: 32e1 883c 8504 45bd 8909 0dbd 8932 01bc
00000210: 8cb1 6c3e b3df 483e dae8 c3bc 6e86 7d3d
00000220: f4af 07bd 537d 2b3d 1cc2 223e 0724 05be
00000230: 311b d23d 0ff6 4bbd 4d8c 76bd 3105 63bd
00000240: f8d0 15be c5e2 35bc 0115 95bd 8e6b fcbd
00000250: 59a9 da3b 7a7f 213d c903 9a3d 67f0 143c
00000260: fedc f7bb f12d 8c3d 2e1c 86bd 3357 a6bc
00000270: 6e21 c5bc c849 5abd ece4 fbbd 5717 e9bc
00000280: 40eb 293d e752 c0b9 94a5 5c3d 820f 6d3d
00000290: 789a 943d 382c 43bc 778b 233d f9d6 453e
000002a0: 92d5 22be 908c 723e 82bc a63c e7ba b63d
000002b0: b94c 8c3e 43ef 9d3c 9cee cfba bf39 8cbd
000002c0: 4e3d 26bc d459 cebc 21e5 85bd e247 4ebd
000002d0: 0772 c73c cfb5 9bbc 0247 c2bc 5103 f7bc
000002e0: 1df2 b33b 3fec 313d 2f84 533d f17c 8cbd
000002f0: 55f1 913d 638d 2a3c b871 cbbc 6ed8 763c
00000300: 5151 433e 7a4f 383d e32c 32bd eed8 cdbc
00000310: c6e2 75bd 73e8 363d f613 67bd 672c f13d
00000320: c0e6 473c 3ffa f03d 9860 74bd 1a12 4e3a
00000330: f273 06bd ba01 e63b 64b2 10bd 0c48 583e
00000340: 928a b0bc f21b 103d 63d9 f5bd 7406 d33d
00000350: 9373 5a3d f8bb df3c 9bd0 fc3d fb5a 1ebe
00000360: c3d7 443c a189 0bbd ad53 033e fb3b 49bd

classifier.15.weight f4 [10, 220]
-0.009555538 0.05870214 0.006472504 0.11827877 0.00079508306 -0.053631064 -0.047640868 -0.10644792
-0.05815264 -0.04207739 -0.036189258 -0.019215977 -0.088082194 -0.016812399 0.035768848 -0.073765166
0.029506437 0.019269997 0.07839708 -0.09190648 0.23530698 -0.10605638 -0.0077277557 -0.023257302
0.021399684 0.015684098 0.00044498683 0.026215242 0.010143533 -0.0021708622 0.01848098 -0.09963385
-0.052473187 0.00080692314 -0.031214057 0.017737156 0.025176184 0.029143253 0.0471746 0.040243477
-0.048014052 -0.011377905 -0.055678163 0.055235043 -0.003703985 0.005712513 -0.03271118 0.008937739
0.0025949487 -0.0074260114 0.045913275 0.016600119 -0.09431479 0.02657366 0.0046202047 -0.107658386
0.018705776 -0.0050947606 -0.05254743 -0.015709657 -0.0050652046 0.036215898 0.026732229 0.051315695
0.014016828 0.105977535 0.069078304 -0.012315587 0.0059495256 0.06437417 0.02838762 -0.14719227
0.03224899 0.038356353 0.0029872118 -0.117636405 0.17089729 0.0645548 0.0045260508 -0.033022184
0.031486217 -0.0029808267 -0.043362584 -0.049271114 0.011786344 0.047946475 0.028213896 -0.064109206
0.03238125 0.017388932 0.04662593 -0.027516996 -0.050137825 0.025113482 0.111007325 0.030233875
-0.020158526 0.08464014 0.013650053 0.042620685 -0.034625184 -0.052995432 -0.04304383 -0.072035015
0.04117755 0.04693854 0.026275573 -0.08372638 0.04286535 0.0065461854 0.08562477 0.018020388
-0.002469668 -0.07778397 -0.011133774 -0.056866564 0.0014699752 -0.12680581 -0.03575575 -0.029104179
0.0074607246 0.027220767 0.059949473 0.057905782 0.04129914 0.039642066 -0.0040367134 0.13082246
0.0631534 -0.013043789 0.03583067 0.002717132 -0.06444593 0.055503573 0.043001305 -0.05162464
0.01611209 0.008837109 -0.09479539 -0.06966899 0.18252271 -0.035028353 -0.030510444 0.059825875
-0.074840225 0.009192605 -0.038759317 0.017554697 0.06285439 -0.078247935 0.057834852 0.0004480202
0.18680666 -0.12842952 0.047917694 0.027681382 -0.018378552 -0.050965223 -0.13619097 -0.050137836
-0.008277981 0.033106156 0.02979455 -0.08550602 -0.014298262 0.09536766 0.024311397 -0.020467155
-0.06804072 -0.03878785 -0.047073442 0.007815347 0.0998489 -0.03708781 -0.08609437 -0.03045412
0.052320443 0.08779923 -0.080065854 -0.035767004 -0.02431967 0.01860712 -0.031660758 -0.002276288
0.2144458 0.010355955 -0.02925429 -0.09323655 0.020299902 0.05847762 0.04208364 0.07212334
-0.10486392 0.011523608 0.015218596 -0.05329998 0.023431903 -0.07996433 0.05074252 -0.1180893
0.049279552 0.07690136 -0.030465055 0.024452072 -0.019898064 -0.05105147 -0.12726332 -0.0884449
0.06968173 -0.09742147 -0.05674505 -0.087363295 0.20313276 0.0898348 0.08046304 -0.020634064
0.05998729 0.03556604 0.03158267 0.053527102 0.018137662 0.011472636 -0.087802865 -0.06219999
-0.0241141 -0.058826044 -0.03872549 0.10172585 0.07613987 -0.036951568 -0.044954926 -0.00734669
0.023552528 -0.0010320133 0.046136953 0.02133213 0.03337412 -0.0715107 -0.0073207086 0.07841561
0.013658432 -0.06447747 -0.012796295 0.04624039 0.010859643 0.021934135 0.0005655912 -0.14224699
0.046965994 0.06219864 -0.0045770593 0.0912181 0.040755384 -0.058506787 -0.03292509 -0.0012177761
00000000: d58e 1cbc a871 703d 4d17 d43b 243c f23d
00000010: 1f6d 503a 3fac 5bbd 1223 43bd 5e01 dabd
00000020: 7631 6ebd 5759 2cbd 303b 14bd d36a 9dbc
00000030: 7064 b4bd 28ba 89bc 5b82 123d 3112 97bd
00000040: 7cb7 f13c 1ddc 9d3c a68e a03d 7739 bcbd
00000050: 50f4 703e 1634 d9bd 1d39 fdbb 1986 bebc
00000060: 644e af3c f07b 803c 1f4d e939 59c1 d63c
00000070: 1031 263c 0645 0ebb 6d65 973c d50c ccbd
00000080: 20ee 56bd b287 533a 9fb4 ffbc 834d 913c
00000090: 493e ce3c d5bd ee3c 273a 413d 58d6 243d
000000a0: 62aa 44bd 646a 3abc c90e 64bd 243e 623d
000000b0: 8ebe 72bb 0830 bb3b 29fc 05bd 986f 123c
000000c0: 0410 2a3b e655 f3bb 8f0f 3c3d f9fc 873c
000000d0: 1d28 c1bd 01b1 d93c 1665 973b 007c dcbd
000000e0: db3c 993c f3f1 a6bb f93b 57bd 8ab1 80bc
000000f0: 04fa a5bb 1f57 143d 8cfd da3c 6830 523d
00000100: d6a6 653c c00a d93d ed78 8d3d 51c7 49bc
00000110: 3df4 c23b 9bd6 833d 278d e83c 92b9 16be
00000120: 8417 043d 8d1b 1d3d 19c5 433b 5beb f0bd
00000130: b3ff 2e3e 4f35 843d 444f 943b 4542 07bd
00000140: b1f7 003d f959 43bb f79c 31bd 82d0 49bd
00000150: 831b 413c 8663 443d d420 e73c b04b 83bd
00000160: 34a2 043d 3c73 8e3c d5fa 3e3d 536b e1bc
00000170: 525d 4dbd caba cd3c cf57 e33d 08ad f73c
00000180: 7e23 a5bc cf57 ad3d 79a4 5f3c 0793 2e3d
00000190: 23d3 0dbd bd11 59bd ba4e 30bd 1887 93bd
000001a0: caa9 283d a042 403d df3f d73c bc78 abbd
000001b0: 9493 2f3d 6281 d63b 0a5c af3d 7e9f 933c
000001c0: 27da 21bb 344d 9fbd 6f6a 36bc eaec 68bd
000001d0: 2fac c03a 62d9 01be 9f74 12bd e36b eebc
000001e0: 1879 f43b 16fe de3c 948d 753d 9d2e 6d3d
000001f0: 4929 293d b85f 223d 6846 84bb 53f6 053e
00000200: 9256 813d 9eb5 55bc 2ec3 123d e911 323b
00000210: 3afc 83bd b757 633d 2322 303d 5c74 53bd
00000220: 80fd 833c 86c9 103c 1624 c2bd 9eae 8ebd
00000230: 3ce7 3a3e e479 0fbd 0af1 f9bc fa0b 753d
00000240: d545 99bd 949c 163c 17c2 1ebd dece 8f3c
00000250: cdb9 803d 7440 a0bd 3de4 6c3d 41e4 ea39
00000260: 3f4a 3f3e 0783 03be 5845 443d 11c4 e23c
00000270: 9e8e 96bc e9c0 50bd a575 0bbe 555d 4dbd
00000280: 5ea0 07bc 529a 073d b313 f43c c81d afbd
00000290: 4243 6abc 1f50 c33d b228 c73c bcaa a7bc
000002a0: ef58 8bbd 02e0 1ebd 15d0 40bd f10b 003c
000002b0: 957d cc3d 63e9 17bd 3f52 b0bd eb7a f9bc
000002c0: f64d 563d 15d0 b33d 91f9 a3bd 6c80 12bd
000002d0: 0b3a c7bc f56d 983c b6ae 01bd c72d 15bb
000002e0: ae97 5b3e 06ac 293c b1a6 efbc cef2 bebd
000002f0: fb4b a63c 3b86 6f3d e55f 2c3d 67b5 933d
00000300: e5c2 d6bd 84cd 3c3c 6b57 793c 1451 5abd
00000310: 43f4 bf3c 57c4 a3bd 63d7 4f3d ced8 f1bd
00000320: 5bd9 493d 767e 9d3d da91 f9bc b64f c83c
00000330: 4401 a3bc 591b 51bd 5151 02be 9a22 b5bd
00000340: 4bb5 8e3d e884 c7bd 7f6d 68bd 87eb b2bd
00000350: 0902 503e 4ffb b73d cec9 a43d c508 a9bc
00000360: 3cb5 753d b2ad 113d d45c 013d 3c3f 5b3d
00000370: 6f95 943c b9f7 3b3c fdd1 b3bd 6bc5 7ebd
00000380: ef8a c5bc 94f3 70bd 9f9e 1ebd a455 d03d
00000390: 38ef 9b3d 875a 17bd a822 38bd 81bc f0bb
000003a0: 3bf1 c03c 9f44 87ba 1afa 3c3d b8c0 ae3c
000003b0: 4db3 083d 3474 92bd 8ee2 efbb 5d98 a03d
000003c0: 9ec7 5f3c c40c 84bd 8da7 51bc 9066 3d3d
000003d0: a5ec 313c 37af b33c 2f44 143a 32a9 11be
000003e0: 6a5f 403d 00c4 7e3d 28fb 95bb 8ed0 ba3d
000003f0: 1eef 263d d0a4 6fbd 76dc 06bd c99d 9fba

classifier.15.bias f4 [10]
-0.15057948 -0.15715595 0.1956463 -0.29797974 0.030236805 -0.118523665 -0.1287635 -0.2528235
-0.22490183 0.028585698
00000000: 8231 1abe 7ded 20be 8157 483e cd90 98be
00000010: 2db3 f73c 89bc f2bd 94da 03be 1572 81be
00000020: aa4c 66be 8e2c ea3c
