models/logMel_classifier_model_01.pt (torch, 557931 bytes, 13 tensors)

classifier.0.weight f4 [32, 1, 2, 2]
00000000: b870 9dbe 7246 193d ecd0 b83e 37a8 f8be
00000010: e759 e0be 56f6 1e3e 7202 6abe d5e2 d63e
00000020: 744d 163f 44e1 66be ed50 c9be c8dd 9ebc
00000030: 075c d33e 79c2 33bd 9923 26bc b16e 99be
00000040: b7fa 26be af1a 93bd 47e5 c43e 7eb6 9cbe
00000050: d259 553f ac65 4c3e b671 a3be 933f fe3e
00000060: 8190 203f 694c 9ebe 1722 8ebe 5726 f93d
00000070: c55c 333d 4a87 54be 6e8c b4be 9f5d 4fbe
00000080: 6762 c23e 70de 753e fd14 c43e c4d8 f5be
00000090: fb38 143d c7fa fdbd 7280 a03e a628 9abe
000000a0: 5f7f eb3e cb1b 02bf 4b4c 7d3e d3b9 24be
000000b0: 3e98 153f fdcb 213e 7ed2 de3e e191 eebe
000000c0: 83ee d0be 26f8 a13e 57d3 ba3d 00d3 3dbd
000000d0: 6511 9bbe 3ab4 0d3f bf98 173e 98db d33d
000000e0: 0322 23be 68c5 6b3e c670 9abe 5d09 423e
000000f0: a17c abbe 5e2f 8abd f84d c9bb c0eb 06bd
00000100: 6246 bdbe 00de c3be cb2d 083b af4d 3b3e
00000110: 8ba5 913e ebe6 c93e be1f 8cb9 cefb 16bf
00000120: 1f2c d2be 87c7 edbd 6c04 4dbe d4b8 ce3d
00000130: 9b98 3dbd 1116 36be 634b a0be d4e0 5d3e
00000140: fbff d73e a4cb 9bbe 5efd 05bf 25bd cc3e
00000150: d965 d4be 5894 483e 0acb 633d 3000 aa3e
00000160: d1d9 c1be bed0 4f3d 5ab8 8b3e 516a 873e
00000170: 8c4e 93be 571f 713e 0ea2 b53e ab46 a5be
00000180: 1556 7b3e 5eb4 d43d 79ee 39be 2993 d7bd
00000190: a9ff 523e 42e4 b9be 0cde e0bd 44c8 b8be
000001a0: 3828 25be c99f 6dbe 6cdb 31be 47d8 cf3e
000001b0: ed93 163f 7fca 9c3e f41b 583e cf0a 0bbf
000001c0: dfdc b9be 8a44 843c ffac a7be d67a ef3e
000001d0: 9935 c93e 9cf1 533d 7ea6 b93d 422f a9be
000001e0: 5a4d 26be 296e 0dbe 6897 293e f632 ec3d
000001f0: 4112 dd3e d37d b9be 92a1 6f3e 09a3 c1bd
-0.3075006 0.037420698 0.36096895 -0.48565838 -0.4381859 0.15523657 -0.22852495 0.41969934
0.58711934 -0.2254687 -0.39319554 -0.019392863 0.4128115 -0.043886635 -0.010140323 -0.29967263
-0.16306578 -0.07182824 0.38456175 -0.3060798 0.8334018 0.1996066 -0.31922692 0.49657878
0.62720495 -0.3091767 -0.27760383 0.12165516 0.043789644 -0.20754734 -0.3526339 -0.20250557
0.379657 0.24010634 0.38297263 -0.48016942 0.036187153 -0.124013476 0.31347996 -0.30109137
0.45995614 -0.5082366 0.24736135 -0.16086511 0.5843543 0.15800472 0.43519968 -0.46595672
-0.4080697 0.31634635 0.09122341 -0.046343803 -0.30286708 0.5535313 0.14804362 0.103446186
-0.15930943 0.23024523 -0.30164164 0.18948884 -0.33493522 -0.06747316 -0.006143328 -0.032939672
-0.3696776 -0.3825531 0.0020779248 0.18291353 0.28446612 0.3943399 -0.0002672653 -0.58977973
-0.41049287 -0.116103224 -0.20021218 0.10093847 -0.046288114 -0.17781855 -0.31307516 0.21667796
0.42187485 -0.30428803 -0.5233973 0.39988056 -0.41483954 0.19587839 0.055613555 0.33203268
-0.37861493 0.05073618 0.27289087 0.264483 -0.28770864 0.23547111 0.354752 -0.32280478
0.24544556 0.10385965 -0.18157376 -0.105261154 0.20605339 -0.3630696 -0.10979852 -0.3609029
-0.16128623 -0.23205484 -0.17368859 0.40594694 0.58819467 0.30623242 0.21104413 -0.5431337
-0.36301324 0.016145963 -0.32749173 0.46773404 0.39298704 0.05174409 0.09064959 -0.33043867
-0.16240445 -0.13811554 0.16561663 0.115331575 0.4317799 -0.3622881 0.23401478 -0.094549246

classifier.0.bias f4 [32]
00000000: abad 3fbf 875d 55bc 0f50 9f3e 6ff3 603f
00000010: bded 34be 069f aa3e 4487 f13d cfbc ed3c
00000020: 4db1 27bd 2631 09bf 7f04 5f3f f383 d03e
00000030: a9f5 c13e c48d 9b3e 871c fabe e547 f4bd
00000040: c097 bb3d e150 b63e 6b2d dabe 1e05 e9be
00000050: 3a25 c4be 29e6 673e 311c df3d 9d8c 0abf
00000060: c055 303f 01ad 90bd 7347 9abe f6cf 3a3d
00000070: 57b0 64be f664 013f bc0d db3d f97f e43e
-0.7487437 -0.013022787 0.31115767 0.8787145 -0.17668815 0.3332445 0.11793378 0.029020695
-0.04094057 -0.5359062 0.87116235 0.4072567 0.37882736 0.30381596 -0.4884989 -0.11927775
0.091598034 0.3560858 -0.42612776 -0.45511717 -0.38309652 0.22646393 0.10894049 -0.5412081
0.68880844 -0.07064248 -0.30132636 0.045608483 -0.22332893 0.5054468 0.10695979 0.44628885

classifier.3.weight f4 [64, 32, 2, 2]
00000000: 7556 01bc 2d49 bf3d 45ba cdbd 3521 4c3d
00000010: 8154 82bd db8f d93d 9e9b b83c b8bb 693d
00000020: 1ea2 98bb a092 013e 0b51 103e 420c 7f3b
00000030: b53c 923e d628 8b3e b898 2e3e 7e10 583e
00000040: 0855 353d 0792 8a3d e28b 373d 3216 dc3c
00000050: d87b c2bd 0fbd 6d3d 46a0 7e3e edc6 483e
00000060: a77b 983e 2a6b 5b3e d9b0 273e 6ded 423e
00000070: bdde 28bd 8171 943d dbdb 153c dce1 29bb
00000080: fa48 313e 536e cabb 2b90 e83d e665 b73e
00000090: 4eea bb3b 6846 953d 43d7 d23d 18e9 513c
000000a0: 68a9 563e 087e 4e3e d343 933e aad7 153e
000000b0: 3962 1b3e 5e57 023b 3a38 273e 33b0 e73e
000000c0: 2024 52bd 09ed c1bd 44e1 033c da0a f63c
000000d0: 78ef 97bd c8e3 87bd a91d aabd 283a d5bd
000000e0: 1f72 7fbd 15f4 21bc 6d7f 84bc e25b 2dbd
000000f0: 5027 233d 2825 793d 0937 edbd 88e4 a2bd
00000100: 92d8 073d c4a5 463d c4a5 10bd e46a fd3c
00000110: 572e 433e e3c1 893e 2a88 a43d b507 313e
00000120: ec02 b9bd b9d0 42bd d13a babd e5e9 6e3d
00000130: f43b e2bc d04c d53d d1aa 023d 39bf 0dba
00000140: 24ca 3c3c 3f4d cc3d 7252 ac3d fd83 09bc
00000150: b2b3 17be 787c a8bd 0d47 86bd cc52 3cbd
00000160: a178 b4bd 92fe b83c 6f59 c13d 54d0 753e
00000170: 547f 9dbd 3d8c 2f3d 87ca 3cbd 5ef2 a33d
00000180: 6fee 6e3e 7f08 0e3e dcbd e13d 6a93 873d
00000190: b19c d3bc 6814 e8bc 6756 543b 8fe0 8abd
000001a0: 8647 b1bd f313 183d 42bc c6bd d00d 473d
000001b0: c310 3e3d 499c 3d3e 80b0 2dbe 166d 9c3e
000001c0: 42ce febc 2515 953d 4199 33bd 6e46 a33c
000001d0: cb7d 053d fcc9 373e 5193 7cbe d209 b53d
000001e0: 0701 d2bc 7cdb 473b d105 433d dbae 41ba
000001f0: 2368 bf3d 076c 8ebd d957 6dbb edd9 83bd
00000200: 17e3 0d3d 21f3 9f3d 0da1 d2bd 22b7 4abd
00000210: 03a0 fa3c b20f a33d bcc1 753d 3631 4dbd
00000220: 3966 c73d ec88 a8bd 6956 a23d c5db 9bbd
00000230: 974b 92bd 960a 1cbe b742 ed3c f087 873d
00000240: 69b0 2b3e b426 3fbc 821a 2ebe 684d 98bd
00000250: a498 3ebe a9c3 32be b49b 2cbe c1fc d1bd
00000260: 3466 3e3c 4c30 d4be f7b2 2bbd fc52 ce3b
00000270: 4da5 fdbb 5c4f aebc 2ac5 4abd 27ef 0cbe
00000280: 50b3 8bbd 3c43 37be f5a2 68bd 8e37 b0bd
00000290: 8f15 af3d ca6f b73d b4b2 35be 5612 933d
000002a0: 6231 313e 0426 723b c850 e0bc 137e 2f3e
000002b0: 1f10 553d db43 65bd 9780 53bd 1622 d9bd
000002c0: 869f fd3d f1d0 183e a0de 513d 178b d4bc
000002d0: 2a27 ff3d 4308 51be 6047 043c 5dc5 aebd
000002e0: 560c 83bd 594d 823d deec 9cbc 2d31 833c
000002f0: 073c f33d da2b 893d 2ace b3bd c106 06be
00000300: 6869 9f3d 9914 9a3c 670c 06be 5dbc abbd
00000310: 62ff b7bd 039d 19be 64c1 4f3d fea1 adbd
00000320: dbaf ac3d ba84 3f3d 7500 03be 7dbf 25be
00000330: e0d7 ac3c 1b48 2f3d a362 e03c 1afd 12be
00000340: 5e95 38bd 6026 23be c753 0b3e 8e60 ffbd
00000350: 8336 f13d 17f8 de3d 9cdc 453d 8b62 ca3c
00000360: 0e5e 9a3e 540d 633e e681 8bbc 4b24 20bd
00000370: 7181 c93d ccae 3cbd 2def 13be 9997 14bd
00000380: b03d abbd 4a50 05be ecba 263e 56a2 2f3c
00000390: 3be3 bc3d deb6 b93d 81f1 3dbd c06c 343c
000003a0: 1e51 203d 293b 723d 24c3 40bd 9a0c 18be
000003b0: 2c2a c13c 97a3 5bbe 8134 09bd 85db 543d
000003c0: ac09 27bd fb37 b23d b643 95bd 7cfa c5bd
000003d0: a569 8bbd 6871 37be 92ec aabd 89b2 933d
000003e0: 4f88 993e f318 dc3d 32fb af3d ed6f cf3d
000003f0: 134c b1bb fdae 6cbd 4e15 5abd 1555 533e
-0.007894148 0.09340129 -0.10045294 0.049836356 -0.06363774 0.106231414 0.022535142 0.05706379
-0.0046579977 0.12653589 0.14093415 0.0038917218 0.2856194 0.27179593 0.17050445 0.21100041
0.044270545 0.06766134 0.044811137 0.026866052 -0.094962776 0.05804163 0.24865827 0.19607134
0.2978184 0.21427599 0.16376056 0.19035883 -0.041228045 0.07248212 0.009146656 -0.0025921976
0.17312995 -0.0061777025 0.11355623 0.3581993 0.0057347184 0.072888196 0.10294964 0.012811922
0.20963061 0.20165265 0.28762683 0.1463305 0.15174188 0.00198885 0.16330042 0.45251617
-0.051303983 -0.09469039 0.008049313 0.030034471 -0.07418722 -0.06635243 -0.083064385 -0.10411483
-0.062364694 -0.009884854 -0.016174043 -0.042323954 0.039832413 0.06082645 -0.11582763 -0.07953745
0.033165522 0.04849793 -0.035314336 0.030934758 0.19060646 0.26905736 0.08033784 0.17288096
-0.090337604 -0.047562335 -0.090932496 0.058328528 -0.027616479 0.104150414 0.031901184 -0.00054072175
0.011522803 0.09975671 0.08414163 -0.008393285 -0.14814642 -0.082268655 -0.065565206 -0.0459774
-0.08812071 0.022582326 0.09440886 0.24005252 -0.076903015 0.04285835 -0.046091583 0.08005212
0.23333143 0.13870429 0.11022541 0.06619914 -0.025831552 -0.028330043 0.0032400133 -0.067811124
-0.0865622 0.0371284 -0.09703876 0.048597157 0.046402704 0.1851665 -0.1696186 0.30551976
-0.03110421 0.072794236 -0.043847326 0.019931044 0.03259067 0.17948145 -0.24665572 0.08839764
-0.025635256 0.0030495813 0.04761297 -0.0007388421 0.093460344 -0.06954198 -0.0036215691 -0.064380504
0.034640398 0.07810045 -0.10284624 -0.049491055 0.030593878 0.07961978 0.059999213 -0.05009576
0.09736294 -0.08229241 0.07926638 -0.07610277 -0.07143324 -0.15238413 0.028962476 0.06617725
0.16766514 -0.011666942 -0.170023 -0.07436639 -0.18612915 -0.17457451 -0.16856271 -0.10253287
0.011621047 -0.41443098 -0.04191872 0.0062965136 -0.0077406527 -0.021278076 -0.049504437 -0.13763104
-0.068213105 -0.17896742 -0.056796033 -0.08604346 0.08549034 0.08956869 -0.17743951 0.07181232
0.17303994 0.0036948929 -0.02738227 0.17137937 0.052017327 -0.055972915 -0.051636305 -0.106022045
0.12383942 0.14923455 0.051237702 -0.02594523 0.12458642 -0.20413308 0.008073658 -0.08533738
-0.06398837 0.06362409 -0.019155916 0.01601466 0.11876684 0.06697817 -0.08779557 -0.13088514
0.077837765 0.01880865 -0.13090669 -0.08385537 -0.08984257 -0.15001301 0.05072154 -0.08478163
0.08431979 0.046757437 -0.12793143 -0.16186328 0.021099031 0.042793375 0.027390784 -0.14354363
-0.045064323 -0.15932608 0.13606177 -0.12469588 0.117779754 0.10887163 0.048306093 0.024705192
0.30149883 0.22173053 -0.017029714 -0.03909711 0.09839142 -0.046065137 -0.14446707 -0.036277387
-0.08361375 -0.13018909 0.16282243 0.010719856 0.09223028 0.09068082 -0.046372894 0.011012256
0.03913986 0.05913845 -0.0470611 -0.14848557 0.02357968 -0.21449123 -0.033497337 0.051967163
-0.04078071 0.08702084 -0.072883055 -0.09666917 -0.068072595 -0.17914355 -0.083459035 0.07211787
0.29986808 0.10746946 0.085928336 0.1012877 -0.00541068 -0.05778407 -0.053242974 0.20637925

classifier.3.bias f4 [64]
00000000: da1c da3d 173b e03d e7b9 213c 8226 0a3e
00000010: e05c f93d 2213 ed3c 96f2 ae3c 8143 dfbd
00000020: 7a77 f03c 677b 13bd 2630 bebc dbad 41bb
00000030: a58c 0fbe 08f5 f83d 72bb 03bd 4491 afbd
00000040: a546 d53b 178e bcbc d0b9 743d 9b83 9dbc
00000050: fe85 6e3a b010 fa3c 0dfa 93bd 356e 7f3e
00000060: adff a83d 42aa 0fbc cdd3 09bd 1731 d93a
00000070: d7eb b1bd 1fc4 0cbc 69be 85bd 6c5e b9bc
00000080: 0a80 053d c875 7ebb 44ee cd3c 3bbe 2b3d
00000090: 7509 323e 3015 2ebd 70e7 a3bc 2a17 bd3c
000000a0: e3c8 043e 36f5 453d f4d2 193d cc34 383c
000000b0: fdcb 89bd 54ac d53b 04e2 8cbe 82f0 93bd
000000c0: c0cf b3bd b05a 88bc fed1 1d3d 8e7b acbd
000000d0: 89ac 523d fd56 033d fd70 313e d43f 4cbc
000000e0: 090f 8f3d e1a9 153e 3fa8 10bb 6c3b 103e
000000f0: 56ef 823d 8040 2c3e 7a3d 6fbd e7bb 003d
0.10650034 0.109487705 0.009870983 0.13491252 0.121759176 0.028939787 0.021355908 -0.10901547
0.029353846 -0.036006358 -0.023216318 -0.0029553089 -0.14018495 0.12156111 -0.032161184 -0.08572629
0.0065086656 -0.023016972 0.059747517 -0.019227793 0.0009098946 0.030525535 -0.07225428 0.24944384
0.08251891 -0.00876862 -0.033649255 0.0016570416 -0.08687561 -0.008591681 -0.065304585 -0.022628032
0.03259281 -0.0038827527 0.025138028 0.041929465 0.1738642 -0.042500675 -0.020007819 0.023082335
0.12967257 0.048329554 0.037554696 0.0112430565 -0.06728361 0.0065207873 -0.27516186 -0.072236076
-0.087798595 -0.016644806 0.038530342 -0.08422004 0.051434074 0.03206538 0.17328258 -0.01246639
0.069852896 0.14615585 -0.0022072939 0.14085168 0.06393306 0.1682148 -0.058408238 0.031429198

classifier.6.weight f4 [128, 64, 2, 2]
00000000: 041a e33a e07b 41bc 142b 04bd 8b1c 96bd
00000010: 3057 783c b8fe b93c 7a05 86bd 64cb 55bd
00000020: c374 66bd 5861 90bc c43c 9b3c b227 87bd
00000030: bca0 e93c 1be0 9abc 2e20 393d 2c3e ce3c
00000040: 9083 a13b a83f 18bd 9eb2 46bd ec6a d43c
00000050: 6483 f23c 4664 78bd 7488 bfbc b863 54bd
00000060: c6d0 d9bc f62a 1ebd d148 97bd 6b32 41bd
00000070: 4ea5 8dbd 7b26 89bd 86e8 1f3c 2d19 41bd
00000080: b929 7c3c b934 303d d587 17bd 21a7 8bbd
00000090: bff5 fa3c 2d5f 90ba a0dd 87bc 95f3 b23c
000000a0: 9c27 05bd 4cf7 d13c 9440 64bd 47ba 8dbd
000000b0: e066 9fbd 134e 693c 9dfe d4bc 20da 12bd
000000c0: 6194 b33c cf44 b4bc 316a c9bb 2c6f 90bc
000000d0: e2cf 673c afe8 c2bc e187 753c a0d9 8fbd
000000e0: 21f0 6e3c 9310 233d b089 103c 1612 563d
000000f0: e320 0f3c 1e3c 78bd 41da 9a3b d7eb 46bd
00000100: 697b 86bd 37fb 033b ab10 e4bc d350 93bd
00000110: 072e 063c da61 81bc 6b08 f43c 44c2 833c
00000120: 21fc 083b 45c8 873c 9298 7ebb ded7 d8bc
00000130: 67e9 8ebd cc31 363d 0bb7 2e3c 9018 19bc
00000140: f15f 3b3d bd6a 523d e2c7 14bd 9131 adbb
00000150: 542e 7bbd 20c8 093c f8f4 8b3c c46b 153d
00000160: 0c8c 133d b44a fc3b bbbf b7bc 318e 103d
00000170: fcc9 4bbc 8663 90bc 8955 3ebd 053c 393d
00000180: e7b4 1f3d b8f5 e3bb abad 2bbd 41d1 b43c
00000190: 19d2 233d 2c5e 05bd b6f8 493d 67a9 043d
000001a0: e1ed 193d 5ad6 1d3d dd98 153b 9cea c23c
000001b0: 70b3 a3bc 9758 51bc 41f4 743c 0a60 993c
000001c0: 1e8c 16bd 38f9 f7ba 6519 e43c c04d 4a3d
000001d0: 5a71 20bd bbd6 29bc 521f 113d 527d f6bc
000001e0: 28dd 0fbc 845d f9bc d856 09bc 78b7 fc3c
000001f0: 8a17 52bd e843 ac3c 8cc5 6c3d 0e1f 3ebd
00000200: b07d 9cbc 4c6c 9dbc 0027 6d3d 90fc 0c3d
00000210: 9af4 f5bc ac5c 053d b6a1 8d3c 2ad4 6fbd
00000220: 845b dbbc 0482 b4bc 201f 08bc 300c 063c
00000230: 92c0 76bd 7850 ad3c 805c 043c 2c13 4cbd
00000240: 84ab df3c 000e 4fba 104a 063c 4ced ad3c
00000250: 49e6 8e3c 7101 39bd eb6a a43c 2291 88bc
00000260: f889 3dbd a2df bdbb 2051 19bb 3b8a c6bc
00000270: 5cb3 043d b478 ea3c 9650 283d 0a7f 4dbd
00000280: 63ed a4bc 4680 90bd ff3b 34bb 6b0c 96bd
00000290: 69f4 13bd 9a3e 33bd b49c 013d fc56 7abd
000002a0: 3bf3 e23c 7067 7abb 580f 7ebd a094 a5bc
000002b0: 5033 133d 328e 86bc fabb 71bb 1807 a03a
000002c0: 2b48 4dbd 6da1 8bbd b2e2 c1bb b25d d0bc
000002d0: 0922 eebc cc76 9e3b aafd cfbc 4ea3 81bd
000002e0: f5e9 d13c 8884 c13c 254d b43c 1e9e 023d
000002f0: 9a90 63bd e066 3fbc acbc 41bd d40d 583d
00000300: 972d d7bc d0df 4dbd 60b9 51ba 8a3c 823d
00000310: 9644 60bd 444e a0bc a8e6 b33c 6065 43bb
00000320: f696 6abc 83d0 933b 52b8 9ebc 678d e03c
00000330: ad4b 85bb 34a7 91bc f671 243c 549b 9e3c
00000340: ff76 39bd 42dd 2c3c bf5e 963c 33d1 47bd
00000350: c778 553d 35ac 213d 671c 92bb df94 f83a
00000360: 2e65 c5bc bc26 86bd d4e4 163d 5542 c4bc
00000370: 65de d93b 819a e1bc 9f7c b5bc 8535 85bd
00000380: 3422 383d f1a7 323d 738a 4ebd ea52 863d
00000390: e014 fcbc 1f30 28bd 0ae9 88bd 1a75 2abc
000003a0: 2e59 71bd 17ab 2e3d 0d4f 96bc 7ea2 543d
000003b0: f728 c83c 9045 2c3d e1b5 32bd c9a1 473d
000003c0: cff8 4b3d d40b 2cbd 3c37 3bbd ad93 02bd
000003d0: 264a 98bd b312 a43c eea0 6c3c a369 673c
000003e0: 582f b6bc 1af3 69bd 4093 ea3c 00bc 38bc
000003f0: 55c6 7fbb 2e70 a2bc b550 fabc fed1 493d
0.0017326479 -0.011809319 -0.032267645 -0.07329663 0.015157506 0.022704467 -0.06544013 -0.05219592
-0.056263696 -0.017624542 0.018949874 -0.06599368 0.028519027 -0.01890569 0.045196705 0.02517613
0.0049290136 -0.037170082 -0.048510186 0.02592989 0.029603668 -0.060642503 -0.023380496 -0.05185291
-0.026588809 -0.03861519 -0.073869355 -0.047167223 -0.06916295 -0.06696793 0.009760028 -0.04714315
0.015390807 0.04301903 -0.036994774 -0.06818987 0.030634759 -0.0011014693 -0.016585171 0.021844665
-0.032508478 0.025630616 -0.05572565 -0.06920295 -0.07783294 0.014239806 -0.026000315 -0.03585255
0.021921339 -0.022005467 -0.006146692 -0.017631136 0.014148684 -0.023792593 0.014986009 -0.070239305
0.014583618 0.03981073 0.00882189 0.05226334 0.008735868 -0.060604207 0.004725725 -0.04856476
-0.06566507 0.002013875 -0.02783998 -0.0719315 0.008189685 -0.01579373 0.02978917 0.016083844
0.0020902234 0.016574988 -0.0038848263 -0.026470121 -0.06978112 0.044481084 0.010663758 -0.009344235
0.045745794 0.051371325 -0.036323436 -0.00528545 -0.06132348 0.00840953 0.017084584 0.036479726
0.03602223 0.007699335 -0.022430291 0.035291854 -0.012438294 -0.017625581 -0.04646829 0.045223255
0.03899088 -0.006956782 -0.04191367 0.022072436 0.039995287 -0.032560512 0.049309455 0.032388117
0.037580375 0.0385345 0.002282671 0.023793511 -0.019983023 -0.012777469 0.014950813 0.018722553
-0.03675472 -0.0018918877 0.02784414 0.049390554 -0.0391706 -0.010366137 0.03543026 -0.030089054
-0.008780755 -0.0304401 -0.008382522 0.030849203 -0.05129198 0.021028474 0.057805583 -0.046416335
-0.019102901 -0.019216679 0.05789852 0.03442055 -0.030023862 0.032559082 0.017289024 -0.058551945
-0.026777036 -0.022034653 -0.008308202 0.008181617 -0.060242243 0.021156535 0.008078694 -0.04982297
0.027303465 -0.00078985095 0.008196369 0.021231316 0.017443793 -0.04516739 0.020070514 -0.016670767
-0.046274155 -0.0057944814 -0.0023394302 -0.024235835 0.032397613 0.028622009 0.041092478 -0.050169982
-0.020132726 -0.07055716 -0.002750158 -0.07326587 -0.03612176 -0.043760873 0.031643584 -0.06111811
0.027703872 -0.0038208626 -0.06202635 -0.020212471 0.035937607 -0.016425226 -0.0036885724 0.0012209145
-0.050117653 -0.06817899 -0.0059169168 -0.025435302 -0.029068964 0.004835939 -0.025389511 -0.06329976
0.025624255 0.023622766 0.022009442 0.031889074 -0.055557825 -0.011682242 -0.047299072 0.052747563
-0.026266856 -0.050262272 -0.00080003403 0.06359203 -0.05475291 -0.01956857 0.021960571 -0.0029815063
-0.014318218 0.0045109405 -0.019375 0.027411176 -0.004067859 -0.017779924 0.010036936 0.019361176
-0.0452795 0.010550799 0.018355725 -0.048783492 0.052117135 0.03947087 -0.004458952 0.0018965265
-0.024096098 -0.06550357 0.03683932 -0.02395741 0.006648826 -0.027539494 -0.02215415 -0.06504349
0.044954494 0.043617193 -0.050425004 0.06558783 -0.030771673 -0.041061517 -0.06685074 -0.010403896
-0.05892294 0.042643633 -0.018348241 0.051912777 0.024433596 0.042058527 -0.043630484 0.048738275
0.04979783 -0.042003468 -0.045706972 -0.031879116 -0.07436018 0.020028448 0.0144426655 0.014124307
-0.022239372 -0.057116605 0.028634667 -0.011275291 -0.0039028127 -0.019828882 -0.030556062 0.04927253

classifier.6.bias f4 [128]
00000000: 6349 84bc b94b 143d 69d6 cabc 027e 4ebc
00000010: 9d85 8b3c f42d b0bd e79d d9bc e224 85bd
00000020: bc3e 0abe 3b5c 43bc ed9e 87bc f751 5cbd
00000030: 6c8c 3cbc 6044 5f3d d5cf 3fbd ba10 193c
00000040: 2ce8 273d ab47 64bc a65f f3bd a2f2 8f3c
00000050: ead9 c3bd fe29 0e3e 1dca 183d 5b03 0fbe
00000060: 12e2 19bd f5e5 91bd b02f 76bd e320 1cbd
00000070: 650b 0a3d 6bb2 0d3d d139 b8bd 36b1 303d
00000080: e9fa 1f3e a12c 013a 7123 ac3c d1f9 50bb
00000090: d645 25bd 1b4e e1bc 9b71 c6bb e3ca 91bc
000000a0: 4083 08bd a735 bebd f0ea 803c 1fa2 7bbd
000000b0: 7042 8abd 88f1 803d a3de 443e 8c26 d9bc
000000c0: de8f c5bc 4e1b 0bbd 62cc 09bd 75c0 5fbc
000000d0: 54bb b5bd 1ffa 993c 691a 8bbd de33 0d3e
000000e0: 8b71 ca3c 37a2 55bd 9d6d 0e3e 2c05 4ebd
000000f0: e3cb 6cbc 4ef4 a9bd 0a0b 33bd 2096 45bb
00000100: 8e5d 123e 3760 8bbc 9e75 9dbd 4f7f 8cbd
00000110: 3797 a3bb 46c4 dabc 70a8 4d3d ff84 a1bd
00000120: 951b de3d 0012 953d f8b1 793d 7408 11bd
00000130: e177 c33c a7c2 f13c 12a3 23bd 1202 09bd
00000140: f58d 8cbd 27d5 a2bd f10e 6abd babc 87bb
00000150: d59d aabd 7a3c babd 5efb 643d b215 bc3c
00000160: 7b16 eb3d 2cd8 a73c ff31 3c3d cda3 9abd
00000170: e136 cf3c a060 a7bd 84b6 c9bc f1bd 13bd
00000180: b0e0 1b3e 3b1b 143e 72c1 0bbe 8f98 65bd
00000190: 93f9 9bbd b0de 243d f298 06b8 3c98 b83b
000001a0: b3a4 0ebc 1d65 f3bb 20fd e03b 44d2 693a
000001b0: 1e01 8ebd 45c6 a53d 3171 073e 0304 233e
000001c0: 6627 f33c 00fd 163d 30d8 37bc f577 c13c
000001d0: 0f47 b3bc 37e7 80bd ddc0 103d 670c ab3c
000001e0: 6300 59bc 53cc d03d 3887 82bb fae0 7bbc
000001f0: a76e 80bd 03b5 eebc 9087 c73d 555e f3bc
-0.016148275 0.036205027 -0.024760442 -0.012603285 0.017031485 -0.08602515 -0.026564552 -0.065011755
-0.13500494 -0.011923845 -0.016555274 -0.053789105 -0.011508089 0.054508567 -0.046829063 0.009342367
0.0409929 -0.013933103 -0.11883478 0.017571751 -0.09563048 0.13883206 0.037302125 -0.13966124
-0.037569113 -0.07123939 -0.060104072 -0.0381173 0.033702273 0.03459398 -0.089954026 0.04313775
0.15623058 0.00049276097 0.021012994 -0.0031887183 -0.040349804 -0.027503064 -0.0060560233 -0.01779694
-0.033328295 -0.09287577 0.015737027 -0.061433908 -0.06750953 0.062960684 0.19225554 -0.026507638
-0.024116453 -0.033961587 -0.03364218 -0.013656725 -0.08873621 0.018796025 -0.06792147 0.13789317
0.024712345 -0.052156653 0.13909002 -0.0502979 -0.014452907 -0.082985505 -0.0437117 -0.0030149296
0.14293501 -0.017013652 -0.07688449 -0.0686022 -0.0049923914 -0.026704919 0.050209463 -0.07886695
0.108451046 0.07278824 0.06096074 -0.035408452 0.023860874 0.029511763 -0.039950438 -0.03344924
-0.06863014 -0.07950812 -0.057143155 -0.004142371 -0.08330885 -0.09093566 0.055903785 0.022959564
0.11478897 0.020488821 0.045946117 -0.07550774 0.025294723 -0.08172727 -0.024623163 -0.036069814
0.1522243 0.14463513 -0.13648012 -0.056053694 -0.07615962 0.040251434 -3.209053e-05 0.005633382
-0.00870626 -0.007427825 0.0068661124 0.00089195766 -0.06933807 0.080944575 0.13226773 0.15919499
0.029681873 0.036862373 -0.011220977 0.02361677 -0.02188447 -0.06294101 0.03534018 0.020879937
-0.013244721 0.10195222 -0.0039834045 -0.015373463 -0.06271105 -0.029139047 0.09742653 -0.029708067

classifier.8.weight f4 [32, 128, 2, 2]
00000000: 0275 06bd 16a3 223c 2a0b 09bd ca50 023c
00000010: 73e7 103d 3cb8 09bd 4557 293d fae9 61bc
00000020: 2668 eabd c356 e9bc 4709 d1bd effb 46bb
00000030: 5d9f 33bd 4fd6 12bd 2e44 a43c c4cf 07bd
00000040: 14b9 febb 69ba 073d 745d 6bbb c4ce ae3c
00000050: d44d c0bc 83e2 e73b 61c9 4fbd 0617 bf3d
00000060: 822b 74bc 92af d53c 5304 5cbb e6be acbb
00000070: 37cc 2fbd 5bae 9cbd 967f 7dbd b751 12bd
00000080: 1af5 a1bd ff4f ed3b f1ea c7bd 2732 383e
00000090: dd06 87bd 6364 acbd f539 c9bd e104 b1bd
000000a0: f4fa 133c c35f 9f3c 41dc 793d fdd3 35bd
000000b0: 1fa1 fa3c bcaa 17bd d64e 33bd 6cad ebbc
000000c0: f4a1 2cbc 70e4 5b3c 1cd1 cb3c 571e 23bd
000000d0: a431 2f3d d391 08bd e950 2e3d b408 79bc
000000e0: e34e 19bd 2caa 5cbd 27df 35bc f19d bbbd
000000f0: 92a7 c43c 601f f7bc eb0b ff3c 3c34 283d
00000100: 9cf5 ecbd f286 fdbc 4fae 66bd ed02 403d
00000110: daac 6abc dccf 163d bae8 273d f5a4 4e3c
00000120: c880 4ebd 9a0a f83b cd85 e0bd 52e6 c03d
00000130: 91bd 21bc e408 403a 93e4 27bd 0e9b 1c3c
00000140: 8ef9 a43c 3ca2 203d dd51 8dbc 506b 03bc
00000150: b55a 11bc 5e97 b53c e28e 8ebd 3756 9abc
00000160: 8a73 1ebc f1a4 89bb 6110 a13c 36e5 be3a
00000170: 1e30 603b 0e5f 30bd f946 a2bd 135c 19bd
00000180: 8c59 96bb 67c7 e83c 1f75 cf3c 8007 dbbc
00000190: e97b 6c3c 752b 4c3a 9c43 42bc 1557 1bbd
000001a0: 2311 ebbc 060f 033c f841 b9bc 5dc2 12bd
000001b0: 968b a2bc 399d b93b c128 123d 49c0 2dbd
000001c0: 24fc 1d3d 2a0f 123c 12c9 f0bc 9e6e 093d
000001d0: 0f9e 1e3d 6efe b43c e40e 1cbd cae0 2dbc
000001e0: 359d 0c3d bc53 5ebd ef66 fcbb cbb4 50bd
000001f0: 89ec 0a3d 15fd 193d 38b9 4a3c 344c 76bc
00000200: 32d8 173c 99ac f3bc 1204 e53c d356 f73d
00000210: 1c35 cc3b b3e9 63bc 10c4 bc3c cc61 8a3c
00000220: f916 033d d047 1b3d 696b 53bc 3723 b2bc
00000230: 208a 0ebd 7bf7 213d 5676 01bc b1d6 02bd
00000240: 5139 3a3c 879b f63c 53d0 cf3c f260 923c
00000250: ec56 253c 8439 f63c a7bf 17bd ffe4 e5bb
00000260: 4dcc acbc cb63 ac3c b642 b9bc 82ea 28bd
00000270: c421 2b3d 3002 5fbc 2511 9abc f26c 283d
00000280: f530 9fbd 6f07 f4bc 7012 29bd 8328 5bbd
00000290: 9cc8 fabb 9844 1f3d 85b6 9ebc fc60 f63c
000002a0: 4797 2c3d d7b8 d33c 586f 02bd fee8 d2bb
000002b0: c115 58bb d2cc e9bb 44ee 34bc fdfa c43c
000002c0: f2a0 8bbb 24c2 cfbd 02e0 b5bd e891 afbb
000002d0: 3f2b 49bd 68ac 57bd 3caa cebb 814d 8ebc
000002e0: 6665 9dbd b956 2cbd 5b7d a5bc 57db 1c3d
000002f0: d358 4f3c aac5 34bd 0772 d4bc 783b 0ebd
00000300: 0b0b 9e3c c427 a8bd 7973 17bd b50f 9abd
00000310: 98dd 0e3d 7536 cabc 20ef e1bb f7b3 163c
00000320: 789b 84bd 4f48 a0bd abe6 82bd 1ca6 fdbc
00000330: 973a 8dbc 457b a03c 397f e8bc ec2d 883c
00000340: e06c 1ebd ec5b 57bc 17ff 91bc 3709 1fbd
00000350: fd11 473c 3f3b 66bd 7006 783d ede7 35bd
00000360: 94c2 2d3d c3cb d7bd a5f2 58bc 6199 113d
00000370: 2692 85bd 1502 84bb e8d9 763c 9926 e4bc
00000380: 410d a53b fb43 20bd 4edc 02bd 02c1 333c
00000390: 5877 1e3d 18ab 9bbc 7225 2b3c fc9d 19bd
000003a0: e72f ccbd 9a70 33bd 1530 c6bd d6c8 b43c
000003b0: 7faa 0cbc fd6f df39 1280 f53c 3e16 293d
000003c0: 5150 c93c 0790 b1bc 5a57 d83c 33bc b33c
000003d0: 7495 b73b 0801 82bd 39e0 08bd c316 8bbd
000003e0: b2bb 823c ef01 a23b 1444 25bc c0ec 9c3b
000003f0: 170c 05bd 15e7 0ebd d38b b03c da21 8dbc
-0.03282643 0.009926578 -0.033457913 0.007953832 0.035376977 -0.033622965 0.041342992 -0.0137886945
-0.11445646 -0.028483754 -0.10206848 -0.0030362566 -0.043853153 -0.03584891 0.020052042 -0.033157125
-0.007773528 0.03313676 -0.0035913857 0.021338828 -0.023474611 0.007076563 -0.05072916 0.09330563
-0.014902951 0.026084695 -0.0033571913 -0.0052717803 -0.042919364 -0.07650443 -0.061889254 -0.03572246
-0.079080775 0.0072422023 -0.097616084 0.17987882 -0.06593106 -0.08417585 -0.098255076 -0.08643509
0.009032 0.019454842 0.061001066 -0.04439162 0.030594407 -0.03702806 -0.043776356 -0.028769217
-0.0105366595 0.013421163 0.024879985 -0.039823856 0.04277195 -0.033342194 0.04255763 -0.015199829
-0.037428748 -0.053873226 -0.011100567 -0.09160984 0.024005685 -0.030166328 0.031133613 0.04106544
-0.11570284 -0.030948136 -0.056318577 0.04687779 -0.014323438 0.036819324 0.04099343 0.012612571
-0.050415784 0.007569623 -0.109630205 0.0941893 -0.009871856 0.00073255436 -0.04098947 0.009558452
0.020138528 0.03921722 -0.01725095 -0.008021191 -0.008871724 0.022166904 -0.069608465 -0.018839939
-0.009671101 -0.0042005708 0.01966113 0.001456416 0.0034208368 -0.0430594 -0.07923693 -0.037441324
-0.0045883115 0.028415395 0.025324402 -0.026736975 0.014433839 0.0007788458 -0.01185694 -0.037924845
-0.028694695 0.007999187 -0.022614464 -0.03582989 -0.01984195 0.0056644944 0.035683397 -0.042419706
0.03857054 0.008914748 -0.029392753 0.03355276 0.038724955 0.022093978 -0.03810014 -0.010612676
0.03432961 -0.054279074 -0.0077027003 -0.050953668 0.033916984 0.037594873 0.012373261 -0.015032817
0.009267854 -0.029745387 0.027956042 0.12077107 0.006231917 -0.013910699 0.023042709 0.016892336
0.03200433 0.037910283 -0.012904027 -0.021745307 -0.034799695 0.039542656 -0.007901749 -0.031943027
0.011366204 0.030103458 0.025367891 0.017868493 0.010091525 0.030056722 -0.03704801 -0.007015824
-0.021093512 0.021043679 -0.022614818 -0.04123927 0.04178025 -0.013611361 -0.018807003 0.041119523
-0.0777301 -0.0297887 -0.04127735 -0.05350543 -0.007653309 0.038883775 -0.019374141 0.030075543
0.042136457 0.025844974 -0.031844467 -0.0064364662 -0.003297195 -0.007135012 -0.011043135 0.024045462
-0.0042611295 -0.10144451 -0.08880617 -0.0053579696 -0.04911351 -0.052654654 -0.0063069146 -0.017370941
-0.07685356 -0.042074893 -0.020201376 0.038295116 0.012655455 -0.04413382 -0.025933279 -0.034724683
0.019292375 -0.0821071 -0.036975358 -0.07522527 0.034879297 -0.02468417 -0.006894961 0.00919818
-0.06474966 -0.07826292 -0.06391653 -0.030962996 -0.017239852 0.01959003 -0.028380977 0.01662346
-0.03867805 -0.0131444745 -0.017821832 -0.038827147 0.012150285 -0.056208845 0.060553014 -0.044410635
0.042421892 -0.10536911 -0.013241445 0.035546664 -0.06522016 -0.0040285685 0.015066601 -0.027850436
0.0050369804 -0.03912733 -0.03194838 0.01097131 0.038688034 -0.019002482 0.010445939 -0.03750418
-0.09970074 -0.043808557 -0.0967714 0.022068422 -0.008585571 0.00042617312 0.029968295 0.041280977
0.02457443 -0.021675123 0.02640884 0.021940326 0.005602533 -0.06347853 -0.03341696 -0.06791451
0.01595864 0.004944078 -0.010087032 0.004788965 -0.032482233 -0.034888346 0.021551048 -0.017228056

classifier.8.bias f4 [32]
00000000: d4d7 b03c 518b e53d 8ebc debc d925 06bd
00000010: 270e b13c a895 2e3e 03cd e2bc 4ad7 24bd
00000020: 0d3e 08bc 765c 0b3e 9888 11bc f23f 07bd
00000030: 323d 8c3d 4038 7a3b 57e9 26bd f11f 42bd
00000040: 1c8c 66bc 474e ddbc 5536 e8bd 2af4 e53c
00000050: a237 6dba 6083 713b 2d8f f43d 74d9 53bd
00000060: 42d5 71bd 3ffa 023c 8df8 98bd 6532 143d
00000070: 233a 6f3a 4eaf 793c dc75 2f3d 559e 013e
0.02158729 0.11208213 -0.02718952 -0.032750938 0.021613194 0.17049277 -0.027685648 -0.04024438
-0.008315575 0.1360949 -0.008882664 -0.033019967 0.068476096 0.00381805 -0.040749874 -0.047393743
-0.014071491 -0.027014865 -0.11338488 0.028070528 -0.00090491225 0.0036851987 0.11941371 -0.05172105
-0.05904127 0.007994234 -0.07469282 0.036180872 0.00091257895 0.01523955 0.04283701 0.12658055

classifier.10.weight f4 [1, 32, 2, 2]
00000000: e7bc adbd 0217 5c3d 0861 38bd 7b1e 3abd
00000010: da19 183e 0caf f7bd 22dc 89bd 6885 b23d
00000020: 570e 353d 859c 123b 6468 4bbd b76d 9f3d
00000030: 3d68 29bd 2d3e 1abd f7ae a73b c3de 183c
00000040: 8bc0 423d 6ea7 98bd fbc4 923d 96e9 c5bb
00000050: 3d1c 2d3e 6ac2 c5bd c84e 06be fbcc 903d
00000060: af53 b43b e550 fd3b c188 90bc f143 67bd
00000070: 19e7 80bd c477 693d e177 bf3b 5858 54bc
00000080: 385d 163d 65ad 6dbd 0a0b 4cbc 80c7 e0ba
00000090: bc37 fb3d 95bd 03bd 33d8 29bc c2fe fbbc
000000a0: a4d0 5b3d e77b 32bd ce6f 98bd ea9c 883d
000000b0: c1ed 97bd 82d2 4dbd c696 e6bc 24ef 963a
000000c0: 240e d6bd dac7 b33d 3dc6 813d a6c7 98bd
000000d0: 1eaa 03bd 51de aabd f030 ffbd 882d 0c3d
000000e0: d434 acbd 1d85 623b e38a 423d 9e02 67bc
000000f0: 5978 003d eb80 16bc ae4e aa3a ab02 97bc
00000100: 37bc 1fbd b8bd 3c3d 6293 563d bff8 30bd
00000110: c19c 1a3a e2ac bb3d 89d7 02bd 402b 80bd
00000120: e9b6 a7bd e1ed 07bd b7b4 853d dd83 193c
00000130: fa88 693c 67fb ca3c 9b54 c43b b371 64bd
00000140: d11b 8bbd 55c1 96bd 0305 18bc ee75 5abd
00000150: 2a00 8dbd 1082 273d fa2a 18bc fb91 6ebd
00000160: b7d3 07be f8e3 aa3d 9ce1 173d 6204 51bd
00000170: 505e 253d f138 023d fb83 39bd c572 273d
00000180: 160a 43bd 7728 cabc 5d6e 9e3c 2a49 babc
00000190: abec 98bc d03d 4d3d 2094 813d dada bdbd
000001a0: 2de4 4fbd 7ca1 ec3c b630 d13c 81f1 8b3c
000001b0: ad25 1c3e f401 99bd 1fa9 b43d 1b8c 7cbd
000001c0: d91d 91bd c6d3 0fbd b5f6 a13c 2d24 983c
000001d0: 98b8 89bd f4fa 983d 876d 853c b564 1c3d
000001e0: 0ebd bdbd 5c0e a23d 3d88 553d 97d6 043b
000001f0: fd1b 0e3e d61d 093b b98a 89bb 7fba abbd
-0.08483296 0.05373288 -0.04501441 -0.045439225 0.14853612 -0.120939344 -0.0673144 0.087168515
0.04420313 0.0022371125 -0.0496601 0.07784598 -0.041359175 -0.03765695 0.005117293 0.009330454
0.047546905 -0.0745381 0.07166477 -0.0060398085 0.16905303 -0.09656222 -0.1311599 0.07070347
0.00550314 0.0077305906 -0.017643334 -0.05646128 -0.062940784 0.056998983 0.005843148 -0.012960516
0.036709994 -0.05802669 -0.012453804 -0.0017149299 0.1226649 -0.03216322 -0.010366487 -0.030761126
0.053665772 -0.043575194 -0.074432 0.06670554 -0.07418395 -0.050249584 -0.028148066 0.0011515361
-0.10451916 0.08778353 0.06336639 -0.07459955 -0.03214466 -0.08343185 -0.12460506 0.03422311
-0.08408514 0.0034564205 0.047495734 -0.014099745 0.031364772 -0.00918601 0.0012993419 -0.01843389
-0.038997855 0.046079367 0.05238665 -0.043205973 0.0005897992 0.09163834 -0.03194383 -0.06258249
-0.08189184 -0.033185843 0.06528609 0.009369818 0.014253849 0.024778081 0.005991531 -0.055772495
-0.06792415 -0.07361094 -0.009278539 -0.053335123 -0.06884797 0.04089552 -0.00928759 -0.058244687
-0.13264357 0.08344263 0.037080392 -0.05102957 0.040373147 0.031792585 -0.045291882 0.040880937
-0.04761704 -0.024677498 0.019339735 -0.022739965 -0.01866754 0.050107777 0.06327081 -0.09270258
-0.050754715 0.028885596 0.025535922 0.017082931 0.15248747 -0.07471076 0.0882132 -0.061657052
-0.07085771 -0.035114072 0.01977096 0.018571937 -0.067246616 0.074697405 0.016287578 0.03818198
-0.09264575 0.07912895 0.05213188 0.0020269507 0.13877864 0.0020922325 -0.004197445 -0.08385181

classifier.13.weight f4 [220, 354]
00000000: 25a8 abbb b196 893b 144c a43b 4960 403d
00000010: 3e2d 7abc 596d 99bc 4618 5bbd a3d3 fbbb
00000020: 0f9e 57bd 82b7 3fbd d7cf 7bbd dac7 e5bc
00000030: f07d f5bc f271 f93c 30ae cfbc 2560 133d
00000040: 2a02 85bb 3091 de3c b2c5 803c cb67 433c
00000050: bc47 763c dd69 0a3c 5192 a7ba 61d4 863b
00000060: 5fa0 4fbd 5ac5 98bb f9c9 c53b 8eb8 14bd
00000070: cd94 bc3c 75b5 41bc a06f 97bd afa9 3fbd
00000080: 2f3d 81bc 75e1 9ebc a766 3dbd 924f 08bd
00000090: 2f7b 1ebd afa5 fb3c 0118 70bb 6a30 a5bc
000000a0: 8f24 cfbc 793e 08bd f4db 25bd 204b ccbc
000000b0: 962f 75bd e8bf 2abd 37d1 503c 720e 61bd
000000c0: 32d9 d9bb 070b 03ba c214 2e3d e680 babc
000000d0: 477c 21bd aa72 79bd a532 0dbd aa2c a13c
000000e0: d0d1 43bd 9e58 163d 9cb7 203d 71fa b53c
000000f0: fb04 29bb fc02 52bd 8286 d13c 8c03 deba
00000100: 9297 bcbc d355 7c3c 5e0c 0a3b 730f 40bd
00000110: 5a9c 0dbd b0f9 f2bc 91f3 153c 78ff 41bd
00000120: 69b7 bdbc 49d7 db3c 8f88 b73c c1f4 dcb9
00000130: 1e40 5abd 33de bfbc 8fcf fabc dcbc 773a
00000140: 3e89 ec3c eae2 26bb f308 dbbc 35e2 90bc
00000150: 9a8a 0a3d 8389 febc 5668 d73c aee5 4fbd
00000160: 5670 8fbd 2865 5ebd 51a9 6ebd 1d5f 2d3d
00000170: bdca c3bc 767c b83b d6f0 ddbb a5f0 0d3b
00000180: 6db1 e5bc ad65 d23c c46d 123d adcb 443d
00000190: d8bb bf3c 26d2 1bb8 0d0e 84bd 5808 29bd
000001a0: 7976 37bd a2a9 bcba 1742 dcbc 9c33 7dbd
000001b0: a821 11bd 4d73 1fbd dd97 0cbb a9d0 c73c
000001c0: 1f18 09bc 004b a73b 7cdf 093d 4e09 27bb
000001d0: 8214 8bbd 7bed a5bc b92c 5dbc e4a6 dc3c
000001e0: 3120 babc b04b 613a d5d8 203d ab09 52bc
000001f0: 18b8 d13c 6d3e 4ebd f246 cbbc 4f71 843c
00000200: ec6c dfbc 19b3 acbc 8d75 f4bc 918c 35bd
00000210: 28c9 6c3a 9a7d 0ebd 4314 ad3b 9a44 44bd
00000220: fb9f 5ebb f8f0 afbc 6a41 44bd cc8e bcbc
00000230: 7081 bcbb 9af9 ad3a 93e7 473d 8732 be3c
00000240: 341d 23bd df2c 0abc c0b6 82bd bfad 8cbb
00000250: ff02 bd3c a59f dc3c 4f91 66bd b697 1b3c
00000260: 334c 08bc 9e08 c93c 5a60 2a3c f4fc 79bd
00000270: 6249 49bd cdc4 d93c 6541 0abd 9ade 003d
00000280: dadc 4bbd 82f9 a43a 0b54 edbc c339 7fbd
00000290: 10aa 77bc 395f 333b 29dd 58bd 0c3d 85bc
000002a0: aeeb a23c 8e6a ff3c 403c 1fbd ba19 2ebd
000002b0: de47 7f3b 2c0a 043d c383 a9bc 088d cfbc
000002c0: 053f dfbb ab1e 6dbd 89c6 8cbb 37ad 8dbd
000002d0: 6559 78bd ffbc f43c 8353 4cbc bf8d 1fbd
000002e0: 3b1d e63c 222c 62bd 2202 68bd 76e7 88bc
000002f0: c46b 9a3a 8bcb e1ba 2197 7ebc a0bf 833c
00000300: 159b ccbc 9560 35bd e5ae 773c efbf 50bd
00000310: d1fb fa3c 08f3 34bd b019 b93c c270 87bd
00000320: 5b86 1bbc 593e 003d 8c52 c03c fdc0 a33c
00000330: fc32 34bd 0d4f 073b 43d8 1abd 0dab 5bbd
00000340: 311a b33c ab02 29bd fe5d 26bc d946 16bb
00000350: a3aa 8039 18f5 11bc 26d7 163d d715 6a3c
00000360: 7bea 9cbc 0161 48bd 9844 c63c 581f b5bc
00000370: 6c72 79bd d630 15bd d0ec 63bd 12d4 23bd
00000380: c94d 18bb c0b0 053c fb14 1dbd 943f 57bd
00000390: 1c5d 6dbc a4e7 4bbd 7999 1cbc baad c3bc
000003a0: efc6 0abd cddf 91bc d61e 18ba b4b0 63bd
000003b0: 7141 f43c 1ce7 adbc 2081 3bbd 2774 203c
000003c0: d52f 27bd 602d 353c d24b 583b 9477 c9bb
000003d0: cb3f 48bd b39d 383d 7950 37bd aba4 83bc
000003e0: 3f91 043d 4640 73bd e6c5 17bd 9f3e 8a3b
000003f0: 800a 31bd 1a5b 60bc f13b 323d f693 32bd
-0.0052385502 0.004198872 0.005013952 0.046966825 -0.015269576 -0.018728899 -0.053489946 -0.007685141
-0.05264097 -0.046805866 -0.06147751 -0.028049398 -0.029967278 0.030449841 -0.025351614 0.035980362
-0.004059096 0.02716884 0.015719268 0.011926602 0.015031751 0.008448091 -0.0012784695 0.004114673
-0.05069005 -0.004662198 0.00603604 -0.036308818 0.023020172 -0.011823048 -0.07394338 -0.046792682
-0.015776245 -0.019394616 -0.046240475 -0.03327901 -0.038691696 0.030718653 -0.0036635401 -0.020164687
-0.025285987 -0.033262704 -0.040492967 -0.024938166 -0.059859835 -0.041686922 0.012745193 -0.054945417
-0.006648206 -0.00049988966 0.042500265 -0.022766542 -0.03942516 -0.060900368 -0.034472127 0.019674618
-0.047807515 0.036705606 0.039237604 0.022214146 -0.0025790322 -0.051272377 0.025576834 -0.0016938313
-0.023021493 0.015401321 0.00210645 -0.046889734 -0.034572937 -0.029660076 0.009152309 -0.047362775
-0.023158746 0.026836054 0.022403983 -0.00042144026 -0.053283803 -0.023421383 -0.03061655 0.00094504445
0.028874036 -0.0025464841 -0.026737666 -0.017685989 0.033823587 -0.03107143 0.026294868 -0.05075615
-0.07003848 -0.05429569 -0.05826694 0.042327035 -0.023900384 0.0056300713 -0.0067730946 0.0021658328
-0.028038705 0.025683248 0.035749212 0.048045803 0.023405 -3.7150596e-05 -0.064479925 -0.041267723
-0.04479072 -0.0014393816 -0.026886983 -0.061816797 -0.035432488 -0.03892832 -0.0021452822 0.02439149
-0.008367567 0.0051053762 0.033660397 -0.0025487724 -0.06791021 -0.020254841 -0.013499432 0.026935048
-0.022720428 0.0008594347 0.039269287 -0.012819688 0.025600478 -0.050352503 -0.024814103 0.016167311
-0.027273618 -0.021081494 -0.029841209 -0.044323508 0.000903266 -0.03478775 0.0052819564 -0.047916986
-0.0033969868 -0.021477208 -0.047913946 -0.02301731 -0.005752735 0.001327324 0.04880483 0.023217453
-0.039822772 -0.00843355 -0.06382513 -0.004293173 0.023072718 0.026931593 -0.05629092 0.00949662
-0.008318949 0.024540242 0.010398949 -0.06103225 -0.04914225 0.0265831 -0.03375377 0.03146229
-0.049771167 0.0012586566 -0.028970739 -0.062310945 -0.01511623 0.002736999 -0.05294529 -0.016264461
0.019887771 0.031178739 -0.03887582 -0.042505004 0.0038952748 0.032236263 -0.020692712 -0.025335804
-0.0068129324 -0.057890575 -0.004296128 -0.06917804 -0.06063213 0.029875277 -0.012471083 -0.03895354
0.02809011 -0.05521787 -0.05664266 -0.016711932 0.0011781384 -0.0017226798 -0.015538962 0.016082585
-0.024976293 -0.04428156 0.015117382 -0.050964292 0.030637654 -0.044177085 0.022595257 -0.06613304
-0.009492482 0.03130946 0.023476861 0.019989485 -0.043993935 0.0020646483 -0.0378039 -0.053629924
0.021863075 -0.04126231 -0.010154245 -0.0022930412 0.00024541197 -0.008908533 0.036826275 0.014287434
-0.019154778 -0.048920635 0.02420263 -0.022109672 -0.060900137 -0.036423527 -0.055645764 -0.039997168
-0.0023239723 0.008159816 -0.038350087 -0.052550867 -0.014487531 -0.049781457 -0.009558075 -0.02388655
-0.033881124 -0.017806912 -0.0005802935 -0.05558844 0.029816361 -0.021228366 -0.04577744 0.009793318
-0.0408171 0.0110581815 0.0033004177 -0.006148288 -0.048888963 0.04507227 -0.04475448 -0.01606973
0.03236508 -0.059387468 -0.037053965 0.004218891 -0.043222904 -0.013693595 0.043514196 -0.043598138

classifier.13.bias f4 [220]
00000000: c454 48bc e793 283d 834f 8dbd 4864 adbc
00000010: 6a0c 1c3d 3aed 07be b834 ff3d 1113 8e3e
00000020: 07bc 0f3e 496a 6c3d 31d3 bfbc 6e35 4ebd
00000030: 76e1 523e 1a9b a73d 2d90 c33c d2c7 f03d
00000040: 2956 70bd bf49 d5bc 9231 483d 5dcf fa3d
00000050: f5a4 043e c7cf 4b3e 1efe b4bd bb0c eabc
00000060: 0bb7 ebbc 700a 823e bd03 80bd ac71 e43d
00000070: 9535 3d3b cbeb 51bd edfa 8bbb 78da e13d
00000080: 5d4d 313d 66ba 143d bdec 9dbd 18ea c7bd
00000090: 3bd9 03bd 821c 0e3c f186 023b 29d4 a9bd
000000a0: 3516 2bbd 1d90 9ebd 962d bebb 2dbc 3fbd
000000b0: b3cb 89bc 9092 4bbd c523 eb3c 12f3 45bd
000000c0: 18d4 ab3c bf1f bb3b 869f 993c 0bc9 c4bc
000000d0: 97d8 bfbd b438 6e3c e20a d0bc ce93 4c3a
000000e0: d672 10be 1247 19bd e80a 66bc 5b4b 193d
000000f0: f479 473e 84b4 2d3c 324f 693c ad42 053c
00000100: 5a57 c9bb fa27 46be 38e4 23be a08e 643d
00000110: 01fc 0e3d a777 393d 9e76 463c 0b49 74bd
00000120: 8860 0abd 7be7 75bd 6256 26bd 2fdb f13d
00000130: 7189 783d 151c 52bb adba 283c f76b 09bd
00000140: ca26 b2bd 0319 8ebd 3f01 abbc 3e2b 6bbd
00000150: 1334 b8bd f850 57be 18a1 11bd df55 813c
00000160: 1660 35bd fdec e43d cf79 d33d f557 3c3e
00000170: bb8e b1bb 4593 78bd ed84 5e3d 31c8 023d
00000180: db8a a03c a48f 6fbd a71d 993c e44f 813c
00000190: 49a9 d93c 8d6e cc3c 3417 e33d 36b8 433c
000001a0: 2d2c 8bbc fa34 ffbb 5a1a 5bbc 64f5 30bc
000001b0: bf58 663e 4f16 043e a2b7 213d 85e7 ecbc
000001c0: 9a91 32bd 22cb 16bd edf6 20ba 93a7 a03d
000001d0: 6d2a a4be 6ebb 6eb9 46bd 9f3d b85f 9a3c
000001e0: 4dcd 24bc e7c4 cebc 0075 92bd 80f5 a1bc
000001f0: 58f5 85bd d802 0ebd 1ad6 5ebc c77b f83d
00000200: 7696 203d 8504 45bd 8909 0dbd 10b0 303c
00000210: ac06 983e 8bbf 873e dae8 c3bc 5155 993d
00000220: f4af 07bd e54d 023d ab1e 343e f0cd 2fbe
00000230: ed18 813d 93a4 4bbd 6f61 94bd f4ad 23bd
00000240: bc98 4cbe c5e2 35bc ad8b f5bd 3061 3ebe
00000250: 3416 8cbb 8bc6 853d 29ab 973d 67f0 143c
00000260: 339a 933b 627c 933d 2e1c 86bd 179d 0fbb
00000270: c789 1bbd b3b7 6fbd 792d 1dbe 7b33 68bd
00000280: 3d41 253d e752 c0b9 28ce eb3c 4877 d73c
00000290: 05da be3d c37c fbbc 778b 233d a424 8b3e
000002a0: 4ec5 60be 915b 8d3e 82bc a63c 027f 943d
000002b0: 3f6d 953e 43ef 9d3c a80a 05bd bf39 8cbd
000002c0: 4e3d 26bc 56f5 acbd 08ce 09be e247 4ebd
000002d0: 0772 c73c cfb5 9bbc 0247 c2bc 5103 f7bc
000002e0: 2a91 b0ba 73b7 e43c 39df 103d 14b0 bcbd
000002f0: 9259 5f3d f1f5 f03a 014c 0cbd 3075 ba3c
00000300: d38c 863e 97c7 ea3c e32c 32bd 44b3 0bbd
00000310: 789b c9bd 3694 a93c f613 67bd e1f0 2f3e
00000320: c0e6 473c de18 223e 6369 97bd 1a12 4e3a
00000330: d9b8 6cbd ba01 e63b 67f8 e6bc 5792 8b3e
00000340: d97c bcbd d274 7e3d fdd0 49be 1676 043e
00000350: 7b30 053d 80e7 343d 4bc4 063e 28f2 47be
00000360: f24e 3b3a a189 0bbd 0c6a 273e fb3b 49bd
-0.012227241 0.041156676 -0.06899931 -0.021165982 0.038097776 -0.13274089 0.12461227 0.27748922
0.1403657 0.05771855 -0.023416134 -0.050343923 0.20593819 0.0818388 0.02387246 0.11756863
-0.05867592 -0.026036141 0.0488754 0.12246583 0.12953551 0.1990348 -0.088375315 -0.028570523
-0.028773805 0.25398588 -0.06250713 0.11154494 0.0028871049 -0.05125026 -0.004271856 0.11027998
0.04328667 0.036310576 -0.0771117 -0.09761447 -0.03218959 0.008673789 0.0019916857 -0.082924195
-0.041769225 -0.07742331 -0.005803774 -0.046810318 -0.016820764 -0.04970032 0.02870358 -0.048327513
0.020975158 0.0057105715 0.018752825 -0.024021646 -0.09367483 0.014539886 -0.025395814 0.0007804007
-0.14106306 -0.037421294 -0.014040686 0.03742538 0.19480115 0.01060212 0.014240073 0.0081335725
-0.0061444463 -0.19351187 -0.16005027 0.05580008 0.0349083 0.045280125 0.0121132415 -0.05963997
-0.033783466 -0.06003521 -0.040609725 0.11809384 0.06067795 -0.0032060195 0.010298413 -0.03355023
-0.08698805 -0.06938364 -0.020874618 -0.057414286 -0.08994307 -0.21026981 -0.03555402 0.015788017
-0.044281088 0.111780144 0.103259675 0.18392928 -0.005418626 -0.060687322 0.054325987 0.0319292
0.019597461 -0.058486596 0.018690897 0.015785165 0.02656998 0.024955058 0.1108841 0.011945775
-0.016988838 -0.0077882977 -0.013372982 -0.010800693 0.22494791 0.12899135 0.039481767 -0.02891899
-0.043595888 -0.036814816 -0.00061403104 0.07844462 -0.32063618 -0.00022767272 0.07799773 0.01884447
-0.010058713 -0.025240375 -0.07151222 -0.019770384 -0.06540936 -0.03467068 -0.0136008505 0.12132984
0.03920599 -0.048100013 -0.03443292 0.010784164 0.2969259 0.26513323 -0.023914743 0.07486976
-0.033126786 0.031812567 0.17589824 -0.17168403 0.06303582 -0.049717497 -0.072451465 -0.039960817
-0.19980139 -0.011101429 -0.11989532 -0.18591762 -0.0042751078 0.0653201 0.07405693 0.0090905195
0.004504466 0.072014585 -0.065483436 -0.0021913701 -0.03797319 -0.0585248 -0.15349378 -0.05668972
0.04034542 -0.0003668286 0.028784826 0.026301995 0.09318928 -0.03069914 0.039927926 0.27176392
-0.21950266 0.27608922 0.02035356 0.07250787 0.2918491 0.019279128 -0.032480866 -0.06846952
-0.010146452 -0.084452316 -0.13457501 -0.05036152 0.024346365 -0.019007592 -0.0237155 -0.030152949
-0.0013470997 0.027919507 0.03536913 -0.09213272 0.05452878 0.0018383843 -0.03425217 0.022760957
0.26279315 0.028659625 -0.04349984 -0.034106508 -0.098441064 0.020700555 -0.05641552 0.17181732
0.012201011 0.15829799 -0.07393148 0.0007860974 -0.057793472 0.007019249 -0.02819462 0.27260086
-0.092035 0.062123127 -0.19708629 0.12935671 0.032516938 0.044166088 0.13160817 -0.19525969
0.00071452477 -0.0340668 0.16349047 -0.049129467

classifier.15.weight f4 [10, 220]
00000000: d58e 1cbc a871 703d ceb5 133c 2044 cb3d
00000010: 1f6d 503a 007c a2bd aa43 89bd 1862 04be
00000020: 6191 b3bd 8d7e aabd 303b 14bd d36a 9dbc
00000030: f765 e2bd 2e63 e13c 5b82 123d 9fea 9bbd
00000040: 7cb7 f13c 940c b43c cc76 293e 2a8c fbbd
00000050: 66fd 593e 2ef6 f0bd 1ade 3abd fe91 39bc
00000060: 644e af3c c309 fb3c 3197 0bbc 6f6a 333c
00000070: e422 de3c 0645 0ebb 455e d5bb 3fd5 f4bd
00000080: 20ee 56bd 9fba f8bc 8152 d1bd d2c7 9cbc
00000090: 493e ce3c 45cc acbd 273a 413d 808a e93d
000000a0: 1f2b 99bd 34f1 01bc a117 64bd 243e 623d
000000b0: 8ebe 72bb 0830 bb3b 4ba0 2abd 5d11 14bc
000000c0: cbe1 0bbb e655 f3bb 735c 893c 05de b13a
000000d0: 54ef cabd 01b1 d93c 1721 463d 4228 12be
000000e0: 0fd0 fa3b f3f1 a6bb 300f 97bd 8ab1 80bc
000000f0: 1052 abbb e1b8 703d 8cfd da3c 97b8 9c3c
00000100: d6a6 653c 1a96 ef3d a992 c03d 19f1 62bd
00000110: 3df4 c23b 3232 e23d 4b86 c43c 3694 46be
00000120: cfe8 013d 8d1b 1d3d 19c5 433b b18a 04be
00000130: b146 2c3e 0a8c 463d 13fd 933b 4cbf 9bbd
00000140: 5856 8a3d f959 43bb f79c 31bd a055 88bd
00000150: 1a4f ba3a 446e de3c 9dc3 51bc b04b 83bd
00000160: 34a2 043d 4ac1 e23c 7e7d 2f3d 3aef 4fbd
00000170: c4ee bcbd 6d2d 4a3d c863 f63d 4900 f9ba
00000180: 355b 7fbc 86a5 d43d 79a4 5f3c 0793 2e3d
00000190: 23d3 0dbd bd11 59bd 466c d8bc 1887 93bd
000001a0: caa9 283d c676 ec3d df3f d73c 2218 c1bd
000001b0: 0dc5 383d 2568 36bc d6d8 0c3e 7e9f 933c
000001c0: 27da 21bb df82 94bd 6f6a 36bc b42c 57bd
000001d0: 8907 9cbb e2e2 34be 4153 ecbb 40dd 00bd
000001e0: 5096 07bd e25e 1c3d ba21 643d 9d2e 6d3d
000001f0: e681 f13c b85f 223d 6e9e 65bc b56f 193e
00000200: fac2 353d 9eb5 55bc 2ec3 123d 7c22 223d
00000210: 2a01 c0bd 8d78 263d 2322 303d 678d 8cbd
00000220: 80fd 833c fae6 9dbc c0e0 21be 31eb a8bd
00000230: 85ca 793e e479 0fbd f0e8 2abd eb8a a33b
00000240: d948 e2bd 949c 163c 692d 85bd aee8 5c3d
00000250: 6e66 ce3d 1427 a6bd eff6 903d 41e4 ea39
00000260: 0294 5c3e 1fcd 1dbe 5845 443d d91f eab9
00000270: 2d2d 1d3b fe43 d2bc dcf1 4bbe d7a8 95bd
00000280: 2ba8 f0bb 529a 073d 5c79 833c 5d8a 66bd
00000290: 27b6 56bd decd 043e b228 c73c 79ca 0dbd
000002a0: 009a 93bd bf82 f7bc 15d0 40bd 1926 b83c
000002b0: f96f 053e 63e9 17bd 86f5 9dbd eb7a f9bc
000002c0: f64d 563d c1d2 f13d 1dc8 03be 6c80 12bd
000002d0: 0b3a c7bc f56d 983c b6ae 01bd c72d 15bb
000002e0: 6d79 913e 8974 953c 6c1f 20bd cef2 bebd
000002f0: 7a3e 4c3d d891 ad3d c56a b93c b87b b23d
00000300: 1df8 eabd 3671 ee3c 6b57 793c 0d6c 56bd
00000310: 4431 153d 52e8 b8bd 63d7 4f3d c133 f2bd
00000320: 5bd9 493d 4bc9 a43d 76a1 cbba b64f c83c
00000330: 1b26 9ebb 591b 51bd 0aba 43be f69a b1bd
00000340: a5c0 c23d e0d5 c4bd 47ba a8bd 93ff b3bd
00000350: 31a2 613e 6595 293e 32e3 bf3d 989e 1bbd
00000360: e077 6a3d b2ad 113d d5f5 873d 3c3f 5b3d
00000370: 6f95 943c b9f7 3b3c 6692 13be e252 8dbd
00000380: ef8a c5bc 9b31 31bd 16b4 4abd 2681 093e
00000390: 1ff3 9e3d abc6 83bc a822 38bd 81bc f0bb
000003a0: 4dfc 1b3d 029b 093c 1afa 3c3d 4921 c43c
000003b0: 4db3 083d 04fa c6bd cec0 6fbd 0bbb b83d
000003c0: 8e10 303c c207 aebd fd24 58bc 5c7a 743d
000003d0: a5ec 313c 82a2 7c3b 9e63 b7ba 21cb 18be
000003e0: 4b78 973d 00c4 7e3d a371 24bc e4d3 d63d
000003f0: 1eef 263d e05a 3ebd c25e 70bd 37be cebc
-0.009555538 0.05870214 0.009015514 0.09925103 0.00079508306 -0.079338074 -0.06702359 -0.12928045
-0.08767963 -0.08324919 -0.036189258 -0.019215977 -0.110546045 0.027513113 0.035768848 -0.0761311
0.029506437 0.021978654 0.16549224 -0.122825935 0.2128807 -0.11765705 -0.04562197 -0.011326311
0.021399684 0.030644303 -0.008519934 0.010950669 0.027116247 -0.0021708622 -0.006511482 -0.11954736
-0.052473187 -0.030362425 -0.102208145 -0.01913825 0.025176184 -0.08437399 0.0471746 0.1140337
-0.07478928 -0.007931042 -0.055686597 0.055235043 -0.003703985 0.005712513 -0.041656774 -0.009037343
-0.00213443 -0.0074260114 0.016767716 0.0013570195 -0.099089295 0.02657366 0.0483714 -0.1427317
0.007654197 -0.0050947606 -0.07375944 -0.015709657 -0.0052282885 0.058770064 0.026732229 0.019130988
0.014016828 0.116985515 0.09402973 -0.05540571 0.0059495256 0.1104473 0.023989817 -0.19392475
0.031716164 0.038356353 0.0029872118 -0.12943532 0.16823842 0.048473395 0.004516253 -0.07604846
0.0675475 -0.0029808267 -0.043362584 -0.06656957 0.0014214248 0.027152188 -0.0128029855 -0.064109206
0.03238125 0.027680058 0.042844288 -0.050765254 -0.092252284 0.049359728 0.120307505 -0.0018997277
-0.01558571 0.103831336 0.013650053 0.042620685 -0.034625184 -0.052995432 -0.026418816 -0.072035015
0.04117755 0.11546092 0.026275573 -0.09428431 0.045109797 -0.011133228 0.13754591 0.018020388
-0.002469668 -0.07251524 -0.011133774 -0.052532867 -0.0047616404 -0.17664674 -0.007212073 -0.031461
-0.033102334 0.038176425 0.055696227 0.057905782 0.029480886 0.039642066 -0.014014823 0.14984019
0.044375397 -0.013043789 0.03583067 0.039583668 -0.09375222 0.04064231 0.043001305 -0.06862908
0.01611209 -0.019275177 -0.15808392 -0.08247984 0.24393661 -0.035028353 -0.041726053 0.0049909255
-0.11049051 0.009192605 -0.06502802 0.05393284 0.10078131 -0.08112922 0.07078349 0.0004480202
0.21540835 -0.15410279 0.047917694 -0.00044655686 0.0023983226 -0.025667187 -0.19916481 -0.07307594
-0.007344266 0.033106156 0.01604908 -0.056284297 -0.052419808 0.12969157 0.024311397 -0.03461692
-0.072071075 -0.030213712 -0.047073442 0.022479104 0.13030995 -0.03708781 -0.077128455 -0.03045412
0.052320443 0.11807776 -0.12869306 -0.035767004 -0.02431967 0.01860712 -0.031660758 -0.002276288
0.28412953 0.018244045 -0.039092466 -0.09323655 0.04986427 0.08475083 0.02263392 0.08715004
-0.11473105 0.029106718 0.015218596 -0.05234914 0.036423936 -0.090286866 0.05074252 -0.118262775
0.049279552 0.08046206 -0.001553579 0.024452072 -0.00482632 -0.05105147 -0.19113937 -0.086721346
0.095094 -0.09611106 -0.082386546 -0.08788981 0.22034527 0.16560896 0.09369506 -0.037993044
0.057243228 0.03556604 0.066386856 0.053527102 0.018137662 0.011472636 -0.14411315 -0.06900574
-0.0241141 -0.043260198 -0.04948815 0.13428172 0.077612154 -0.016085943 -0.044954926 -0.00734669
0.03808241 0.008398773 0.046136953 0.023941653 0.03337412 -0.097156554 -0.058533482 0.090200506
0.010746134 -0.084975734 -0.013192412 0.059687003 0.010859643 0.003854901 -0.001399148 -0.14921238
0.07395991 0.06219864 -0.010036859 0.10489634 0.040755384 -0.046473384 -0.058684118 -0.025237186

classifier.15.bias f4 [10]
00000000: 5bd8 7dbe 0ebf 3cbe c866 9c3e e1c2 d2be
00000010: 8220 b73d c22c bbbd 5062 62be dc7c c7be
00000020: 1de9 8bbe e70d 443c
-0.24789564 -0.18432257 0.30547166 -0.41164306 0.08941747 -0.09139396 -0.22107816 -0.38962448
-0.2732629 0.011966205
